src/notebooks/lstm_model.pth (torch, 214325 bytes, 9 tensors)

lstm.weight_ih_l0 f4 [256, 9]
000000 a0 50 e4 3e f8 3d 54 bd ab b4 5b 3e a0 2b c3 3b
       0.44592762 -0.05181691 0.21455638 0.0059561282
000010 75 e1 84 be 67 e3 bf 3d 3c b5 54 3d 68 ab 89 3d
       -0.2595326 0.093695454 0.05193065 0.06722146
000020 05 bb 26 3d d7 39 6a 3d 3f 45 9b be 26 2f b9 3e
       0.0407057 0.057184067 -0.30326268 0.36168784
000030 a0 15 d0 bb fc e0 8c 3e 2c d2 9b 3c b4 0c 96 be
       -0.006350234 0.275154 0.019021116 -0.29306567
000040 e6 30 c6 be f0 d7 e2 3d 48 37 59 3d 03 6f f2 3d
       -0.38709182 0.11076343 0.053031236 0.1183758
000050 e4 40 3d bc f6 f6 fe 3d be 8b bc 3e d5 e5 31 be
       -0.011551116 0.12449448 0.36825365 -0.1737283
000060 03 02 17 bd fa 8d 52 be 43 f5 41 3e 5d 3f e6 3e
       -0.036867153 -0.20561972 0.18941216 0.44970217
000070 aa 03 71 bd 7a 2f 42 be 14 6f 98 3d 76 96 de bd
       -0.058841385 -0.18963423 0.074430615 -0.10868542
000080 0d 8e 23 be bb 71 d9 bd 3b 0f b3 3e e6 c9 ca 3c
       -0.15972157 -0.106173955 0.34972557 0.024754476
000090 01 90 92 3e d1 9d 01 be 6f 38 71 bc f6 f2 c3 bd
       0.2862549 -0.12657858 -0.0147229275 -0.095678255
0000a0 28 7b 2b bd e5 c2 70 bc 11 08 14 be 44 80 ec bc
       -0.041865498 -0.014694904 -0.14456202 -0.028869756
0000b0 20 5f 19 ba 95 a1 bc bc db db 8d bd 2f 3d 04 3e
       -0.00058506615 -0.023026267 -0.069267 0.12913965
0000c0 c0 09 42 3d 03 c3 93 bc be 57 81 be a4 5f de bd
       0.04737258 -0.018037325 -0.25262254 -0.10858086
0000d0 37 62 22 be 33 d8 70 bd d6 cf 93 be 0a 2a 2e be
       -0.15857778 -0.058799934 -0.28869504 -0.17008224
0000e0 9c 0d 83 be ca 71 b4 bd 31 d0 23 3e 1e ee e7 3a
       -0.2559632 -0.08810766 0.15997387 0.0017694866
0000f0 a3 2d 5d 3d 62 04 cb 3d 41 da b4 3c 02 79 5e 3e
       0.0539986 0.09912945 0.022076728 0.21725848
000100 c3 9b 88 be 31 3e 63 be 6c 14 2a bd f1 c6 dd 3d
       -0.26681337 -0.22191693 -0.041523382 0.10828961
000110 45 9c 40 3e d3 42 29 be 5e 2a 81 be 6f f9 6c be
       0.18809612 -0.16529398 -0.25227636 -0.23142026
000120 85 20 cb 3e 54 ec ca 3d 10 ac 0e be ae 64 9a 3d
       0.39673248 0.09908357 -0.13932824 0.075387344
000130 51 e1 c3 3e b0 36 dc 3d 73 47 07 be de 9c f2 be
       0.3825784 0.10752618 -0.1321085 -0.47385305
000140 c6 01 8b bd bf 5f 1c 3e 39 67 ad bc b7 5e c5 be
       -0.06787448 0.15270899 -0.021167384 -0.38548824
000150 10 cc e6 bd a4 70 3f 3e c9 83 ce 3e 1e 89 07 3e
       -0.112693906 0.18695313 0.4033492 0.132359
000160 fe c1 7f 3d 2a 40 14 3e 16 a5 10 3e e1 46 8c be
       0.062440865 0.14477602 0.14125475 -0.27397826
000170 01 7b 9a 3c e2 ac 8b bd 18 ca 71 3e ee b3 9e 3d
       0.018857481 -0.06820084 0.23612249 0.077491626
000180 cd 1d ce 3d 9b aa 38 be 8d 6a 6b bd 33 19 b5 3b
       0.10064278 -0.18033831 -0.05747466 0.0055266856
000190 93 3a 05 3e 5a e9 87 bd e8 32 82 3d 06 c8 b3 bd
       0.13010626 -0.06636305 0.06357366 -0.08778386
0001a0 38 b0 d5 be b2 b8 b1 3d a8 57 6a 3e fb 5e 97 3d
       -0.41736007 0.08677806 0.22885 0.07391163
0001b0 96 12 c0 3d 13 39 72 be b8 12 8e bb 30 17 8e bc
       0.09378545 -0.23654585 -0.0043357275 -0.017345041
0001c0 f1 c4 31 bd c8 2f f3 3a c4 61 98 be d4 f5 78 be
       -0.04340071 0.0018553669 -0.2976209 -0.24312526
0001d0 bf da 82 3e 92 cc eb 3d f0 69 9a bd 34 a6 0b be
       0.25557515 0.11513628 -0.07539737 -0.1363762
0001e0 80 46 37 3d ec 40 00 3e d5 9c 76 bc 71 6a 2f 3e
       0.04474497 0.12524766 -0.01505204 0.17130448
0001f0 c9 f8 14 bd 1e 41 ce bd d6 a0 a4 3e 0c 73 cc bc
       -0.036370073 -0.10071014 0.32153958 -0.024957202
000200 29 2e 4d bc 4a fe da bd 50 cc 66 be 9f 6c 4b be
       -0.0125232125 -0.10693033 -0.22538877 -0.19865654
000210 49 cd f1 bd 95 4d 3c bd b0 5b 91 be ce d1 b8 3e
       -0.11806733 -0.045972425 -0.28390265 0.36097568
000220 a0 3f 17 3f 8e f5 6f 3e 58 38 bd bd bb 34 e9 bd
       0.5908146 0.23433515 -0.09239262 -0.11387011
000230 83 dd 87 3e 1e c0 e4 bd ef 80 4b bc 34 30 0a 3b
       0.26536188 -0.11169456 -0.012420877 0.002108586
000240 30 e3 d2 3d 75 5b d6 bd f3 9d 15 bf 90 45 be bd
       0.10297239 -0.10466663 -0.58444136 -0.09290612
000250 8b 8e 8d 3e cd 0f 39 3f fc 0c bd bd f6 e1 06 be
       0.27647814 0.72289735 -0.09230992 -0.13172135
000260 1e 38 23 bc cb 5a 38 3e 02 7d 7b 3e 50 02 f2 bc
       -0.00996211 0.18003385 0.24559405 -0.029542118
000270 a2 b2 87 3d 7c 8a 14 be d1 56 ce bd 6a cc 7a be
       0.066258684 -0.14505953 -0.10075153 -0.2449204
000280 3e 6e f5 be 67 ae 9a be 4d 59 39 3d 2d a6 86 bd
       -0.4793567 -0.30211183 0.04525118 -0.06574664
000290 94 b8 8a be 00 08 57 3a ae 62 ec 3e b8 01 cc be
       -0.27093947 0.0008202791 0.46169037 -0.3984506
0002a0 9a 6a da bc 0a f0 06 be 79 f4 d9 3c 76 e1 ab 3e
       -0.02666216 -0.13177505 0.026605831 0.3357045
0002b0 a3 e8 36 3e 3e 84 e4 bd 04 f3 bf 3d 57 bd d1 3d
       0.17862181 -0.11158036 0.093725234 0.10241192
0002c0 8f 7e 4c 3e 47 96 d7 be 6f 1e 96 be 5b b6 ae 3d
       0.19970153 -0.4210684 -0.29320094 0.08530875
0002d0 31 1c 40 bd c5 90 1f be 6f 7e ba bb ce 61 e6 3d
       -0.046901885 -0.15582569 -0.0056913416 0.112491235
0002e0 05 9a 18 3d 9c a3 21 3e d0 cd 35 3e 5a f0 b0 be
       0.03725626 0.15785068 0.17754292 -0.34558374
0002f0 c5 05 6d be 8d ca 23 3d c0 75 af 3e bd 59 13 be
       -0.23146732 0.03998809 0.34269524 -0.14389701
000300 ee cb a3 bd 8f 7d 71 bd ad 08 61 be 60 fe 70 be
       -0.07997881 -0.058957633 -0.21975966 -0.23534536
000310 86 94 3a bd 22 da 83 bd f5 75 b3 3e b8 13 8b bd
       -0.0455518 -0.0643809 0.35050932 -0.067908704
000320 b1 e4 9c be 28 9c f9 3c c1 e8 11 be 9d 6d 67 3e
       -0.30643228 0.030469969 -0.14248945 0.22600408
000330 9b 49 1f be 02 78 9a bc 80 14 6a 3a 1a 15 62 be
       -0.15555422 -0.018856052 0.00089294463 -0.22078362
000340 70 c1 79 3d 35 b7 3c 3e be 66 c3 3d af e3 07 be
       0.060975492 0.18429263 0.09541081 -0.13270448
000350 90 55 b8 be 7a a7 47 be 64 c3 96 3d 93 9c 00 3d
       -0.3600278 -0.19497481 0.073614866 0.03139932
000360 f6 be 83 3e b7 f4 32 3e c4 58 8b 3d 90 a9 f2 bc
       0.2573163 0.17476164 0.0680404 -0.02962187
000370 b1 ed 2c be e9 cc e9 bd 57 e2 d6 be bc 61 9c be
       -0.16887547 -0.11416037 -0.4196956 -0.30543315
000380 47 80 be bd 74 45 23 be 53 12 bd 3e b0 35 37 be
       -0.09301811 -0.15944463 0.36928043 -0.17891574
000390 40 19 d7 bb 8f fe 38 be 7d 0a 72 be 32 fe 22 be
       -0.0065642893 -0.18065856 -0.23636813 -0.1591728
0003a0 01 e3 93 bd 35 b6 9a be 08 3f 16 3d cf 79 2f 3e
       -0.07221032 -0.30217138 0.036681205 0.1713631
0003b0 6a 56 c9 bd a6 12 aa bd 16 9e 72 3d 16 f0 31 3d
       -0.09830935 -0.08304338 0.059232794 0.043441854
0003c0 c3 56 75 be c7 d4 c1 be c4 06 8f be c2 b8 f3 3d
       -0.23958878 -0.3785765 -0.2793485 0.11900474
0003d0 7a fe c9 3c e1 24 a0 bb a6 27 d0 3d d3 da 2c 3d
       0.024657477 -0.004887209 0.10163812 0.042200875
0003e0 56 dc f8 bd f0 33 12 3d 65 dc 45 be 23 32 47 be
       -0.12151401 0.035694063 -0.19322355 -0.1945272
0003f0 5f 53 fa 3e 7f 88 7e bd f6 2a 21 3e e0 fd 65 3d
       0.48891732 -0.06214189 0.15739045 0.056150317

lstm.weight_hh_l0 f4 [256, 64]
000000 f8 a3 91 bd e5 9a 2f 3e 2f ee 22 be f1 13 2c 3e
       -0.07111353 0.17148931 -0.15911172 0.16804482
000010 f8 90 23 3e 8d a8 86 be 71 76 91 3d 17 c5 b9 3e
       0.1597327 -0.2630047 0.07102669 0.3628318
000020 51 cb fc bd 33 43 71 3e c7 07 08 3e ba 5e be bd
       -0.12343467 0.2356079 0.13284217 -0.092954114
000030 b0 2a 85 3d 83 ab 77 be 6a 33 38 3e 33 71 14 bf
       0.065022826 -0.2418652 0.17988363 -0.5798523
000040 7a fc 7c be 56 e2 31 be 3a 6a ab 3e 4c 22 96 bc
       -0.24705687 -0.17371497 0.33479482 -0.0183269
000050 5c a2 45 3e 2f 79 2c be 7f a1 97 be f6 f9 3e 3d
       0.19300216 -0.16843103 -0.296154 0.0466251
000060 16 ba 89 be fe 8d d2 3d 3a f4 5f 3e a7 a3 39 be
       -0.26899785 0.10280989 0.21870509 -0.18128835
000070 4e 68 9a bc 30 8b 47 3d 8d 68 23 3e 9d 7e 61 3e
       -0.018848564 0.048716724 0.15957852 0.22020955
000080 32 50 26 3e 83 71 2e 3d e9 02 ac be b6 7a df bd
       0.1624153 0.042588722 -0.3359597 -0.10912077
000090 70 36 90 3e da d0 15 3e 06 90 17 3d e3 0f 81 be
       0.28166533 0.14630452 0.037002586 -0.25207433
0000a0 e0 9d 55 be 8b ac 55 3e 6d 5e 49 be bf 52 de be
       -0.20861006 0.20866601 -0.19664927 -0.43422505
0000b0 00 e0 68 3e f6 5a 35 3e cf ae 8d 3d 70 a3 1a 3d
       0.22741699 0.1771048 0.06918108 0.037753522
0000c0 d9 38 e3 3d 77 89 f8 bd ce 29 b1 bd 4a ad fd bd
       0.11094827 -0.12135594 -0.08650552 -0.12386568
0000d0 fe 2a 9f 3e 53 f8 e8 3d 37 0a 94 bd 1a 49 0a 3e
       0.31087488 0.11375489 -0.07228511 0.13504449
0000e0 ae f4 ad be aa 11 04 3d 8c 5d b1 bd 93 a9 02 3d
       -0.33975738 0.03224341 -0.08660421 0.0319
0000f0 f1 58 0f be da 32 b5 be 1d e5 5b 3e 19 a5 a5 be
       -0.13998772 -0.3539036 0.21474119 -0.32352522
000100 d2 dd 11 be 10 de 4c bd d0 0a 27 be 5d 5d 01 3f
       -0.14244774 -0.050016463 -0.16312718 0.50533086
000110 ff 0e ef bd 87 e1 ca be 68 30 7c be 09 94 1a 3e
       -0.11672782 -0.3962519 -0.2462784 0.15095533
000120 1d d7 88 3d d4 a8 60 be d5 ab f9 3e 02 8c 6e be
       0.066816546 -0.21939403 0.4876391 -0.23295596
000130 20 6c a4 3e a3 5f 07 be ea 9e 8b be 48 9e 19 be
       0.32113743 -0.13220076 -0.2726968 -0.15001786
000140 aa c2 f2 bd c3 23 e7 3e a3 a0 82 3e 4c 26 8c be
       -0.118535355 0.45144472 0.2551318 -0.27372968
000150 4a f4 b1 bd 7f 6c 4a be c4 9a 66 bd 38 da a9 bd
       -0.086891726 -0.1976795 -0.05629994 -0.08293575
000160 9d 31 e4 3e 2e 11 8b bd 49 d1 42 be 4a 3b 67 3e
       0.44569102 -0.06790386 -0.19025148 0.2258121
000170 24 3a 21 3b c2 24 f1 bd d4 e2 e7 bd b3 a7 ef bd
       0.0024601305 -0.11774589 -0.11322561 -0.11701908
000180 76 40 87 3e c0 89 82 3e 45 52 47 3e 2c 95 28 3f
       0.26416367 0.2549572 0.19464977 0.6585262
000190 32 41 85 3d 6c c4 05 3f e7 0c 5c be 84 96 53 bf
       0.06506576 0.5225284 -0.21489297 -0.82651544
0001a0 b2 fb fb 3c 15 1c 9c 3d 11 89 2f 3e 95 39 bf bd
       0.030759666 0.07622544 0.1714213 -0.09337155
0001b0 77 1e 07 3f d3 31 97 3e 43 24 b1 3e df c3 be 3e
       0.5278086 0.295302 0.34597978 0.37258813
0001c0 31 36 5b 3e 7d 5f 7d 3e 44 5d 19 be b4 ab cc bd
       0.21407391 0.24743457 -0.14976984 -0.09993687
0001d0 26 3f 81 3e ea 1b 3f bd a6 6c bf bd 7d 85 91 3d
       0.2524349 -0.04665748 -0.09346895 0.07105539
0001e0 5e 0e b8 be cd 42 0b be 25 16 86 bc f9 61 8c be
       -0.3594846 -0.13599701 -0.016367981 -0.27418497
0001f0 48 ec 91 bd 88 d0 cf 3d fa dd cd bd 9f 43 30 be
       -0.07125145 0.10147196 -0.10052104 -0.17213295
000200 3b 35 63 3d 7d 18 72 3e d4 e1 5e bd df 7c 94 3e
       0.055470686 0.23642154 -0.054414585 0.2900152
000210 bd 12 d5 3e 6a 50 ca 3e c6 f9 4b 3d b7 47 fa 3e
       0.4161586 0.39514476 0.04979875 0.4888284
000220 92 ee e0 3d 3b 3e f1 3c 37 7a 88 3d 31 11 da 3e
       0.10983004 0.02944862 0.06663936 0.4259124
000230 09 fd 1b 3d 85 39 0e 3e 5d ce 47 be b3 59 74 bc
       0.03808311 0.1388913 -0.19512315 -0.014913964
000240 4c 6b b7 3e 8e a4 f0 3e 2f ef ad 3d eb e4 db be
       0.3582405 0.47000545 0.08492886 -0.42948088
000250 3c e3 a1 be fd 5a 8f 3e 56 b7 3a 3e 6a 9b 2a be
       -0.3161868 0.27999106 0.18234 -0.16660848
000260 d6 6c 3c 3a 7d 91 0d bf 67 cb 07 3e f3 fe 67 3d
       0.00071878487 -0.5530012 0.13261186 0.056639623
000270 e0 9b 1c bf d1 08 0c 3e 44 c4 10 bf a0 f4 41 3d
       -0.61175346 0.13675238 -0.5654948 0.047352433
000280 96 51 84 bd e2 72 99 3d ea d2 70 bd 6b 83 75 3c
       -0.06460874 0.07492615 -0.058794893 0.014984946
000290 e6 5a 32 3d e7 aa c7 3d 6e 83 b3 3e bb 12 d6 bd
       0.04354372 0.09749394 0.3506121 -0.10452791
0002a0 30 72 c8 3e c8 61 a1 3d ab c5 1c 3e bf b9 07 3d
       0.39149618 0.078799784 0.1530978 0.033136126
0002b0 e5 12 dc 3c 06 aa 53 3c 7f 56 9f 3d 9a 2d 90 be
       0.026864478 0.012918955 0.0778017 -0.2815979
0002c0 f1 44 ac 3e 69 d0 49 be fb aa 3e 3d 58 7d 65 3d
       0.33646348 -0.19708408 0.04654978 0.05602774
0002d0 79 26 16 3e e3 c2 24 3d 71 80 fb be 73 36 f1 3d
       0.14663114 0.04022492 -0.4912143 0.117779635
0002e0 b1 50 45 3e f8 b1 c2 bd 4c 70 dd bd 1a d9 06 be
       0.19269063 -0.09506601 -0.108124346 -0.13168755
0002f0 09 8c 91 be b8 e8 e8 be 27 ab 15 3e ac 06 89 3d
       -0.2842715 -0.4549005 0.1461607 0.06690726
000300 90 5e 38 3e 71 b7 49 3e 2b 23 d3 3d 5f 52 91 3e
       0.18004823 0.19698884 0.10309442 0.28383157
000310 b9 1b 23 3d c9 c1 00 3e b1 fd 08 be 25 1f 47 3d
       0.03982136 0.12573923 -0.13378026 0.048613686
000320 b6 64 aa be ad 87 0b 3e 49 3a 99 3e dc db 79 3e
       -0.3327996 0.13625975 0.2992728 0.24400276
000330 7f 53 95 bd 44 81 9e 3d 6a 69 05 bb 0f 0b df bd
       -0.07291316 0.07739499 -0.002035702 -0.10890781
000340 ca 55 21 3e 88 ed 10 be 36 12 ff bd 1a b0 c2 be
       0.15755382 -0.14153111 -0.12454645 -0.3802498
000350 23 a4 3d bd a8 a8 13 3e 38 06 6a bd f7 75 0b 3e
       -0.04629911 0.14419806 -0.057134837 0.13619219
000360 6a 4a bc be bf 8e ce bd 41 79 19 3f 70 1e 82 be
       -0.36775523 -0.100858204 0.59950644 -0.25413847
000370 10 7f a3 3d 05 14 ec 3e cc db 16 be ff d7 a4 3c
       0.079832196 0.46109024 -0.14732283 0.020122526
000380 11 a2 fe bd 0b e5 00 be 8c 07 cc 3e 31 6f 30 be
       -0.124332555 -0.12587373 0.39849508 -0.17229916
000390 32 fb 35 3e 84 90 10 3e 43 67 60 3e 35 cc ac be
       0.17771605 0.14117628 0.21914391 -0.33749548
0003a0 4d 1b a1 bd 96 4f ca 3e da 26 cb be 72 09 7c 3e
       -0.07866535 0.39513844 -0.3967808 0.24612978
0003b0 3f 65 5b 39 e3 cb a1 3e 18 b8 00 3e 71 c0 1a 3e
       0.00020923185 0.31600866 0.12570226 0.15112473
0003c0 81 77 cd 3e 17 9e 5e be 80 b1 dc be e6 d6 6c be
       0.40130237 -0.21739994 -0.43104172 -0.23128852
0003d0 79 44 d8 3e 02 d4 ce be 7e 29 4a bd bc 64 34 3d
       0.4223974 -0.40396124 -0.049355976 0.04404138
0003e0 45 b6 e7 be 3c 31 1d be f2 1a 0d 3e 0e 86 9d 3c
       -0.45256248 -0.15350813 0.1377981 0.019228961
0003f0 af 9a 14 be eb f6 29 bd 9e ae 9f 3e 13 f5 9d be
       -0.14512132 -0.041495245 0.3118791 -0.3085104

lstm.bias_ih_l0 f4 [256]
000000 27 90 77 be 57 5b 06 be 6b 9b 28 be 80 aa d2 bd
       -0.24176084 -0.13120781 -0.16465537 -0.102864265
000010 c1 1f 59 3e 16 18 02 be bf 6d e4 3b 0f f2 92 3d
       0.2120352 -0.127045 0.0069710906 0.07175075
000020 24 14 5a 3e 2e a5 98 3e 47 b8 0a bf fb dd c5 bd
       0.21296746 0.29813522 -0.54187435 -0.0966148
000030 38 28 5d be 57 ba 97 3d 6b 02 37 3d b6 7c 74 3e
       -0.21597373 0.074085884 0.04468004 0.23875698
000040 ab 5a 1f be d2 89 5d 3d bd 53 36 3e 8a 17 07 bd
       -0.15561931 0.054086514 0.17805381 -0.032981433
000050 4f b8 7d bd af 0c 5a be 05 c2 7f 3c d2 a0 3e bd
       -0.06194335 -0.21293901 0.015610223 -0.04654009
000060 4e 54 b3 bd 0e ac 2d 3e f4 a0 dd 3b 66 f5 32 3d
       -0.08756314 0.16960165 0.006763572 0.04369106
000070 3a 24 69 be 80 4e 08 3e f7 6e 83 bd e2 c0 97 3e
       -0.22767726 0.13311195 -0.06417649 0.29639345
000080 09 8d 1c 3e c6 25 15 bd 17 90 ac 3d c4 5d b7 be
       0.15288176 -0.036412977 0.084259205 -0.35813725
000090 66 54 bb bd 55 c6 1a be da 72 6b be 71 22 d5 3d
       -0.09146957 -0.1511472 -0.22993031 0.1040696
0000a0 13 a9 f1 bc 23 81 78 3e e2 aa 1c 3d 4f 55 98 3e
       -0.029499566 0.24268012 0.038248904 0.29752585
0000b0 f0 dc 81 3d 17 1a 65 3b c5 3b ac bd 2e bd 24 bd
       0.063409686 0.0034958178 -0.08409838 -0.04021948
0000c0 a4 7e 89 3c ca ca 71 be dd ee 0e 3e f5 3b c9 bd
       0.01678402 -0.23612514 0.13958307 -0.09825889
0000d0 db 8b 12 be 5d e8 00 3e 45 79 2b be 5d c1 d8 bd
       -0.14311163 0.1258864 -0.1674548 -0.10583756
0000e0 60 a4 f6 3a 54 93 40 bd 98 61 61 be 10 6f 46 bd
       0.0018817298 -0.047015503 -0.22009885 -0.04844576
0000f0 d8 b2 c3 3e ac 42 75 3e 0d 75 07 3e 36 66 37 3c
       0.38222384 0.23951215 0.13228245 0.011193803
000100 d2 1e b9 bc 32 78 25 be 0b 6c 05 3c 32 c8 7c bd
       -0.022597704 -0.16159132 0.008143435 -0.06171436
000110 c5 b4 59 3e 4c 19 bb 3c d1 cd b8 3d 03 ab bb 3d
       0.21260364 0.02283921 0.09023631 0.09163477
000120 40 3f ff 3d db 45 cd bd e0 09 20 bd 68 21 89 3e
       0.12463236 -0.100230895 -0.039071918 0.267833
000130 65 b5 0d be 9a 21 38 3e e6 0d 50 bd 0a f2 26 be
       -0.13838728 0.17981568 -0.050794505 -0.16303268
000140 cd f7 63 be 5d 5a 32 3e 66 db 29 be 07 b0 a2 bd
       -0.22262497 0.17417283 -0.165876 -0.07943731
000150 31 ce 60 3e 34 e9 c7 3d 10 f9 02 3d 27 4b 1f bb
       0.21953656 0.09761277 0.031975806 -0.002430627
000160 5c 3b 67 bc ed d3 ae 3d 98 c3 f1 3d 03 95 c8 3d
       -0.0141132735 0.085365154 0.11804885 0.09794047
000170 52 84 09 bd af 67 45 3e 4a 0d 65 3d 8e e0 99 bd
       -0.033573456 0.19277833 0.055920877 -0.075135335
000180 81 95 80 3e a1 84 4a 3e 7a e9 d9 3b 9f 6b 3b 3c
       0.25114062 0.19777156 0.006650147 0.011439233
000190 fb b7 ed 3c 8c 6a 33 3e 49 d4 88 bd 74 4c ba 3b
       0.029018393 0.17521113 -0.06681115 0.0056853835
0001a0 99 51 28 3e 30 1c 38 3e 48 b1 97 bd af 58 d2 bd
       0.16437377 0.17979503 -0.074068606 -0.10270821
0001b0 90 cf c5 bd de d2 10 3e 1d e5 b8 3d ee 54 82 bc
       -0.0965873 0.1414294 0.09028075 -0.015909638
0001c0 99 83 19 3e 69 10 c0 bc 33 78 a9 3d 23 31 ae be
       0.14991607 -0.023445325 0.08274879 -0.34021863
0001d0 46 25 88 3c b1 4e b1 bd 88 d4 d3 bd ba 5b 6a ba
       0.016619336 -0.08657587 -0.103432715 -0.000894006
0001e0 b2 23 1c 3d 8f 20 69 3d 5c 2e bb 3d 4e 47 41 bd
       0.03811998 0.056915816 0.09139702 -0.047187142
0001f0 2c c0 00 be 47 0a 3d bd 40 1e 24 bd bb d8 47 3e
       -0.12573308 -0.04615238 -0.04006791 0.1951627
000200 6f 05 ae bd 95 6a 1c 3b fe b9 20 3d b9 97 e7 3b
       -0.0849713 0.0023867239 0.039239876 0.0070676473
000210 15 d0 e3 bd 7a 02 e4 3c 87 85 ee bb e2 90 0f 3d
       -0.11123673 0.027833212 -0.0072791013 0.03505028
000220 1d ee 8d 3d 79 ac 2a bd 12 7f e9 bd 46 87 28 3c
       0.06930182 -0.04166839 -0.1140119 0.010286158
000230 ed 34 7f 3c bf 37 47 3d 8a 7e c4 3d 70 0f 99 3d
       0.015576583 0.048637148 0.09594448 0.074736476
000240 12 db 5a 3d 8c 81 35 be 7b a8 8f bc 8f ee cb 3d
       0.053431578 -0.177252 -0.017536392 0.09957611
000250 c1 0a ca bd db cf 89 3b c1 70 96 bc 45 51 85 3d
       -0.098653324 0.0042056865 -0.018364312 0.065096416
000260 68 e7 66 bd f3 d1 c5 3c 83 47 84 39 12 87 0d be
       -0.05637303 0.024147963 0.00025230282 -0.13821056
000270 1b fa cb 3d 21 c1 84 3d 80 9d 80 3e 3a 50 a1 bd
       0.09959813 0.06482149 0.25120163 -0.0787663
000280 b1 bc fd bc 1a 3c 9f bd 01 19 39 be 22 0d b9 3d
       -0.030973764 -0.07775135 -0.18075944 0.09035708
000290 c5 f5 18 3d 02 58 12 be 95 71 d2 bd fe ef 95 3d
       0.03734376 -0.14291385 -0.1027557 0.073211655
0002a0 55 a4 35 be 58 67 c0 3b 3d 34 b7 bd 52 0a 1f bd
       -0.17738469 0.0058716945 -0.089455105 -0.0388282
0002b0 37 ee f8 3d ce 49 8d bd 54 fd 7c 3d c7 08 05 3d
       0.12154811 -0.06898843 0.06176503 0.032479074
0002c0 09 37 de bd 21 74 5d 3c db c0 08 3e ec bf b0 bc
       -0.10850341 0.013516457 0.13354819 -0.02157589
0002d0 c3 64 45 3a 5b ad 0c bb 28 4a 12 bd ef 30 e4 bd
       0.0007529968 -0.0021465633 -0.035715252 -0.11142146
0002e0 e8 65 a7 bd f8 8a e6 3d 85 2a 84 3d d6 31 89 3d
       -0.08173734 0.11256975 0.064534225 0.066989586
0002f0 fa 46 cf bd f8 a5 35 3e 7c 99 6c bd bb 07 37 bc
       -0.101209596 0.17739093 -0.05776356 -0.011171277
000300 5a 19 71 bd a8 96 18 be 1e 4e 01 be 8a 27 36 bd
       -0.058862068 -0.14901221 -0.12627456 -0.0444713
000310 a0 7f 90 3e c7 5a f0 bd 1e 84 2c 3d 8c d4 f1 3d
       0.2822237 -0.117360644 0.042118184 0.11808118
000320 06 a0 a0 3e 4d e0 91 3e 84 77 d3 be 05 42 34 bd
       0.31372088 0.2849144 -0.4130212 -0.044008274
000330 6a 6a 9e 3d f0 6d 02 bd 99 f7 b9 3c 65 74 bf 3e
       0.077351406 -0.031843126 0.022701072 0.3739349
000340 06 29 4a bc af 0e 84 3e 10 95 24 3e cd f8 14 3d
       -0.012338882 0.25792453 0.16072488 0.036370087
000350 94 40 8c 3d f6 d8 02 be 3c f4 b1 3d 15 c8 64 bd
       0.06848255 -0.12778077 0.08689162 -0.055854876
000360 0e 21 f9 bc 62 65 62 3e 55 16 79 bd a0 cf c9 bd
       -0.03041127 0.22108987 -0.060812313 -0.098540545
000370 0a 91 ee bd 17 c1 c2 bd 16 77 d7 3c 10 ac d7 3e
       -0.11648758 -0.09509485 0.026301902 0.4212346
000380 a4 e4 b6 3d 5f f1 54 bd ea d4 a9 3d 1c ae 98 be
       0.089303285 -0.051988002 0.08292563 -0.29820335
000390 30 aa 52 3d 89 f9 d6 bd c9 68 f7 bd ac 69 63 3e
       0.051431835 -0.10496814 -0.12080533 0.2220828
0003a0 6a 1c d1 3d 22 db b0 3d 2d 24 d9 3d a1 d5 9f 3e
       0.10210498 0.08635546 0.10602603 0.31217673
0003b0 7d 72 10 3d b5 a8 59 be ee 2c 48 bc e0 c9 88 bb
       0.035265435 -0.21255763 -0.012217743 -0.004174456
0003c0 ac c7 bf 39 b3 18 70 bd 82 24 51 3d 4e 75 74 3d
       0.00036579126 -0.058617305 0.051060207 0.059682183
0003d0 6b 1e f3 bd 7a 98 55 3d 27 b2 d0 bd f1 df 26 bd
       -0.11871036 0.052147366 -0.1019023 -0.04074091
0003e0 19 4e fa 3b b2 45 9f bd 0a 1d 34 be ee 08 d5 bd
       0.0076387045 -0.07776965 -0.17589203 -0.10402094
0003f0 04 55 a1 3e 44 bb bd 3e e6 a4 b9 3d a9 fb 82 3d
       0.31510174 0.37056935 0.09064655 0.063956566

lstm.bias_hh_l0 f4 [256]
000000 e3 72 e7 bc 5b 63 20 be 1e 51 11 be 0e 17 f8 b9
       -0.028253024 -0.15662901 -0.141911 -0.00047319423
000010 56 93 72 3e e2 15 a5 3c 6d 90 80 bb 9a 65 4d 3e
       0.23689017 0.020152036 -0.003923467 0.20058289
000020 50 67 38 3e 87 4c 48 3e 69 ab ef be 62 c9 65 bd
       0.1800816 0.19560443 -0.46810463 -0.056100257
000030 c7 22 c9 be a2 ec 76 3e ee d0 cf 3d 4f 2c 73 3e
       -0.39284346 0.24113706 0.10147272 0.23747371
000040 c1 d4 22 be 1b 69 81 3e 32 93 db 3d b4 a2 30 be
       -0.15901472 0.25275502 0.10721435 -0.17249566
000050 9c 22 8c be f7 df ac be e1 b7 0d 3e 78 3d 85 3d
       -0.27370155 -0.33764622 0.13839675 0.06505865
000060 ea 74 04 bd 41 13 07 3d 1e f1 dc 3b 93 b8 7e 3b
       -0.03233806 0.032977346 0.0067426106 0.003886734
000070 69 29 ce be 10 53 12 3d 18 d9 72 bd c0 c1 97 3e
       -0.40265968 0.035723746 -0.059289068 0.29640007
000080 b6 4b bb 3d 4b 00 70 3d c5 d4 7d bb 8b 06 6b be
       0.091453 0.05859403 -0.0038731557 -0.22951715
000090 81 31 42 be 09 42 4a be 84 0e c2 bd 02 08 cd 3d
       -0.18964197 -0.19751753 -0.09475425 0.10011293
0000a0 85 f0 0a 3d cc d8 ae 3e a1 ad ad 3c b9 a0 62 3e
       0.033920784 0.34149778 0.021200957 0.22131623
0000b0 4e cc b6 3d e8 59 0c bd 80 ad 46 bd f1 f7 1a be
       0.08925687 -0.03426543 -0.048505306 -0.15133645
0000c0 a1 6b 15 be 64 3e 8e be 98 2b 65 3d fa d9 15 bd
       -0.14591838 -0.27781975 0.055949777 -0.03658483
0000d0 bf 4e a4 bd e1 bc ac 3e 53 21 89 be b2 0a ab bd
       -0.08022832 0.33737853 -0.26783237 -0.08351649
0000e0 a6 2e dc 3c e9 ab 19 be 86 ac 5f bd 4d 89 1b be
       0.026877712 -0.15006985 -0.05460789 -0.15189095
0000f0 28 68 cd 3e 64 14 c1 3e 46 aa 0f 3e c9 5d f1 3c
       0.40118527 0.3771087 0.14029798 0.029463666
000100 e7 bc 40 3e 01 01 4e be df 84 17 3c 6e 2d 55 3d
       0.1882206 -0.2011757 0.0092479875 0.05204528
000110 c7 6e 6c 3e 2f d5 e2 bc 73 25 61 3c 6e 3b 4a 3e
       0.23089133 -0.027689544 0.013741839 0.19749233
000120 73 b2 78 3e db 85 0f bd bd 95 7b bd d8 52 89 3e
       0.24286823 -0.035039764 -0.0614221 0.26821017
000130 75 36 c7 3c ee 23 16 3e fb fe 75 3d e3 6e 21 bd
       0.02431796 0.14662144 0.06005762 -0.03941239
000140 ce 81 93 bd 42 be 0d 3d fd 44 7b be 83 70 11 3e
       -0.07202493 0.034605272 -0.24538036 0.14203076
000150 62 7f 40 3e c6 d4 50 bc 93 6d b2 bb 73 d8 4e 3d
       0.18798593 -0.012746042 -0.005445191 0.05049939
000160 69 65 d6 bd ad d9 b4 3d c6 ce 8d bd ab 04 2c 3e
       -0.10468561 0.08830581 -0.069242045 0.16798656
000170 d2 d8 8a bd 59 6a 91 3c 73 8e 0f 3e 5f 51 28 be
       -0.067796364 0.017750906 0.14019184 -0.1643729
000180 dd 59 28 3e d1 ee 67 3e 11 4a 18 3e b9 f5 ad bb
       0.1644053 0.22649695 0.14872004 -0.0053088334
000190 87 a3 3f 3d 4b 71 6e 3e 37 2b 12 3d 93 df 4a 3b
       0.04678681 0.23285405 0.035685744 0.0030956015
0001a0 6e 43 6e 3e b0 d2 99 3d ec fd 82 be ec ba 27 b9
       0.2326791 0.075108886 -0.25584352 -0.00015995995
0001b0 ae 30 18 bd 94 29 8e 3c 0b ca 93 3d ac 5e a1 3d
       -0.0371558 0.01735381 0.07216271 0.07879385
0001c0 60 3c fc 3d 60 63 31 3e 97 bb 16 bd d4 f3 12 be
       0.12316203 0.17323065 -0.036799993 -0.14350826
0001d0 b3 c9 ca bc 90 c0 cd 3c 36 c9 b2 3d 83 2c 0b 3e
       -0.02475438 0.025116235 0.08729784 0.13591199
0001e0 f9 aa c4 3d 63 59 17 3d 69 8a 5c bc 81 34 be 3d
       0.09602923 0.03695048 -0.013460734 0.09287358
0001f0 62 44 d7 bc 92 db 0c 3e d2 21 ea 3c 71 0e 53 3d
       -0.026277725 0.13755634 0.02858058 0.051527444
000200 c6 b9 80 3d 52 95 14 3e ff d2 fc 3c 3c 5d 35 3d
       0.062854335 0.14510086 0.03086233 0.04427837
000210 62 53 a7 3c 07 00 c2 bc 10 b2 8c bc 5c 45 b0 bc
       0.020425502 -0.023681654 -0.01717475 -0.021517448
000220 dd c8 35 3c 68 78 0b 3e b0 b3 83 be 7d 9e 18 3e
       0.011095253 0.1362015 -0.25723028 0.14904208
000230 3d 37 df 3d c9 b8 b9 bb 1a c8 2e 3e 30 33 1e bd
       0.10899208 -0.00566778 0.1706852 -0.038623035
000240 4a cb 94 3d d9 62 49 bd 8e 41 b4 3d 06 73 ac 3d
       0.07265337 -0.049166534 0.08801566 0.084203765
000250 05 7f f4 bd 02 a0 65 3d 9b 3c 78 bd ad d7 a7 3d
       -0.119382896 0.0560608 -0.060604673 0.08195434
000260 3c a5 4b bd dd 53 21 bd 25 bf 19 3e 27 06 1a be
       -0.049718127 -0.03938662 0.15014322 -0.1504141
000270 a3 e4 1d 3c 7a 74 b5 3d 39 ab b7 3d a5 be 86 bc
       0.009637031 0.08860107 0.08968205 -0.016448328
000280 50 9d e3 bc 01 e5 94 3d cf 45 c2 bd ee 84 fa bd
       -0.027784973 0.072702415 -0.09485971 -0.122323856
000290 19 18 02 be 49 b3 4d bd ed b6 ae 3d 9a 6a 88 3e
       -0.12704505 -0.050219808 0.08530984 0.2664383
0002a0 1e 4a 9e bd ce 58 d6 3c 52 fb 98 bd cb c4 98 3d
       -0.077289805 0.026165392 -0.074698105 0.0745941
0002b0 3e d7 90 3d 1a f8 f2 bd fa 05 92 3d bb e9 c5 3c
       0.07072304 -0.11863728 0.07130046 0.024159303
0002c0 b6 2d 1a be 3d 7e 45 3e 27 70 8c 3c 2f 31 d7 3c
       -0.150565 0.19286437 0.017143322 0.02626857
0002d0 93 44 e3 bc 9a d1 28 3c 23 1c a5 bd 55 28 48 be
       -0.02774266 0.010303879 -0.08062007 -0.19546635
0002e0 7b 4b 04 3e 0d e5 1f 3d 22 af 05 bd 05 36 3f 3d
       0.12919419 0.0390368 -0.032637723 0.046682376
0002f0 92 12 c8 3d 69 47 33 3c f7 5f 88 bd 20 be ab 3d
       0.09769167 0.0109423185 -0.06658929 0.08385873
000300 d4 ff 30 be 94 38 8f bc 56 b7 60 be 76 ad 94 3d
       -0.1728509 -0.017483033 -0.21944937 0.072596475
000310 bd 84 98 3e df dd 21 be c5 4d a5 bb 3b a0 ea 3b
       0.2978877 -0.15807293 -0.0050446712 0.0071602142
000320 20 37 d7 3e c6 78 26 3e bb 71 6b be 2e 2c 9a 3d
       0.42034245 0.16257009 -0.22992603 0.07527958
000330 ca 62 fd bd 99 77 eb 3d 2c 35 f5 bc b5 46 ba 3e
       -0.12372358 0.11497421 -0.02993258 0.3638207
000340 08 b6 60 be e5 ad ae 3e 55 ae 45 3e 68 19 9e 3c
       -0.2194444 0.34117046 0.19304784 0.019299224
000350 40 a0 99 3d 20 f3 2d bd c9 81 1a 3e 70 70 cd bc
       0.075012684 -0.04246819 0.15088572 -0.025078028
000360 81 0d 15 be ef 2a b7 3e 0a b8 31 bd 27 01 1f 3d
       -0.14555933 0.35774943 -0.043388404 0.03881946
000370 55 ea a7 be 7c 7e 67 bd ac e4 2e 3d 42 d3 e1 3e
       -0.3279597 -0.05651711 0.042698547 0.4410649
000380 66 97 cf 3d 6d d8 1c bd 04 45 e2 3d d7 93 da be
       0.10136299 -0.038292337 0.1104832 -0.42690918
000390 98 6b db 3c bd af 7b 3d c9 fc 12 be 8b c5 7b 3e
       0.026784703 0.061446894 -0.14354242 0.24587075
0003a0 2a 7e 34 3e 87 54 79 3e 45 aa a5 3a bf ce 16 3e
       0.17626253 0.24348651 0.0012639245 0.14727305
0003b0 8b 21 36 3e a8 b8 45 be 2f 26 21 bd 28 82 09 be
       0.17786233 -0.19308722 -0.039343055 -0.13428557
0003c0 d3 5a 3e be 2f e9 a8 3d 12 69 5d 3e f8 df 3d be
       -0.18589334 0.08247601 0.21622112 -0.18542469
0003d0 46 b9 5e be ba 37 8f 3e c8 3c a8 bd 47 49 bd 3c
       -0.21750364 0.27972203 -0.08214718 0.02310623
0003e0 c7 06 84 bd 2f 73 cd bd 6c 87 e0 bc 3a b7 88 bc
       -0.06446605 -0.10031735 -0.027408324 -0.016688932
0003f0 7b c7 b0 3e 4a d4 95 3e 23 88 06 3e ee 39 e2 3c
       0.34527192 0.29263526 0.1313787 0.027615514

lstm.weight_ih_l1 f4 [256, 64]
000000 05 e8 8b 3e fd ce e2 be 45 f5 af be ef eb 54 3d
       0.27325454 -0.44298545 -0.34366813 0.051982816
000010 c1 96 9a 3e e4 7b 93 3e 19 8f 06 3f ad 4e 42 bd
       0.3019314 0.2880546 0.525621 -0.047438312
000020 f6 a4 81 be ef 40 80 bd fc 4e 21 3e 31 8b 8b 3e
       -0.25321168 -0.06262385 0.15752786 0.27254632
000030 97 d5 96 be 3b 00 20 ba e7 3c 2f bd 34 15 ed 3e
       -0.2945983 -0.000610355 -0.04278269 0.4630524
000040 95 a1 05 3e 72 81 8f 3e 39 01 29 be 11 48 58 3c
       0.1304992 0.28028446 -0.16504373 0.013200776
000050 f8 c2 ad bd c6 9d 57 3e a0 98 d3 3c 4f 4c 4f 3e
       -0.08484453 0.2105628 0.025829613 0.20243953
000060 2c d4 42 be 6f 84 b2 be 6f c9 0f 3f 57 c3 a1 be
       -0.1902625 -0.34866664 0.5616674 -0.31594345
000070 e0 d4 e2 bd 55 83 3b bd 8b ce 15 bf f4 02 97 be
       -0.11075759 -0.045779545 -0.58518285 -0.2949444
000080 02 0f b1 be 0a 63 71 bd 2b e2 91 3e ef 65 ce 3d
       -0.34581763 -0.05893234 0.28492865 0.10078036
000090 bf d4 92 3e 74 7f 49 3e 3d a2 0d 3f 96 cf f5 bd
       0.28677937 0.19677526 0.5532568 -0.120024845
0000a0 54 a6 c6 bd 4e 65 50 3e 5c ef 77 3c 0e 43 81 3e
       -0.09699693 0.20351145 0.015132751 0.2524647
0000b0 35 63 3e bd 79 25 a8 be e6 24 c0 bc c7 dc de 3d
       -0.04648133 -0.3284109 -0.023455095 0.10881954
0000c0 d1 a1 82 3e aa 48 95 3c 8c 20 e8 3c dd e4 71 3d
       0.2551408 0.018223125 0.028335832 0.05905615
0000d0 4f 6f 1b 3d 06 ae cd be 14 3a 99 bd 3e b3 ce bc
       0.03794795 -0.40171832 -0.07481781 -0.025231954
0000e0 20 59 cf 3d 81 ac 43 be cd 89 d0 3e 48 42 c2 3c
       0.10124421 -0.19108774 0.40730134 0.023713246
0000f0 dd 21 08 be 79 ab 6d 3e 35 f2 34 3e 4e a9 a0 bd
       -0.13294168 0.23209943 0.1767052 -0.07844792
000100 6e 92 9f 3d 20 7a 02 be 82 26 b4 3e ef 47 31 3d
       0.07791601 -0.127419 0.3518563 0.04328149
000110 da a5 0e 3e 26 f7 8c bd 32 5b 69 3e 32 45 e9 bb
       0.13930455 -0.06883077 0.22788695 -0.0071188444
000120 6d 3f 0c be b7 92 59 be 6f 22 ad bd 00 d5 91 3c
       -0.1369607 -0.21247374 -0.08453833 0.017801762
000130 00 e6 31 bc 40 3e 76 bd c2 dc 95 3d 4f b6 d0 3e
       -0.010858059 -0.06011796 0.07317497 0.4076409
000140 55 4a bb 3d da 05 8e be 79 a0 09 3d 23 d6 96 bd
       0.09145037 -0.2773884 0.033600304 -0.07365062
000150 f2 60 25 bd ef bf e0 3c b2 78 96 bb 51 dd bb bd
       -0.040375657 0.027435271 -0.0045920247 -0.09173072
000160 5c d6 12 be 0b 93 5a be e3 4f ae bd 94 84 ef bd
       -0.14339584 -0.21345155 -0.08511331 -0.11695209
000170 72 32 0d bd cc 4e 6a 3e 32 cf 95 be db e5 03 3e
       -0.034471937 0.22881621 -0.2925964 0.12880652
000180 98 48 b8 3e 86 94 db 3e a0 02 b2 bd f7 51 6a be
       0.35992885 0.42886752 -0.08691907 -0.2288283
000190 00 ae ba be 25 89 43 3e 50 c0 e1 3e 8e 8e 09 bf
       -0.36460876 0.19095285 0.44092035 -0.53733146
0001a0 2e 15 9a be 72 6b 28 3e 3e ea 5e 3e 39 ae 96 be
       -0.30094284 0.16447237 0.21769044 -0.29429796
0001b0 33 77 7c 3e 65 c5 af bc 0b 17 1e bd c8 c3 8a 3e
       0.24654846 -0.02145643 -0.038596194 0.27102494
0001c0 b4 bd c4 3d e9 22 44 3e 29 23 52 3e 55 69 33 3e
       0.096064955 0.19153942 0.20521225 0.1752065
0001d0 7d be 85 3d 36 e1 3d 3e 9b 0b 7b be 61 c4 78 3e
       0.065304734 0.18542942 -0.24516146 0.24293663
0001e0 93 e8 ca be 0b 86 90 3e bb fb a7 3e 6d ea a9 bd
       -0.39630565 0.28227267 0.32809243 -0.08296666
0001f0 d4 4c e3 bd dc 0c 82 3c a1 06 90 bd 18 b1 a6 3b
       -0.11098638 0.015875272 -0.07032514 0.005087029
000200 13 35 8d 3b c5 47 33 bf 52 ca d6 be cb 47 61 be
       0.0043093055 -0.70031387 -0.41951233 -0.22000043
000210 b2 14 c5 3a 2e 0e 80 3e fe 40 8e be 70 4d 72 be
       0.0015036075 0.25010818 -0.2778396 -0.23662353
000220 e2 bd ba be 4e 53 c0 bd 59 7e 2a 3e 1f 64 8f 3d
       -0.36472994 -0.09390889 0.1664976 0.070015185
000230 ba fc 03 be 2e bf 0e be 5f 00 61 be 3c 38 2c 3e
       -0.12889376 -0.13940117 -0.21972798 0.16818327
000240 73 48 db bd e4 d9 58 3e 56 ad b5 be ed 59 6d be
       -0.10707178 0.21176869 -0.35483807 -0.23178835
000250 02 fb 1e 3c 3c 47 44 bc d9 9e 0a 3d ad e6 80 bd
       0.0097034 -0.011979874 0.033842895 -0.06293998
000260 d0 28 c6 bc 0a 7d 05 be 02 68 c0 3e dc 55 e9 3d
       -0.024189383 -0.1303598 0.37579352 0.113933295
000270 cc 00 7b bd da d0 46 3e 70 51 7d 3e 36 44 c8 3c
       -0.061280057 0.19415608 0.24738097 0.024446588
000280 11 41 7d 3e 2b 2b 0a be e6 db a3 3e 53 7d b9 3d
       0.24731852 -0.1349303 0.32003707 0.09057107
000290 05 bd 81 bd 04 54 b3 3e c3 46 a5 3e 61 78 b6 be
       -0.06334881 0.35025036 0.3228055 -0.35638717
0002a0 87 d0 4a be fc 06 b3 3d 9c e8 0b be 20 2f a9 3d
       -0.1980611 0.087415665 -0.13662952 0.082609415
0002b0 09 c3 25 bd f8 4a 03 bd 17 99 f7 bc d2 44 92 be
       -0.040469203 -0.032053918 -0.030224366 -0.2856813
0002c0 53 c9 86 3e b5 ef a2 3d 74 89 52 3e 1a 44 48 be
       0.26325473 0.07955877 0.20560247 -0.19557229
0002d0 55 80 52 be ea 1a 0a be 23 f5 f8 3d 17 0d 2e 3d
       -0.20556767 -0.1348683 0.12156131 0.042492952
0002e0 74 1b ef bc 50 43 bd 3e d4 36 cd 3e d3 56 38 3e
       -0.029187895 0.36965418 0.40080893 0.18001871
0002f0 51 07 e7 be 4b 16 27 3d c3 20 c4 3d b6 42 ae bd
       -0.4512277 0.040792745 0.09576561 -0.08508818
000300 df 7a 35 3e e1 1c 94 3c dd 97 d7 bd 02 9a 2d bb
       0.17722653 0.018080177 -0.105270125 -0.00264895
000310 b9 6a 9f 3e 96 fa 37 3e 24 82 26 be 45 14 52 3e
       0.3113611 0.17966685 -0.16260582 0.20515545
000320 ed 20 bf 3d cc 01 8b be 80 23 16 3e e7 2f 10 3e
       0.09332452 -0.27149808 0.1466198 0.14080773
000330 e7 49 0b 3e 64 b7 05 3e 5d 3a 9d 3e 1f 93 f8 3e
       0.1360241 0.13058239 0.3070859 0.48549744
000340 b1 f8 1c 3e f3 06 3b bd 29 b1 6e bc d6 c7 1f be
       0.15329243 -0.045660924 -0.014568605 -0.15603575
000350 42 85 ac be 6a 70 5b be 8f a2 65 3e 72 e1 9e be
       -0.33695418 -0.21429601 0.22425292 -0.31031376
000360 8b a7 08 3c d4 46 02 3d 6e c5 e1 3d ae 5a 5b be
       0.008340727 0.03180583 0.11023985 -0.2142131
000370 aa da 40 be 03 94 f1 3d 3d d4 13 3e e1 6e 95 bc
       -0.18833414 0.11795809 0.14436431 -0.018241348
000380 a6 05 57 3c 66 19 39 3e e1 4e 17 bd 5d 61 ae be
       0.013123905 0.18076095 -0.03694046 -0.34058657
000390 b7 b0 7d bd e6 f8 0a 3e 24 d1 fa 3c e7 f6 99 3d
       -0.061936107 0.1357151 0.030617304 0.07517796
0003a0 90 f3 e6 3d 02 52 61 3d 9f b5 4e bd d0 0f db bc
       0.112769246 0.05500985 -0.050466176 -0.026740938
0003b0 e2 0e b9 be c2 20 22 be 8f 9c a7 3d 8b da 47 bd
       -0.36144167 -0.15832809 0.08184158 -0.048792403
0003c0 3c 5d 25 3c df d2 f4 3d 7c b5 80 3d a8 76 45 3e
       0.01009303 0.11954283 0.062846154 0.19283545
0003d0 25 45 5b 3e 1b 09 34 3e d1 e8 53 3d 03 5c 0a 3e
       0.21413095 0.17581598 0.051735703 0.13511662
0003e0 af 4e 14 3e 48 96 97 be ac 40 bc 3d 2e 28 6f bd
       0.1448314 -0.29606843 0.09192023 -0.058387928
0003f0 a9 99 b8 bd 62 35 ac 3d 1d 90 c7 3c 6f d9 0e 3f
       -0.09013683 0.084086195 0.02436071 0.5580053

lstm.weight_hh_l1 f4 [256, 64]
000000 28 8f 1f bd 0d 85 6d 3d fa bd 93 3e 2e 7b a3 be
       -0.038954884 0.057988215 0.28855878 -0.31929916
000010 aa 13 1d bf 13 c4 a9 bd 21 56 36 3e 56 91 ce 3e
       -0.6135813 -0.08289351 0.17806293 0.40345258
000020 31 c9 aa be d9 8a 0f 3e f4 bd 8d be 1d 1d 82 3e
       -0.33356622 0.1401781 -0.27683985 0.25412837
000030 50 8a 22 be 9b ba 77 3e d3 72 52 be cc c5 9f be
       -0.15873075 0.24192278 -0.20551614 -0.31205595
000040 73 fb 82 be 69 b0 01 3d 23 a3 32 be 4f a1 9b be
       -0.25582466 0.03166238 -0.17445044 -0.30396506
000050 2c be 65 be 56 37 1a 3e cf f9 74 bc 48 8f 34 3e
       -0.22435826 0.15060171 -0.014952137 0.17632782
000060 b0 7d 8e 3e 95 91 b5 bd f2 30 94 3e fe 7b 68 3e
       0.27830267 -0.08865658 0.28943592 0.2270355
000070 fa 4a a4 be 89 55 91 bd 47 89 c8 bd 2d f5 1e 3e
       -0.32088453 -0.07096393 -0.097918086 0.15523215
000080 11 7b b3 be 3d d3 51 bd 96 5b a3 bd e5 f5 ba 3e
       -0.3505483 -0.051226843 -0.07976453 0.36515728
000090 70 a0 56 3e f5 af 3d 3d ab 65 0d be 72 af 27 be
       0.2095964 0.046310384 -0.13808315 -0.16375521
0000a0 73 45 95 3e e7 0d 07 be 6a 6f e2 3d 20 54 34 3d
       0.29154548 -0.13188897 0.11056407 0.04402554
0000b0 b2 a0 b6 3e 78 8a 57 3e 7f b0 93 be 76 3e 81 be
       0.35669476 0.21048915 -0.28845593 -0.25242966
0000c0 c7 0f 46 3e 3e 84 4f be 97 1c 82 3e f8 14 e4 3c
       0.19341956 -0.2026529 0.25412437 0.02784203
0000d0 4f 91 d4 3d 02 ee aa 3d 7e a6 80 bd 10 a0 05 bd
       0.10379278 0.08346178 -0.06281756 -0.03262335
0000e0 9a 6c 5b be af ea 84 bd 63 d7 d6 bd c5 b1 b2 be
       -0.21428147 -0.06490075 -0.104903005 -0.34901252
0000f0 f9 27 44 3d 21 99 d0 be 58 24 9c bd db cd d4 be
       0.047889683 -0.40741828 -0.076241195 -0.41563305
000100 9f b3 3f be ef e9 34 bd 04 7d b9 3d 1c 60 98 3d
       -0.18720864 -0.04416841 0.09057048 0.074402064
000110 ea 74 6d 3d 2a 96 8d 3e 74 56 f0 be 27 3a 91 3e
       0.057972826 0.2765363 -0.46940958 0.2836468
000120 f7 bd 03 3e 8a 86 99 bd ec 86 03 3e 13 91 67 be
       0.12865435 -0.074963644 0.12844437 -0.22613935
000130 2f d8 ba be 59 ab 10 be a5 22 06 be 8c 04 6b 3e
       -0.3649306 -0.14127864 -0.13099153 0.22950953
000140 55 53 00 be 41 eb 52 be 0f af 9b 3e 5f 55 67 3e
       -0.12531789 -0.20597555 0.30406997 0.2259116
000150 60 26 02 be ae 45 6f 3e ea 25 17 bd 37 97 93 3e
       -0.12709951 0.23366424 -0.036901392 0.28826305
000160 d9 82 86 3e ff 99 d0 bd 2e 71 22 bd 23 68 9d 3e
       0.26271704 -0.101856224 -0.039658718 0.30743513
000170 a7 25 7a bd 46 67 92 bd e6 48 6f 3d bc f3 de 3e
       -0.061071064 -0.07148604 0.05841913 0.4354533
000180 ab 5a 00 bd ee 9a 95 be 69 ad 08 3d a0 ae aa 3e
       -0.031336468 -0.29219764 0.0333685 0.33336353
000190 bf a4 9b 3e 10 71 73 bc 7e 82 05 bd 05 3f ce 3b
       0.3039913 -0.014858499 -0.03259515 0.0062941336
0001a0 dd 0b 8f bc 01 d0 e2 3c 30 9c ff 3d 0f a9 ee 3e
       -0.017461712 0.027687075 0.12480962 0.46613356
0001b0 cd 67 88 bd c2 96 06 be 8b 2e 5d be 4c ac eb bd
       -0.066604234 -0.13143447 -0.21599786 -0.115074724
0001c0 34 2c 8c be 41 7f 9f be 35 32 68 3c f4 59 58 bd
       -0.27377474 -0.31151775 0.014172127 -0.05282016
0001d0 7c 7a 83 3d 45 95 9d 3e 18 28 44 3e f9 96 c3 be
       0.064198464 0.30777946 0.1915592 -0.3820112
0001e0 ab 13 0b 3d dc 41 50 3d 25 c0 2c be 7c 80 b0 be
       0.033954304 0.05084406 -0.16870172 -0.34473026
0001f0 be 3f 8e be 31 1e cf be f4 53 69 3d d8 4a 41 be
       -0.27783006 -0.40452722 0.05696483 -0.18876207
000200 19 c2 a9 3c 46 50 aa be e5 04 10 3e 70 c0 c7 bd
       0.020722436 -0.3326437 0.14064367 -0.097535014
000210 71 f8 cd be 03 03 67 be 99 26 d6 3d b7 ac ef 3d
       -0.40228608 -0.22559743 0.10456581 0.117028646
000220 73 f1 fa bd ba 7a 94 3e 74 fc 9f be a7 56 14 3d
       -0.12253084 0.28999883 -0.31247294 0.03621545
000230 62 2b 4f be 0e 62 35 be 92 5c d6 3b 4e be 5d 3e
       -0.20231393 -0.17713186 0.006541797 0.21654627
000240 61 27 38 be 4d 71 81 be 69 f7 ef 3d bf 47 86 bd
       -0.17983772 -0.25281754 0.117171116 -0.06556653
000250 90 ef 96 be 87 42 58 3e fa 0d 2d 3e bf ab f4 3d
       -0.29479647 0.21119128 0.16899863 0.119468205
000260 6d ca 82 3e 4a 72 20 be a1 25 38 bd 97 cb 67 3e
       0.25545064 -0.15668598 -0.04495776 0.22636257
000270 6e 49 c1 bd e5 8f f6 3d 76 c3 16 be ff 22 09 3c
       -0.09437834 0.120391645 -0.14723 0.00837016
000280 67 ab 56 be 9c ea 08 3d 69 9a 29 3e 76 26 c3 be
       -0.20963822 0.033426866 0.16562809 -0.3811528
000290 e2 5e 77 3d 2e 76 87 be 97 d7 01 be a7 b6 8b be
       0.06039322 -0.2645735 -0.12679897 -0.2728779
0002a0 f0 8f 2c bd c9 a3 e7 3d 9d bb 6f bd c2 b5 be 3d
       -0.042129457 0.113105364 -0.05852853 0.09312011
0002b0 48 d6 70 3d 62 d5 a5 3e 75 fa 9d 3d e7 30 e4 bd
       0.058798105 0.3238936 0.077137865 -0.1114214
0002c0 09 30 c9 bd 4b be 01 be 02 5b c0 3d 7f d7 c3 3d
       -0.09823615 -0.12670247 0.09392358 0.09562587
0002d0 01 b1 98 be ae 40 d9 3d 5c 76 15 3e 48 e5 cb bd
       -0.29822543 0.1060804 0.14595932 -0.09955841
0002e0 7e 16 51 bd 6c 6b 8a be 2f ea 21 be 9e 49 94 be
       -0.05104684 -0.2703508 -0.1581199 -0.28962415
0002f0 83 28 16 be 3e 4e 87 be ac 8d ae be 29 59 ac bc
       -0.14663891 -0.26426882 -0.34092462 -0.021038609
000300 09 1b 89 3d 04 8f 44 be cb f0 e9 bd a3 d7 26 bd
       0.0669461 -0.19195181 -0.11422881 -0.04073299
000310 87 49 03 3e f3 b0 95 bd 16 fb e5 bd 9c e9 2d 3b
       0.12821017 -0.07309141 -0.112295315 0.0026536947
000320 dc 1b 66 3e 9f fc 80 3e 74 82 de bc 75 01 a8 3d
       0.22471565 0.25192735 -0.027161814 0.08203403
000330 60 b5 da bd 4b 57 28 be db 2c e5 bd c4 92 9f be
       -0.10679126 -0.1643955 -0.11190196 -0.3116666
000340 ac ad 16 3b c0 9c f9 3d c9 33 7e 3d 79 3a 8a bd
       0.00229917 0.12188101 0.062061105 -0.06749434
000350 77 96 6c be df 81 1a 3e 67 f8 81 be b1 93 36 bd
       -0.23104273 0.15088604 -0.25384828 -0.044574443
000360 45 38 a7 3e 0a ec a9 bd 9b 21 32 be 0e 48 b2 3e
       0.32660118 -0.08296974 -0.17395632 0.34820598
000370 7d f1 30 3d fe 04 48 3e 22 37 26 be a8 06 57 3e
       0.04319905 0.19533154 -0.16231969 0.20998633
000380 e0 f4 95 3b fd b8 26 be bd 47 71 be 3f 7f a1 bd
       0.0045763105 -0.16281505 -0.23562522 -0.078855984
000390 98 17 ab 3b fc 92 0b 3e da 8d 96 bd 1f a2 3a 3e
       0.0052213185 0.13630289 -0.07351275 0.18225907
0003a0 7b 09 82 3d 01 5d c4 bd 59 b1 ba bd ac cd 82 3c
       0.063494645 -0.095880516 -0.09115858 0.015967213
0003b0 c1 bc 2e 3e fd 20 18 3e db d4 ef bc af a7 db 3d
       0.17064191 0.14856334 -0.029276302 0.107253425
0003c0 9b 66 f9 3e 45 05 a3 bd 3c c4 a1 bd 9f b7 ee 3d
       0.48711094 -0.079599895 -0.07898757 0.11656117
0003d0 6a c3 cf 3d 6d ca 53 be 2d c8 33 be bc 8c 40 be
       0.10144694 -0.20682688 -0.1755683 -0.18803686
0003e0 6f 9f 2e bd 11 a6 79 3c 6f 27 54 be 1f 53 33 bd
       -0.042632516 0.015237347 -0.20718168 -0.043780442
0003f0 dc 44 03 bd 65 74 a3 bd c6 f7 c8 3c 26 d6 94 be
       -0.03204809 -0.07981185 0.02453221 -0.29069632

lstm.bias_ih_l1 f4 [256]
000000 74 7e 1b 3c 40 27 e2 bd 45 c0 cf bd c0 89 f1 bd
       0.009490598 -0.110426426 -0.101440944 -0.11793852
000010 f5 d0 c1 3c f3 3c 4f be 0b 3d 27 be 7c 04 ea be
       0.023659209 -0.20238094 -0.1633188 -0.45706546
000020 22 a1 12 be 83 4d a4 be 61 e9 6e be eb b2 ca 3e
       -0.1431928 -0.32090387 -0.23331214 0.3958963
000030 12 ed 1b be 6d 36 9a bd d5 a6 43 3c af 51 18 be
       -0.15227154 -0.07529912 0.011941631 -0.1487491
000040 4b 7d 14 3e 22 45 c3 be bd ed 98 3d 82 2a 8d 3e
       0.1450092 -0.38138682 0.0746722 0.27571493
000050 ef bd 63 bd 2f 8a 7b bd ae 76 cf 3d e5 84 51 3e
       -0.055601057 -0.06141108 0.10130058 0.20460851
000060 b9 7d fc bd 39 1c 38 3e 83 1d e3 bd 4b 24 b6 3b
       -0.12328667 0.17979516 -0.11089613 0.0055585257
000070 e2 04 b3 3e 5e a4 cd bd 9d ea da bd 10 63 1e 3e
       0.34964663 -0.10041116 -0.1068928 0.15467477
000080 52 35 7e be 65 96 6d bd 7a 1f 92 be e1 ae 16 bd
       -0.24825028 -0.058004756 -0.2853964 -0.03678787
000090 a3 01 ba bd 27 c5 a6 3e 80 ba 34 3d 9f 7c 0e 3c
       -0.090823434 0.3257229 0.044123173 0.008696704
0000a0 36 e8 23 be 31 32 44 3e ca 85 28 bb ab 04 1b 3d
       -0.1600655 0.19159772 -0.002571451 0.03784625
0000b0 5c cc 07 be cd df c1 bc f7 12 fc 3d 1c 50 3f be
       -0.1326155 -0.023666287 0.12308305 -0.18682903
0000c0 5e 35 80 be 91 89 27 3f 15 d4 0a bd f4 cb 23 be
       -0.25040716 0.65444285 -0.033893663 -0.1599577
0000d0 d4 4a 8a 3e dd 51 6e 3e e4 dc e4 3d d9 21 08 3e
       0.27010214 0.23273416 0.11174944 0.13294162
0000e0 ce b1 f8 bd bd ff c1 bd 64 91 bf 3d 6a e7 14 be
       -0.121432886 -0.09472606 0.09353903 -0.14541402
0000f0 a5 10 9f 3c a4 2b 36 be 4c a5 e6 3b 37 6c db be
       0.019417116 -0.17790085 0.007038748 -0.42856
000100 a6 55 f2 bd 75 9c b6 bd fc 62 a5 be be 8b 0f be
       -0.118327424 -0.089165606 -0.32302082 -0.14018151
000110 8c e4 ca bd 8a 92 74 3d 2c 41 41 be 92 f7 41 be
       -0.09906873 0.059710063 -0.18872517 -0.18942097
000120 06 32 b7 bd f2 5c b8 be bf f2 49 bc 9a f8 f8 bd
       -0.08945088 -0.36008412 -0.012325942 -0.12156792
000130 6c 26 12 3e 12 66 11 be 38 c4 04 be 8d 51 75 be
       0.1427247 -0.14199093 -0.12965477 -0.2395689
000140 94 19 4a be e8 3c 3a be 72 3a 8c be 24 4f b0 3e
       -0.1973632 -0.18187296 -0.2738834 0.3443538
000150 98 71 01 be 7b 22 57 be c4 77 41 be bc 06 18 3e
       -0.12640989 -0.21009247 -0.18893343 0.14846319
000160 33 c0 f1 3c 43 01 ee 3c ce 08 dc 3c b1 1f 9b be
       0.029510593 0.029053336 0.026859667 -0.30297616
000170 07 d2 9c 3d 21 ad 9d bd 9e d6 34 bd 5c 7a 41 3e
       0.07657247 -0.07699037 -0.044149987 0.18894333
000180 dd da d4 3d 09 cf be bc f8 b1 ee bd ee b6 0e 3d
       0.10393307 -0.023292081 -0.116550386 0.034842424
000190 eb 8b 29 be 78 da 03 be 09 a5 cf bd 54 9a e1 bd
       -0.1655728 -0.12876308 -0.101389 -0.11015764
0001a0 95 4e b5 be 55 d2 be 3c e2 8a 13 be ce 07 4d 3d
       -0.35411516 0.023293654 -0.14408448 0.05005627
0001b0 e3 11 ea bd 07 36 da bd b9 c5 dc bd bf f7 99 be
       -0.11429193 -0.10654836 -0.107799 -0.30071828
0001c0 d2 89 12 3d 6b f6 92 be 5a ea 8b bd 13 71 12 be
       0.035775967 -0.28703627 -0.068318084 -0.14300947
0001d0 13 61 96 bc 39 d3 ef bd 69 03 ec bd d5 1c 33 3e
       -0.018356835 -0.117102094 -0.11524088 0.17491467
0001e0 ce 0e 8e 3c ca 15 a1 be 5b ed 6a bd dd f1 0e be
       0.017341044 -0.31461936 -0.057355266 -0.13959451
0001f0 08 c1 9d bc b0 f0 07 bd 84 be 37 be fb 63 53 be
       -0.019257084 -0.03318852 -0.1794377 -0.20643608
000200 dc 02 88 3c 34 f3 8b bc 18 4c 3d be f7 87 3f bd
       0.016602926 -0.017083742 -0.18486059 -0.046760526
000210 48 95 16 3e 34 21 b9 3c 73 ed 7c bd 53 cb 0b bd
       0.14705384 0.02259884 -0.061749887 -0.034129452
000220 e5 8a f1 bb f5 93 ae 3d 28 ab de bc 2c 9d fb 3c
       -0.007371294 0.08524314 -0.027181223 0.030714594
000230 1a 91 4a bc e7 01 0f be 3f 6e c9 bc ad e2 87 bd
       -0.0123636965 -0.1396557 -0.024588702 -0.06635032
000240 8f 1f 8b 3d 30 76 23 bd 50 b4 de bd 3c 4f 1a be
       0.06793129 -0.039907634 -0.10874236 -0.15069288
000250 e3 db ad 3d 7b 50 7c 3d a2 32 56 bd 49 4b b1 bc
       0.08489206 0.06160019 -0.05229438 -0.021642344
000260 06 49 5d 3d 79 bc 7c bd e7 51 52 3d 33 c9 c0 3d
       0.05402472 -0.06170318 0.05134764 0.09413376
000270 13 f3 3f 3d 8e 64 24 bc 4f 54 24 3d 62 b8 d9 bd
       0.046862673 -0.01003374 0.040119465 -0.10630871
000280 f3 a9 ac bd c5 00 95 3d 69 7c 2a 3c 01 99 37 3d
       -0.08430853 0.072755374 0.010405638 0.04482365
000290 19 3a 11 3e 71 14 29 3e 6c 68 8c 3d b3 ac 95 3d
       0.14182319 0.16511704 0.068558544 0.073083304
0002a0 ca 7b f2 3c 93 55 46 be f5 24 51 ba 9e f1 5c 3d
       0.029600043 -0.19368581 -0.00079782243 0.05394136
0002b0 a5 b1 9e 3d cf 49 23 bc 93 31 d9 bd 60 71 a6 bd
       0.07748727 -0.009966328 -0.10605159 -0.08127093
0002c0 10 95 e5 bc 41 68 2d 3e 1a 8c 26 3d 2e 43 46 bc
       -0.02802518 0.16934301 0.040660955 -0.012100978
0002d0 91 92 ed 3d 2c 50 0d be aa 18 a6 bd 63 dc bc 3c
       0.11600221 -0.13800114 -0.08110173 0.023054307
0002e0 99 aa 6a 3d 8d 12 55 3c 82 97 25 bc 63 4d 98 bc
       0.0572916 0.013004911 -0.010106923 -0.018591588
0002f0 64 50 c3 3b 8c f3 96 3c bc e8 26 3d de d4 f2 3d
       0.005960511 0.01842668 0.040749297 0.118570074
000300 cc 19 a9 3d 09 74 53 be 89 8a 36 be 1e e9 51 be
       0.082568735 -0.20649733 -0.17826284 -0.20499083
000310 c8 d6 c4 bd a2 38 cf bd 76 73 90 bd 98 21 41 be
       -0.09611279 -0.10118224 -0.070532724 -0.18860471
000320 08 13 61 be d7 30 8d be 9d 64 07 be 24 5f 14 3e
       -0.21979916 -0.27576324 -0.13221975 0.14489418
000330 01 4e 0e 3d 1e cb b3 3d a9 cc 1b 3d b1 3d 8b be
       0.03474236 0.08778976 0.038036976 -0.27195504
000340 9f 4a f5 3d 3c f7 e8 be ae 2a 2f bc ee 81 c2 bc
       0.119771235 -0.45501125 -0.010691328 -0.023743596
000350 04 e6 19 3d 39 0f b1 3d 3c f5 9a 3d 29 34 73 3d
       0.037572876 0.086454816 0.07566306 0.059375916
000360 10 a4 63 bd d1 ed a5 3d 0c 03 c5 3d e2 6b c8 3d
       -0.055576384 0.081020005 0.09619722 0.09786202
000370 ea 46 af 3e ef 20 2a be 74 42 d6 bd 52 91 9a 3c
       0.3423379 -0.16614126 -0.10461894 0.018868122
000380 9e e4 74 bc b0 78 99 3a 4c 80 61 be 35 42 6a 3e
       -0.014947085 0.0011708941 -0.22021598 0.22876818
000390 cf a6 70 bd 3e 82 ab 3e 58 72 d7 bd 93 b7 aa 3d
       -0.05875283 0.33497804 -0.10519856 0.08335795
0003a0 6c 51 c1 bc 5b 36 00 3c 28 01 1a be 66 f5 c2 bd
       -0.023598395 0.007825459 -0.15039504 -0.09519462
0003b0 83 0b a2 be b6 5e 80 bd a5 5c a0 bd f9 e7 57 be
       -0.31649408 -0.06268065 -0.078301705 -0.21084584
0003c0 34 6d 89 be 07 41 d0 3e b5 bd 74 be 21 fd ca bc
       -0.26841128 0.40674612 -0.23900492 -0.024778904
0003d0 27 77 22 3d cb ac 95 3d 6f 2e 45 3c 79 a4 a8 bc
       0.039664414 0.07308348 0.012034996 -0.02058624
0003e0 db 7d 0a bd 49 3f 26 be 60 c0 80 bd fa bc 03 be
       -0.03381143 -0.16235079 -0.062866926 -0.12865058
0003f0 bf f9 e9 bc a3 97 86 be b0 5a 8c bd f7 3c 06 bf
       -0.028561471 -0.26287565 -0.06853235 -0.52436775
