src/notebooks/lstm_model.pth (torch, 219445 bytes, 9 tensors)

lstm.weight_ih_l0 f4 [256, 14]
0	0xbe9174a1	-0.28409293
1	0xbe34b1bb	-0.17645924
2	0xbc1c9570	-0.009557113
3	0x3b015280	0.0019733012
4	0xbe25c216	-0.16187319
5	0x3d08f932	0.033440776
6	0xbcbc4167	-0.022980405
7	0xbdedd4c8	-0.116128504
8	0xbde8f6b6	-0.113751814
9	0x3db0a1b1	0.0862459
10	0x3c83c280	0.016083956
11	0xbd91f2cd	-0.07126389
12	0x3d4c1aeb	0.04983036
13	0x3e48fb9a	0.19627228
14	0xbdb52cb4	-0.08846417
15	0x3c9fbab6	0.01949821
16	0x3df6a2d5	0.120427765
17	0x3de7b6fa	0.11314197
18	0x3ddb8afb	0.10719868
19	0xbe449548	-0.19197571
20	0x3b86c545	0.004112872
21	0x3e409644	0.18807322
22	0x3e37ee06	0.17961892
23	0x3df77afd	0.12084005
24	0xbdc48627	-0.095959
25	0x3d00d439	0.03145239
26	0x3db6f4ae	0.08933388
27	0xbd9c81ec	-0.07641968
28	0x3d207357	0.039172497
29	0x3d164d4e	0.036694817
30	0x3caf4543	0.021395331
31	0xbc8d6358	-0.017259285
32	0x3e15ec87	0.1464101
33	0xbe23c1f0	-0.1599195
34	0x3d52fbcd	0.051509667
35	0xbdca4936	-0.09877245
36	0x3e428dd5	0.18999417
37	0x3dbcc154	0.09216562
38	0xbda52bf7	-0.08065026
39	0x3e602c32	0.21891859
40	0xbd5f9d66	-0.054593466
41	0xbc3304cb	-0.010926436
42	0x3c8944d5	0.016756454
43	0x3ce3f94a	0.027828831
44	0x3dc56ea3	0.09640243
45	0x3d8aa7c6	0.067702815
46	0x3d4b5efb	0.049651127
47	0x3e0649e7	0.13114129
48	0x3e36bfdf	0.1784663
49	0xbd96a53e	-0.07355736
50	0x3db30e92	0.087430134
51	0xbd962ae8	-0.073324025
52	0xbc25213c	-0.0100787245
53	0x3e331ffa	0.17492667
54	0xbe7882d1	-0.24268652
55	0xbc005300	-0.007832289
56	0xbe9f9a20	-0.31172276
57	0x3e213fd1	0.15747
58	0x3d9deeb1	0.077115424
59	0x3dc222b2	0.09479274
60	0x3d54826b	0.05188219
61	0xbd9341d5	-0.07190291
62	0xbe60a65a	-0.21938458
63	0xbd485802	-0.048912056
64	0xbd685a92	-0.056727
65	0x3dd0d8a8	0.10197574
66	0xbb957897	-0.0045614946
67	0xbdaf6f8f	-0.085662
68	0xbdb2bb80	-0.08727169
69	0x3daaf239	0.083469816
70	0xbdea3c5f	-0.11437296
71	0xbda03fe1	-0.07824684
72	0xbcc7f555	-0.024408976
73	0xbdd22bf8	-0.102622926
74	0xbe1bfcb6	-0.1523312
75	0x3e232346	0.15931424
76	0x3e478968	0.1948601
77	0x3b1f523f	0.0024310497
78	0xbe215289	-0.15754141
79	0xbd2c21f1	-0.042024557
80	0xbd85f930	-0.06541669
81	0xbc819549	-0.015818255
82	0x3dc37288	0.095433295
83	0xbe339d88	-0.17540562
84	0x3e076c83	0.13224988
85	0xbdf4ebbb	-0.119590245
86	0x3dfe2620	0.124096155
87	0xbd8b2886	-0.067948386
88	0x3e137d37	0.14403234
89	0xbdafb382	-0.0857916
90	0xbd9889ba	-0.07448144
91	0x3d5ad596	0.053426348
92	0xbe4f1489	-0.20222677
93	0x3da7a5dc	0.08185932
94	0x3e33ee64	0.17571408
95	0xbdf403b4	-0.11914769
96	0x3d9d924c	0.076939195
97	0xbd0048f2	-0.031319566
98	0x3e06472e	0.1311309
99	0xbe7102c2	-0.23536208
100	0xbe731dc3	-0.23741822
101	0xba96c580	-0.0011502951
102	0xbe6b1559	-0.22957362
103	0x3a4cd1ba	0.0007813234
104	0xbd7a45b9	-0.06110165
105	0x3ddee6aa	0.108838394
106	0x3e5a28ad	0.21304579
107	0x3e0602de	0.13087031
108	0x3dbc30b4	0.09188977
109	0x3ca53477	0.020166619
110	0xbd1b6379	-0.03793666
111	0xbd56f1a5	-0.052476544
112	0x3e712ec6	0.23552999
113	0xbc491e55	-0.012275298
114	0xbddb5dc8	-0.10711247
115	0x3de3e3c2	0.11127426
116	0x3d2414f9	0.040059064
117	0xbdb557e4	-0.088546544
118	0x3e0d244a	0.13783374
119	0x3e6f0c92	0.23344639
120	0xbddfae43	-0.1092191
121	0xbcc9fee8	-0.024657682
122	0xbd21c5fb	-0.03949545
123	0xbd7d363f	-0.06181931
124	0xbdff4944	-0.12465146
125	0x3dc8bf3a	0.098020986
126	0xbd0c4d5f	-0.034253474
127	0xbe0f7a2b	-0.14011447
128	0xbe75e458	-0.24012887
129	0x3d514464	0.051090613
130	0xbd9aab90	-0.07552254
131	0xbb874c27	-0.004128951
132	0xbc88c306	-0.016694557
133	0x3d47ce86	0.04878094
134	0x3e2649ac	0.16239041
135	0x3e3640cb	0.17798154
136	0x3e46d10e	0.19415686
137	0xbcadc9ef	-0.021214454
138	0xbdd1b23d	-0.102390744
139	0xbe217051	-0.15765502
140	0x3e2f0060	0.17089987
141	0xbe3ac74c	-0.18240088
142	0xbe0e1ca2	-0.1387811
143	0xbcefb958	-0.029263183
144	0x3dd87a30	0.105701804
145	0x3d9749ad	0.073870994
146	0xbda405f9	-0.08008952
147	0xbdb5ac08	-0.08870703
148	0x3e7a9d4f	0.24474071
149	0xbdca5dd1	-0.09881175
150	0xbda5fc78	-0.08104795
151	0x3e7fc03a	0.24975672
152	0x3e2b6803	0.16738896
153	0x3de67e35	0.11254541
154	0x3e0fc84f	0.14041255
155	0x3e17fe8e	0.14843199
156	0x3e0e890f	0.13919471
157	0x3dfe3c2e	0.12413822
158	0x3b602a7a	0.0034205006
159	0xbd9e56cb	-0.07731398
160	0x3dce1e5f	0.100643866
161	0xbd348c65	-0.044079203
162	0x3e540bc9	0.2070762
163	0xbda61be5	-0.08110789
164	0xbd1f866d	-0.038946558
165	0x3dd0b899	0.10191459
166	0xbe15dd28	-0.14635146
167	0x3ec6f277	0.3885686
168	0xbe5f0180	-0.21777916
169	0xbd3b23c8	-0.04568842
170	0xbd8d6dd6	-0.06905715
171	0x3df18dc0	0.11794615
172	0x3c9413d5	0.018075863
173	0xbd1f383b	-0.038871985
174	0x3e8c00f9	0.27344492
175	0xbd8c3841	-0.06846667
176	0xbd2aaae0	-0.041666865
177	0x3e15575e	0.14584109
178	0x3d34600a	0.044036902
179	0x3d363e5b	0.04449306
180	0x3e1c2141	0.1524706
181	0xbd82304b	-0.063568674
182	0xbe39aa3f	-0.1813135
183	0x3e72be5d	0.2370543
184	0xbe396fc8	-0.18109047
185	0xbdd9f594	-0.106425434
186	0xbe1cc248	-0.15308487
187	0x3d3f24fb	0.046666127
188	0x3e20131e	0.15632293
189	0xbc6b7e99	-0.014373445
190	0xbd0e0aec	-0.034678385
191	0xbc959d5c	-0.018263511
192	0xbd569786	-0.052390598
193	0x3d7fe899	0.06247768
194	0x3da09534	0.07840958
195	0xbe01f9e9	-0.1269299
196	0x3cfc6d3e	0.03081381
197	0xbdccf889	-0.10008342
198	0xbe48447f	-0.19557379
199	0xba893a00	-0.0010469556
200	0xbe0f46c1	-0.13991834
201	0xbdf93757	-0.12168758
202	0xbd0c26db	-0.034216743
203	0x3e131f11	0.1436732
204	0xbc3c265c	-0.011483755
205	0xbca2bc71	-0.019865246
206	0x3e12204f	0.14270137
207	0x3d067eeb	0.032835882
208	0xbe1d6418	-0.15370214
209	0x3c9a8c8a	0.018865842
210	0x3d900b61	0.0703342
211	0xbe021c48	-0.12706101
212	0x3e1d2dbe	0.1534948
213	0x3d6310b4	0.05543585
214	0xbc439732	-0.011937903
215	0xbdc3bd55	-0.095575966
216	0x3e4c01c4	0.19922549
217	0xbe035637	-0.12825857
218	0x3e302601	0.17201997
219	0x3db9eb51	0.09078086
220	0xbca1bd1e	-0.019743498
221	0x3d9d3c9b	0.07677575
222	0x3dc1cdab	0.09463056
223	0x3e4bd4cc	0.19905394
224	0xbea37261	-0.31923202
225	0xbe4e088c	-0.20120448
226	0x3d91bdec	0.07116303
227	0xbdd79c44	-0.10527852
228	0xbe164168	-0.14673388
229	0xbd7211f1	-0.05909914
230	0x3e634dad	0.221976
231	0x3da47818	0.080307186
232	0x3e6c314f	0.23065685
233	0xbd00e9b2	-0.03147287
234	0xbe1d63b2	-0.15370062
235	0xb985e96e	-0.00025541655
236	0x3eb8625f	0.3601255
237	0xbd5e47f4	-0.05426784
238	0x3e005491	0.1253226
239	0x3e340d6e	0.17583248
240	0xbd0fcbbb	-0.035106402
241	0xbdbe06cc	-0.0927864
242	0x3c906b11	0.017629178
243	0xbe6ccfa5	-0.23126085
244	0x3e1cb9f4	0.1530531
245	0x3e392899	0.18081893
246	0x3da2112c	0.079134315
247	0xbdb5fbfb	-0.08885952
248	0xbb4a6c2e	-0.0030887234
249	0x3da1cebb	0.07900759
250	0xbe64fa20	-0.2236104
251	0xbd865cb0	-0.065606475
252	0x3da06ed7	0.07833641
253	0x3e74d7b5	0.2391041
254	0x3d4d8ab6	0.050181113
255	0xbb008e40	-0.0019616038

lstm.weight_hh_l0 f4 [256, 64]
0	0x3d9d7207	0.076877646
1	0xbe359b4f	-0.17735027
2	0x3d9ab7a2	0.075545564
3	0xbded2b45	-0.11580519
4	0xbe3fb6f1	-0.1872213
5	0xbd43a32d	-0.04776304
6	0x3e53f65d	0.20699449
7	0x3d76f46f	0.060291704
8	0x3e74dbab	0.23911922
9	0xbcb19414	-0.021677054
10	0xbe74a526	-0.23891124
11	0x3da89439	0.08231396
12	0xbdd907c2	-0.10597183
13	0xbdd5bcb1	-0.10436381
14	0x3d6c715a	0.057725288
15	0x3e266d56	0.16252646
16	0x3d953e98	0.072873294
17	0xbd5146c2	-0.05109287
18	0x3e2fb94c	0.17160529
19	0x3dbb1a4e	0.091358766
20	0x3e1e8f6e	0.15484402
21	0x3db864de	0.09003614
22	0x3d57fafa	0.052729584
23	0x3e340fc6	0.17584142
24	0xbdc304e2	-0.09522416
25	0x3e032cc2	0.12810043
26	0x3e25be38	0.16185844
27	0xbd0302f7	-0.03198525
28	0xbd0140a7	-0.031555798
29	0x3c17794e	0.00924523
30	0x3d63ed8f	0.055646475
31	0x3dfed882	0.12443639
32	0x3cb9d630	0.02268514
33	0xbc001a3e	-0.007818757
34	0x3dbe4af2	0.092916384
35	0xbe066597	-0.13124691
36	0x3ced8f75	0.02899907
37	0x3b59d306	0.0033237352
38	0x3bccacdb	0.006246192
39	0xbd559796	-0.052146517
40	0xbe47ca59	-0.19510783
41	0x3dcbeb5d	0.09957001
42	0xbe8d94e8	-0.2765267
43	0xbba7a0b4	-0.005115593
44	0x3b2ba62a	0.002619157
45	0x3debce66	0.11513977
46	0xbd8bb581	-0.068217285
47	0xbdf4eb41	-0.119589336
48	0xbc5968b8	-0.013269596
49	0xbceb72f7	-0.028741343
50	0xbdbb88b4	-0.091569334
51	0xbccdca15	-0.025120774
52	0xbe149e2f	-0.14513467
53	0xbc0c4fbb	-0.008563931
54	0xbe24635a	-0.16053525
55	0xbcc42a9a	-0.023946095
56	0x3e2222be	0.15833566
57	0xbd54b597	-0.05193099
58	0xbc7f84e4	-0.015595648
59	0x3e6e596e	0.23276302
60	0xbd36cc48	-0.04462841
61	0xbdec35d1	-0.11533702
62	0x3c83da49	0.016095297
63	0x3d5e003a	0.054199435
64	0x3e1278b1	0.14303853
65	0x3c6b2834	0.014352847
66	0xbb2403ad	-0.0025026605
67	0xbe0f4186	-0.13989839
68	0xbcad7222	-0.021172587
69	0xbc46a6db	-0.012124742
70	0x3e140a56	0.14457068
71	0x3d897ab1	0.06712855
72	0x3e4512fd	0.19245525
73	0xbc4f7cda	-0.012664044
74	0x3c6c3eb7	0.014419249
75	0x3d6c0c13	0.057628702
76	0x3d29bdff	0.04144096
77	0xbd6c2f8b	-0.057662528
78	0x3d94b97d	0.072619416
79	0x3d1d49cd	0.03840046
80	0xbc7b0bec	-0.015322667
81	0xbe0d79b3	-0.13815956
82	0x3e353292	0.17695072
83	0x3d257da3	0.04040302
84	0xbb802e2e	-0.003911755
85	0x3dfa70e2	0.12228562
86	0x3e49c1ba	0.19702807
87	0x3d20f1d7	0.039293136
88	0x3d37ec4d	0.04490309
89	0x3d368dbf	0.044568773
90	0x3da7b41f	0.08188652
91	0xbdafe4ba	-0.08588548
92	0x3d0fe813	0.035133433
93	0xbdde4217	-0.108524494
94	0xbdc22c05	-0.09481052
95	0xbde1f688	-0.1103335
96	0x3d09cfee	0.033645563
97	0x3c24a03d	0.010047969
98	0xbded57d0	-0.115890145
99	0x3cc363dc	0.023851328
100	0x3e13ed80	0.14446068
101	0xbe0aac48	-0.13542283
102	0xbe14d044	-0.14532572
103	0xbcc0ad16	-0.023520034
104	0xbd460c7b	-0.048351746
105	0x3cdaaede	0.026694711
106	0x3d595436	0.053058825
107	0x3dbd93e3	0.09256723
108	0x3c7a309a	0.015270377
109	0x3c131ce5	0.008979057
110	0xbd206877	-0.039162125
111	0xbe12ba12	-0.14328793
112	0xbcf9ec9e	-0.030508336
113	0xbdb121a8	-0.086489975
114	0xbe11c5a5	-0.14235552
115	0x3dcac807	0.099014334
116	0x3e04a334	0.12952882
117	0x3e589bd0	0.21153188
118	0xbbeee579	-0.007290539
119	0xbc1ceabb	-0.0095774485
120	0xbd65b319	-0.056079004
121	0x3e13c9c2	0.14432433
122	0xbe440443	-0.1914225
123	0xbda4fee2	-0.080564275
124	0xbddd98ef	-0.108201854
125	0xbd905203	-0.070468925
126	0xbe356fef	-0.1771848
127	0x3d938c69	0.072045155
128	0x3df05938	0.11735767
129	0x3e2317a5	0.15926988
130	0xbd5faf40	-0.05461049
131	0x3e03b503	0.12862019
132	0xbe79607d	-0.24353214
133	0x3cdb2518	0.026751086
134	0xbd0ca978	-0.034341305
135	0xbe34ad2c	-0.17644185
136	0xbe454de3	-0.19267993
137	0xbcfed348	-0.031106606
138	0x3dadf08f	0.084931485
139	0xbe6f238f	-0.23353408
140	0x3d47a0ae	0.04873722
141	0x3c3ea104	0.011635069
142	0xbdf4dd50	-0.119562745
143	0x3ca597b2	0.020213936
144	0xbe62e2ba	-0.22156802
145	0xbe118178	-0.14209545
146	0x3e6ef933	0.2333725
147	0xbe4f3ae3	-0.20237307
148	0xbcbc004e	-0.022949364
149	0x3e950491	0.29105046
150	0x3e2de94e	0.1698353
151	0x3e26bd5f	0.16283177
152	0x3e38a883	0.18033032
153	0xbd4bad8e	-0.04972606
154	0x3e7ccdb0	0.24687839
155	0xbd6ae42d	-0.05734651
156	0x3e9695fe	0.2941131
157	0x3dbe3121	0.09286714
158	0x3cdeaf75	0.027183274
159	0xbe3bb9ec	-0.18332642
160	0xbe5fe4d2	-0.21864632
161	0xbed3dd14	-0.41379607
162	0x3d7a0c9b	0.061047178
163	0x3d90da01	0.07072831
164	0x3e828b55	0.25496927
165	0xbd88ca40	-0.06679201
166	0x3e5bcb6c	0.21464318
167	0x3e0a6fcd	0.13519211
168	0x3dda1693	0.10648837
169	0xbe123d1c	-0.14281124
170	0x3d3ee6c0	0.04660678
171	0xbc46b287	-0.012127525
172	0x3cae31a7	0.02126391
173	0xbd528ac0	-0.051401854
174	0x3d45a071	0.048248712
175	0xbeb83d26	-0.35984153
176	0x3e6046db	0.21902029
177	0xbd3079cc	-0.043084905
178	0x3e284b63	0.16435008
179	0x3d825684	0.06364158
180	0xbe8fd2dc	-0.2809056
181	0xbdf61eb0	-0.12017572
182	0x3dca976a	0.09892161
183	0xbd1eb0e0	-0.0387429
184	0xbe8c48e6	-0.27399367
185	0xbc9864a6	-0.01860268
186	0xbe68c923	-0.22732978
187	0x3e057af7	0.13035189
188	0x3c5c36ee	0.013440831
189	0xbda80c34	-0.082054526
190	0x3e483d74	0.19554693
191	0xbc893626	-0.016749453
192	0xbe3810a6	-0.17975101
193	0x3da06219	0.07831211
194	0xbd6ee896	-0.05832728
195	0xbdc646b8	-0.09681457
196	0xbe13c2d3	-0.14429788
197	0x3d220887	0.039558914
198	0xbce66a96	-0.028126996
199	0xbe90d214	-0.28285277
200	0x3e35ff08	0.17773068
201	0xbc71ec6a	-0.014765838
202	0x3e8876e7	0.26653215
203	0xbe18b8cd	-0.14914246
204	0x3e27dbe3	0.16392474
205	0xbe11951c	-0.14217037
206	0xbbb7bc92	-0.005607196
207	0xbe1b1855	-0.15146
208	0xbe7a4e02	-0.2444382
209	0xbdcb0c78	-0.099144876
210	0x3ec95a1a	0.39326555
211	0x3d80c76b	0.06288036
212	0xbe91599c	-0.2838868
213	0x3e33c1eb	0.17554443
214	0x3e70d143	0.23517327
215	0x3da9dc30	0.082939506
216	0x3e55987e	0.20858952
217	0x3dbc0419	0.09180469
218	0x3e95f0e0	0.29285336
219	0x3cf836b4	0.030299522
220	0xbc5591ab	-0.013035218
221	0xbe8db3a4	-0.27676117
222	0xba86c0fc	-0.0010280902
223	0xbd565047	-0.052322652
224	0xbd88b8b3	-0.066758536
225	0xbe6a9629	-0.22908844
226	0x3c8569ac	0.01628574
227	0x3e913792	0.2836271
228	0x3e05794c	0.13034552
229	0xbe084108	-0.13306057
230	0x3d9d1dff	0.07671737
231	0x3de75a04	0.11296466
232	0x3cae510c	0.02127888
233	0x3cf1484b	0.029453417
234	0xbe89f2bf	-0.26943013
235	0xbd89dcbc	-0.06731555
236	0x3e3247e8	0.17410243
237	0x3def7c54	0.116936356
238	0xbd1e3fba	-0.038634993
239	0xbe5ca66e	-0.21547863
240	0x3e7485f2	0.23879221
241	0xbddd02d5	-0.10791556
242	0x3e2585d9	0.1616434
243	0x3d468853	0.048469853
244	0xbd825716	-0.063642666
245	0x3e2fb304	0.17158133
246	0x3de2bb23	0.1107085
247	0x3d2eea63	0.042703997
248	0xbe24ba96	-0.16086802
249	0xbd8a3125	-0.06747655
250	0xbd12e748	-0.0358651
251	0x3dfd9f75	0.1238393
252	0x3e2f76eb	0.17135207
253	0xbb5ca72f	-0.0033668985
254	0x3c85eaa9	0.016347246
255	0x3e5fd5c7	0.21858893

lstm.bias_ih_l0 f4 [256]
0	0x3e7d447e	0.24733159
1	0x3e10c334	0.14136964
2	0x3e7a4f45	0.24444301
3	0x3ac1df20	0.0014791228
4	0x3d8bee8a	0.06832607
5	0x3e40b57a	0.18819228
6	0x3d2c1e13	0.04202087
7	0x3e064d86	0.1311551
8	0x3e065d1b	0.13121454
9	0x3eb1fda9	0.3476384
10	0xbd986301	-0.074407585
11	0x3eae23fd	0.34011832
12	0x3b0e291f	0.002169199
13	0x3e24de21	0.1610036
14	0xbd67bb93	-0.05657537
15	0x3d90b00e	0.0706483
16	0x3e7ad4e0	0.24495268
17	0x3d706cb5	0.05869742
18	0xbe0aa17c	-0.13538164
19	0x3d3b153b	0.045674544
20	0x3ea69109	0.32532528
21	0x3da73333	0.08164062
22	0xbcf3fb54	-0.029782929
23	0x3e2e9be3	0.17051654
24	0xbc0c39c4	-0.008558694
25	0xba71beda	-0.00092218595
26	0xbe1dbe1f	-0.15404557
27	0x3e4a3a07	0.19748698
28	0x3d099d78	0.03359744
29	0x3d740b11	0.059580866
30	0xbde8dc5f	-0.113701575
31	0xbd0093d4	-0.03139098
32	0x3c9d49d2	0.01920024
33	0x3dd19ea0	0.102353334
34	0xbd8d8478	-0.06910032
35	0x3df90a20	0.12160134
36	0xbe1c2e8a	-0.15252128
37	0x3e8cf71b	0.27532277
38	0x3cfb90c1	0.030708672
39	0x3dc4968f	0.09599029
40	0x3d91c508	0.07117659
41	0xbd8063bd	-0.062690236
42	0x3cd230e1	0.025658073
43	0x3c1505b5	0.009095599
44	0x3eaff0ed	0.343635
45	0x3e939ad3	0.2882906
46	0x3dadfb56	0.08495204
47	0x3b39e47d	0.002836495
48	0x3d5f1e56	0.05447229
49	0x3d9fddce	0.07805978
50	0x3d5713ed	0.052509237
51	0x3c0d7628	0.008634128
52	0xbdcdb128	-0.100435555
53	0x3ce7d5a6	0.028300118
54	0x3e1f9269	0.15583195
55	0x3ab6b57d	0.0013939586
56	0x3e202a65	0.15641172
57	0x3db16002	0.0866089
58	0x3dbb4507	0.09144025
59	0x3d3c2e76	0.045942746
60	0x3d961e2e	0.07329975
61	0x3e55f43d	0.20893951
62	0xbd9fa60d	-0.077953435
63	0x3dafecf7	0.08590119
64	0x3c717e98	0.014739655
65	0xbde66a90	-0.11250794
66	0x3d1c2a0a	0.03812603
67	0x3d8df47d	0.06931398
68	0x3e706414	0.23475677
69	0xbd17def4	-0.03707786
70	0x3c7523d7	0.014962158
71	0xbdec4d49	-0.115381785
72	0x3dcaedb5	0.0990862
73	0xbd6f97ba	-0.058494307
74	0x3cf37aa3	0.029721564
75	0xbd0ae3fa	-0.03390882
76	0x3e04ee76	0.1298159
77	0xbdcbab80	-0.099448204
78	0x3d74de25	0.059782166
79	0x3e1cc270	0.15308547
80	0x3d9cb9f1	0.07652653
81	0xbd7cb7ce	-0.061698727
82	0x3df39e00	0.118953705
83	0xbd9eb448	-0.0774923
84	0xbe0ca3d3	-0.13734369
85	0x3a9fcbf6	0.0012191522
86	0x3ca8a208	0.020585075
87	0x3d030866	0.03199043
88	0x3dc33403	0.09531405
89	0xbbd665e3	-0.0065429076
90	0xbc941caf	-0.018080084
91	0xbd2832b8	-0.041063994
92	0x3dd84b39	0.105612226
93	0xbddd2687	-0.10798364
94	0xbc02c439	-0.007981353
95	0x3b00b353	0.0019638136
96	0xbded9021	-0.11599756
97	0xbe17e7d0	-0.14834523
98	0xbda94270	-0.08264625
99	0x3cd420e8	0.025894597
100	0xbdfd38ea	-0.12364371
101	0xbd37fd09	-0.044919048
102	0x3dc3f8ea	0.09568961
103	0x3dbcebaf	0.092246406
104	0x3cba2cec	0.022726499
105	0xbcd65482	-0.026163343
106	0x3e597b72	0.21238497
107	0xbda3f815	-0.08006302
108	0x3c903eb5	0.017608026
109	0x3d54bf27	0.05194011
110	0xbe33d6ac	-0.1756236
111	0x3d69444d	0.056949902
112	0x3d8a1d54	0.06743875
113	0xbdac9d67	-0.084284596
114	0xbdb6bacb	-0.08922347
115	0x3e032118	0.12805593
116	0xbd88cb8a	-0.06679447
117	0x3c173bb8	0.009230547
118	0x3e0a1510	0.13484597
119	0x3e5e2273	0.21692829
120	0xbe29ca0e	-0.16580984
121	0xbc765721	-0.015035422
122	0x3c6e254e	0.014535261
123	0xbcfca928	-0.030842379
124	0xbd262440	-0.040561914
125	0x3d667eb4	0.056273177
126	0xbe0a6952	-0.13516739
127	0x3a3ee558	0.00072820997
128	0x3dbe7c4e	0.09301053
129	0xbd0f017c	-0.034913525
130	0xbded7b13	-0.1159574
131	0x3d0664ec	0.03281109
132	0x3c93d12a	0.018044073
133	0x3d74e1a9	0.05978552
134	0xbd9a9240	-0.07547426
135	0x3d7118d8	0.058861583
136	0xbe2a0174	-0.16602117
137	0x3d686b5f	0.056743022
138	0xbba061a5	-0.0048944526
139	0xbbab7432	-0.0052323574
140	0x3cecf40c	0.028924964
141	0x3b6b5a99	0.0035912155
142	0x3dcaa03c	0.098938435
143	0xbca1cd2c	-0.019751154
144	0xbd67cb63	-0.05659045
145	0x3c57f018	0.013179801
146	0xbc7519ba	-0.014959747
147	0xbc22a973	-0.009928095
148	0x3c654d27	0.013995445
149	0xbc5deae1	-0.013544769
150	0x3cd02dcb	0.02541246
151	0xbd67385c	-0.056450233
152	0xbd2f3d64	-0.042783156
153	0xbdaf8f26	-0.08572225
154	0xbd846346	-0.064642474
155	0xbcbc5335	-0.022988895
156	0x3c52a408	0.012856491
157	0x3ddbcf58	0.10732907
158	0xbdd6ccef	-0.10488307
159	0xbb39e39f	-0.0028364433
160	0x3db0e428	0.08637267
161	0xbe126dd7	-0.14299713
162	0xbdd18af2	-0.1023158
163	0xbd3c4854	-0.045967415
164	0x3dad6934	0.084673315
165	0x3df6370c	0.12022218
166	0xbe165a27	-0.14682828
167	0xba0ec7d7	-0.00054466486
168	0xbc052411	-0.008126275
169	0xbda2c78a	-0.07948215
170	0x3ddb8da4	0.10720375
171	0xbd810b33	-0.06300964
172	0x3e17a995	0.14810784
173	0xbd07b920	-0.033135533
174	0xbd8d1885	-0.06889442
175	0xbd9f03c9	-0.07764394
176	0x3d19d270	0.037554204
177	0x3d99204b	0.074768625
178	0xbd43132c	-0.047625706
179	0x3d02b4ae	0.03191059
180	0xbd654a71	-0.055979196
181	0x3db850cc	0.08999786
182	0xbd210293	-0.039309096
183	0xbda06dc1	-0.07833434
184	0x3d8b2bd2	0.067954674
185	0xbd2ff12f	-0.04295462
186	0x3d6ce1c3	0.05783249
187	0x3ce0bd6e	0.027434077
188	0xbe01f04f	-0.12689327
189	0x3d48dc1b	0.049038034
190	0xbd012801	-0.03153229
191	0x3d537963	0.051629435
192	0x3e194d5d	0.14970918
193	0x3e2709df	0.1631236
194	0x3e4ad811	0.19808985
195	0x3e262d54	0.16228229
196	0x3d745190	0.059648097
197	0x3e60e965	0.21964033
198	0xbce1f3cd	-0.027582074
199	0xbd4ebc3c	-0.050472483
200	0x3d9aab70	0.0755223
201	0x3eafa788	0.34307504
202	0xbd4d35df	-0.050100204
203	0x3e4e7956	0.20163473
204	0x3dbf14f5	0.09330169
205	0x3d3e9e85	0.046537895
206	0x3d1bc2c9	0.03802756
207	0x3db6c1d8	0.089236915
208	0x3e15b320	0.14619112
209	0x3a6c9f0e	0.00090263865
210	0xbcac485c	-0.021030597
211	0x3c82cfc9	0.01596822
212	0x3e769fe2	0.24084428
213	0x3e08ee18	0.13372076
214	0x3e06d086	0.13165483
215	0x3e88bec5	0.26708046
216	0x3dda654e	0.106638536
217	0xbcbf3dc9	-0.023344891
218	0x3b1106c5	0.002212928
219	0x3cca9324	0.024728365
220	0x3dce410e	0.10071002
221	0x3ceca776	0.028888445
222	0xbda5c0bb	-0.08093401
223	0x3becd92d	0.007228038
224	0x3de78061	0.11303783
225	0x3da56bc8	0.08077198
226	0xbbd9e60a	-0.0066497372
227	0x3e728040	0.23681736
228	0x3d7b4bdc	0.061351642
229	0x3c088800	0.008333206
230	0x3d75eae1	0.06003845
231	0x3e360665	0.17775877
232	0xbd54e840	-0.051979303
233	0xbdb52f57	-0.0884692
234	0x3d5dccec	0.054150507
235	0xbca3229f	-0.01991397
236	0x3ebb0784	0.3652917
237	0x3e4c93ca	0.19978252
238	0x3cf64c2c	0.030065618
239	0xbdad7e1b	-0.08471318
240	0x3e10c9c9	0.14139475
241	0x3dac0156	0.08398692
242	0xbd69356d	-0.056935716
243	0x3cdd22e6	0.02699418
244	0x3dfc8098	0.12329215
245	0x3d9b8042	0.075928226
246	0xbbca88dd	-0.006180866
247	0x3dc8758a	0.09788044
248	0x3e0c762f	0.13716958
249	0x3e61857a	0.22023574
250	0x3e438940	0.19095325
251	0x3d4cf1bf	0.050035235
252	0x3d980355	0.074225105
253	0x3dc44b7c	0.0958471
254	0xbe387781	-0.18014337
255	0xbe3b6fc0	-0.18304348

lstm.bias_hh_l0 f4 [256]
0	0x3e626e3c	0.22112364
1	0x3e5119fd	0.2042007
2	0x3d98f552	0.07468666
3	0x3e07f76c	0.13277978
4	0xba7171e7	-0.0009210393
5	0x3dfb59e2	0.12273003
6	0xbdd1e97b	-0.10249611
7	0x3d1482ac	0.03625743
8	0x3e05da36	0.13071522
9	0x3efe8331	0.49709466
10	0x3d7d47af	0.06183594
11	0x3ec7d3f7	0.39028904
12	0xbd54b7d9	-0.051933143
13	0x3e642e0f	0.22283195
14	0xb97994c4	-0.0002380191
15	0xbd9a59b5	-0.075366415
16	0x3df40ffe	0.11917113
17	0xbdc129fd	-0.09431837
18	0xbb3053b5	-0.0026905362
19	0x3da6ad26	0.08138494
20	0x3eca5011	0.3951421
21	0x3d9f37c9	0.07774312
22	0xbd1efbe7	-0.03881445
23	0x3eada5ea	0.33915645
24	0xbd9c4843	-0.0763097
25	0xbd7d6ff4	-0.061874345
26	0xbddf0f74	-0.10891619
27	0x3e5a4503	0.21315388
28	0xbc78db27	-0.015188969
29	0xbd5c3874	-0.053764775
30	0x3c93d440	0.018045545
31	0xbc9a31c2	-0.018822554
32	0xb8f35938	-0.00011603761
33	0xbd0439c4	-0.032281652
34	0x3d176d39	0.036969397
35	0x3e65c065	0.22436674
36	0xbe26df77	-0.16296183
37	0x3e101956	0.14072165
38	0x3dc9a3ec	0.09845719
39	0x3ea01605	0.312668
40	0xbdbf5c90	-0.09343827
41	0x3c051d2b	0.00812463
42	0x3d2870dc	0.041123256
43	0xbd8ba564	-0.06818655
44	0x3ee05f96	0.43822926
45	0x3dc44325	0.09583119
46	0x3d7cc346	0.061709665
47	0xbdbc340a	-0.09189613
48	0xbb1cb240	-0.0023909956
49	0x3e7775ff	0.24166106
50	0x3cb0ad84	0.021567114
51	0xbd0aa1e5	-0.0338458
52	0xbd625acb	-0.05526237
53	0x3a4e3ae6	0.0007867053
54	0x3dc813e5	0.097694196
55	0x3dced937	0.10100024
56	0xbd8c0560	-0.06836963
57	0x3dec66b6	0.11543028
58	0x3c8e48a6	0.017368626
59	0x3d86fc1d	0.065910555
60	0x3c9adfe5	0.01890559
61	0x3a8ec826	0.0010893389
62	0xbd17ed17	-0.03709134
63	0x3c2d3a6d	0.010573012
64	0xbd39fbc8	-0.045406133
65	0xbd12478f	-0.035712775
66	0x3d25b701	0.04045773
67	0x3d8882b8	0.066655576
68	0x3de68895	0.1125652
69	0x3e01db9e	0.12681434
70	0xbdad3243	-0.08456852
71	0x3ce0dc7e	0.027448889
72	0x3d95610e	0.07293902
73	0xbe5aa7dc	-0.21353096
74	0xbdea2699	-0.11433143
75	0xbd8ec0df	-0.06970381
76	0x3d591938	0.053002566
77	0xbc1448bb	-0.009050543
78	0xbd52be66	-0.05145111
79	0x3daae24b	0.08343943
80	0xbcf5b654	-0.029994167
81	0xbd2e2c34	-0.042522624
82	0x3defce5d	0.117092825
83	0xbd4332b4	-0.047655776
84	0x3d3d5654	0.046224907
85	0xbd08e6af	-0.033423122
86	0x3cadcc6b	0.021215638
87	0x3d61a48d	0.05508857
88	0x3d5db706	0.054129623
89	0xbdbe6999	-0.09297485
90	0xbe23a008	-0.15979016
91	0xbe340888	-0.1758138
92	0x3e17a8bd	0.14810462
93	0xbe13eeaf	-0.1444652
94	0xbc52f8ed	-0.012876731
95	0xbe36ea78	-0.1786288
96	0xbdabb386	-0.08383851
97	0x3b6ddc99	0.0036294817
98	0xbc8a29d3	-0.016865646
99	0x3dabe1a5	0.08392648
100	0x3badf661	0.0053089117
101	0xbddc5c21	-0.1075976
102	0x3dd7297c	0.105059594
103	0xbb7c36c9	-0.0038484803
104	0x3d81da6c	0.06340489
105	0xbdf01543	-0.11722805
106	0x3e32dc09	0.17466749
107	0xbc64b44a	-0.013959
108	0x3d849d03	0.0647526
109	0x3d67bcdf	0.056576606
110	0xbd881d28	-0.06646186
111	0x3d922f49	0.07137925
112	0x3d31041c	0.04321681
113	0xba74a3e4	-0.0009332283
114	0x3dba8af6	0.09108536
115	0x3cca5e12	0.02470306
116	0xbe0dc330	-0.1384399
117	0xbc15ccab	-0.009143035
118	0x3e0d9cd1	0.13829352
119	0x3de4aba4	0.1116555
120	0xbe4f888f	-0.20266937
121	0xbdb07e26	-0.08617811
122	0xbd5b680e	-0.05356603
123	0xbe0ace77	-0.13555323
124	0xbbc67256	-0.0060561104
125	0x3d2ab427	0.041675713
126	0xbd1be925	-0.03806414
127	0xbd26bfe1	-0.040710334
128	0x3ceced91	0.028921874
129	0x3dbc3483	0.09189703
130	0xbbef161e	-0.0072963377
131	0xbdb06605	-0.08613209
132	0xbdd3bba6	-0.103385255
133	0xbd8fd1c8	-0.070224345
134	0x3d0c17d8	0.034202427
135	0x3dcdeae5	0.10054568
136	0xbd6a92d8	-0.057268947
137	0xbde88f58	-0.11355466
138	0x3b952b64	0.0045522917
139	0x3de409c1	0.11134673
140	0xbc1595dc	-0.009129968
141	0xbcd13222	-0.0255366
142	0x3d79d0f0	0.060990274
143	0x3cb1af01	0.021689894
144	0x3d62609b	0.05526791
145	0x3d0b97f3	0.034080457
146	0xbdcfa407	-0.101387076
147	0x3cd24acd	0.025670433
148	0xbdeb1402	-0.114784256
149	0x3dc530ed	0.096284725
150	0xbe0ddee0	-0.13854551
151	0xbdf6ae87	-0.12045007
152	0xbe0264e2	-0.12733796
153	0x3cde4b06	0.027135383
154	0xbda56244	-0.08075383
155	0xbd85f2d6	-0.06540458
156	0x3c8d39c4	0.017239459
157	0xbc5115f4	-0.012761582
158	0x3d6852fc	0.056719765
159	0xbc57ce72	-0.013171779
160	0x3d2c4f73	0.042067956
161	0xbbca492f	-0.006173275
162	0x3d0f5e5d	0.0350021
163	0xbdc24fdd	-0.09487889
164	0x3c67d45d	0.014149752
165	0xbdc9c210	-0.098514676
166	0x3d4fbad4	0.050715283
167	0xbd18b00c	-0.037277266
168	0xbd79161e	-0.06081211
169	0xbdc91e1d	-0.09820197
170	0x3be81373	0.0070823967
171	0x3d64959b	0.055806737
172	0xbd3f1109	-0.046647105
173	0x3e090317	0.13380085
174	0xbdca7056	-0.09884708
175	0x3c7fcbdb	0.015612568
176	0x3d250732	0.040290065
177	0xbcf4d6a0	-0.029887497
178	0x3db639e3	0.0889776
179	0x3c2e5bd5	0.010642012
180	0xbc407acb	-0.011748026
181	0xbcedf5c6	-0.029047858
182	0xbd8b72d2	-0.068090096
183	0xbc25d16c	-0.010120731
184	0x3d438e38	0.047743052
185	0xbe06a232	-0.1314781
186	0x3c984f5b	0.018592527
187	0x3dba4eb0	0.0909704
188	0x3cd8c14d	0.02645936
189	0xbd26c1a9	-0.040712032
190	0xbdf07259	-0.1174056
191	0xbd4d01e3	-0.050050627
192	0x3d1085ea	0.03528396
193	0x3dc87439	0.09787793
194	0x3d7f588d	0.062340308
195	0x3e269342	0.16267112
196	0xbc685fc2	-0.014182987
197	0x3e8e8907	0.2783892
198	0xbbb02453	-0.005375424
199	0xbc1cb0da	-0.009563649
200	0x3dd1918d	0.1023284
201	0x3ebb5772	0.36590153
202	0xbd91ccf6	-0.07119171
203	0x3e461903	0.19345479
204	0x39878773	0.00025850124
205	0x3e87dccd	0.26535645
206	0xbbba4720	-0.0056847483
207	0x3897fc60	7.2472496e-05
208	0x3e83616e	0.2566027
209	0xbda9a6e9	-0.08283789
210	0xbcc76e51	-0.024344595
211	0x3db7f45f	0.08982157
212	0x3e34dff2	0.17663553
213	0xbd930f79	-0.071806855
214	0xbcd0c945	-0.025486598
215	0x3e16de08	0.14733136
216	0xbc246396	-0.010033509
217	0xbd3c0a04	-0.04590799
218	0xbdce2165	-0.10064963
219	0x3e844a7e	0.25838083
220	0x3af89142	0.0018964189
221	0x3d62f224	0.055406705
222	0x3d32ef14	0.043685034
223	0xbdb07d01	-0.086175926
224	0x3c2609e6	0.010134196
225	0x3d5b5199	0.053544614
226	0xbdafea65	-0.08589629
227	0x3e103b82	0.140852
228	0xbe3a430b	-0.18189637
229	0x3c48104e	0.012210919
230	0x3d102136	0.035187922
231	0x3dec0579	0.11524481
232	0xbc99487d	-0.018711323
233	0x3d8bdf7a	0.06829734
234	0x3e06e57c	0.13173479
235	0xbe18ffbb	-0.14941303
236	0x3ee49160	0.44642162
237	0x3daf47a9	0.0855859
238	0x3dcb38fe	0.0992298
239	0xbcfdbb2b	-0.030973038
240	0x3bd380c8	0.006454561
241	0x3dafd882	0.085862175
242	0x3d5f38a2	0.05449737
243	0xbd3ef9cb	-0.04662494
244	0xbd0d67ec	-0.034522936
245	0x3dd034f7	0.10166352
246	0x3d4d61ce	0.050142102
247	0x3c83539a	0.016031075
248	0x3d94e470	0.072701335
249	0x3d41067f	0.047125336
250	0x3e4a4f49	0.19756807
251	0x3debe1e5	0.11517695
252	0x3b2c8ee4	0.0026330287
253	0x3dbae7c9	0.09126241
254	0xbe421b58	-0.18955743
255	0xbdd6d1dd	-0.10489247

lstm.weight_ih_l1 f4 [256, 64]
0	0x3dbaf274	0.091282755
1	0xbd972716	-0.07380502
2	0xbe1a7445	-0.15083416
3	0x3cb6034d	0.02221837
4	0xbdbb429c	-0.09143564
5	0x3cd78ef8	0.02631329
6	0x3e403cb9	0.18773164
7	0xbc2a27f6	-0.010385504
8	0x3c4cd19c	0.012501147
9	0xbe2b9ddd	-0.16759439
10	0x3da919d4	0.082568794
11	0xbe73b54a	-0.23799625
12	0xbe0bae28	-0.13640654
13	0x3e02e7a2	0.12783673
14	0x3d53423c	0.051576838
15	0x3c6d67e7	0.014490104
16	0xbc479d45	-0.012183492
17	0xbd149be7	-0.036281493
18	0x3d94bbe9	0.072624035
19	0x3e129c0c	0.1431734
20	0xbe91ab45	-0.2845098
21	0xbcd943a7	-0.026521517
22	0xbe5185b9	-0.20461167
23	0x3e5ed812	0.21762112
24	0xbda84cdb	-0.08217784
25	0xbd762cf5	-0.060101468
26	0x3dc5f2a0	0.09665418
27	0xbcc242a8	-0.023713425
28	0xbe29503f	-0.16534518
29	0xbd012e6e	-0.03153842
30	0xbe0c5dfd	-0.13707729
31	0xbbce61d3	-0.0062982826
32	0x3d6a2c44	0.05717112
33	0x3cd4a67a	0.025958288
34	0x3ddccfc2	0.10781814
35	0xbcee411a	-0.029083777
36	0xbe1d9171	-0.15387513
37	0x3d326108	0.043549567
38	0xbe12d586	-0.14339265
39	0x3cf551b2	0.029946182
40	0xbeac30be	-0.33630937
41	0x3ab6ed51	0.0013956224
42	0x3d7d10ae	0.061783485
43	0xbe442a30	-0.19156718
44	0xbd946852	-0.0724646
45	0x3c673a28	0.014112987
46	0xbda5ff5c	-0.081053466
47	0x3c72ba14	0.014814872
48	0xbca9a9e3	-0.020710891
49	0x3dfdfbdb	0.12401553
50	0xbe8dcf4b	-0.27697214
51	0xbdd62ed3	-0.1045815
52	0x3c08066d	0.008302313
53	0x3dc50c67	0.09621506
54	0xbc29f01e	-0.01037219
55	0xbe6ef158	-0.23334253
56	0xbda7449d	-0.08167384
57	0xbdf725d8	-0.12067765
58	0x3d6805d6	0.05664619
59	0x3e66a656	0.2252439
60	0xbe97b6a6	-0.29631537
61	0x3d1cd84c	0.038292214
62	0x3c8684a9	0.01642068
63	0xbd7017ed	-0.058616567
64	0xbd80656d	-0.062693454
65	0x3d55272e	0.052039318
66	0x3dbcdad7	0.09221428
67	0x3d196eb3	0.037459087
68	0xbded059e	-0.11573337
69	0xbd82b93f	-0.06382989
70	0x3d69356a	0.056935705
71	0xbc95bbee	-0.018278088
72	0x3dbc07bd	0.091811635
73	0x3be90f89	0.0071124476
74	0xbdb04652	-0.086071625
75	0xbdbc9ded	-0.092098095
76	0x3c97dfc4	0.018539317
77	0xbe24f8ef	-0.16110586
78	0xbc0e47c8	-0.008684106
79	0xbdc4b3d0	-0.09604609
80	0x3d95142c	0.07279238
81	0x3d5828f1	0.05277342
82	0xbb889f82	-0.0041694054
83	0x3e3aeb3f	0.18253802
84	0x3cc9e65b	0.024645975
85	0x3df97c2a	0.121818855
86	0x3e13ce0a	0.14434066
87	0x3e0f405d	0.13989396
88	0x3e026a3a	0.12735835
89	0x3d0fc032	0.0350954
90	0x3d9e39e7	0.07725888
91	0xbe28c490	-0.16481233
92	0x3c42702f	0.011867567
93	0xbdfaeff5	-0.122527994
94	0x3da97187	0.08273607
95	0xbe305219	-0.17218818
96	0x3db9aead	0.0906652
97	0xbd9612ad	-0.07327781
98	0x3d453db3	0.048154544
99	0x3cb92a3c	0.022603147
100	0x3d3036d9	0.043021057
101	0xbe2f260d	-0.17104359
102	0x3e0f361b	0.13985483
103	0x3e36574b	0.17806737
104	0xbdc7db81	-0.09758664
105	0x3d24583d	0.040123213
106	0xbd1e2835	-0.038612563
107	0xbcae4cb3	-0.021276807
108	0x3cdcf0ff	0.026970385
109	0x3dddbf3a	0.10827489
110	0x3d9628b7	0.073319845
111	0xbdbee186	-0.09320359
112	0xbe198355	-0.14991505
113	0x3d9644cf	0.07337343
114	0x3ce13be9	0.027494388
115	0xbde8bafb	-0.11363789
116	0xbe48d22c	-0.19611424
117	0x3e3f39f3	0.1867445
118	0xbda7caf1	-0.08193005
119	0x3da2eb70	0.079550624
120	0x3d545e6a	0.051847853
121	0x3d9ee393	0.0775825
122	0x3dbc4deb	0.09194549
123	0x3dcfd65b	0.10148307
124	0xbe27418d	-0.163336
125	0xbd363ef7	-0.04449364
126	0x3de6eb2e	0.11275326
127	0x3d20a1c1	0.03921676
128	0xbd02d6a7	-0.03194299
129	0xbe03a376	-0.12855324
130	0xbd476df9	-0.048688862
131	0x3e435673	0.19075947
132	0x3d9d74d5	0.076882996
133	0xbe5c08e1	-0.21487762
134	0xbd8c783a	-0.06858869
135	0xbe056ad3	-0.13029031
136	0x3dab0117	0.08349817
137	0x3d65a93b	0.056069594
138	0xbd8f6670	-0.0700196
139	0x3d335d3e	0.043790095
140	0x3d95b981	0.07310773
141	0xbe631281	-0.22175027
142	0x3d0fc9cc	0.035104558
143	0xbd46fa17	-0.048578348
144	0x3e9719a9	0.29511765
145	0x3d9157a4	0.07096794
146	0x3ea98c67	0.3311493
147	0x3e503671	0.20333268
148	0x3c1bd3e6	0.00951097
149	0x3e13cf63	0.1443458
150	0x3e68ad79	0.22722425
151	0x3d9942e5	0.07483462
152	0x3c23a2ff	0.009987592
153	0x3e92b24b	0.28651652
154	0x3dbebb7e	0.09313105
155	0xbdff8c19	-0.124778934
156	0x3e48bfc7	0.19604407
157	0xbda95905	-0.08268932
158	0xbdc3f437	-0.09568065
159	0xbe2862c0	-0.1644392
160	0x3dabdcf0	0.0839175
161	0x3cbd6422	0.023119036
162	0xbc2f5db2	-0.010703491
163	0x3dd4345f	0.103615515
164	0xbe294f52	-0.16534165
165	0xbe761b81	-0.2403393
166	0x3e562774	0.20913488
167	0x3e9156be	0.28386492
168	0xbce6b23f	-0.028161166
169	0x3ccef85b	0.02526491
170	0xbe2e75a8	-0.1703707
171	0xbdee505d	-0.11636422
172	0x3d6c218b	0.057649177
173	0x3e3452de	0.17609736
174	0x3e307882	0.1723347
175	0x3dac6df6	0.08419411
176	0x3ca56bf9	0.020193087
177	0x3c213f14	0.009841699
178	0x3cacc0a3	0.02108795
179	0x3d9e8348	0.07739884
180	0xbe00b960	-0.12570715
181	0x3dbc22cd	0.09186325
182	0xbd250ce7	-0.040295508
183	0x3e679964	0.22617108
184	0xbe7585aa	-0.2397677
185	0x3ea64ff1	0.32482865
186	0xbd30d933	-0.043175887
187	0xbda9fe4d	-0.08300457
188	0xbd77bd23	-0.06048311
189	0xbc96fb8d	-0.018430496
190	0xbd945b02	-0.07243921
191	0x3e6f58e3	0.23373751
192	0xbd5b89f4	-0.05359836
193	0x3c63d822	0.013906511
194	0xbd03719a	-0.03209076
195	0x3dfccb2f	0.12343442
196	0x3dd1e735	0.10249177
197	0xbd811b12	-0.063039914
198	0x3e2378d8	0.15964067
199	0xbc987d75	-0.01861451
200	0x3d014354	0.03155835
201	0x3cea4498	0.028597161
202	0xbe185d97	-0.14879452
203	0xbdb6b835	-0.089218535
204	0x3d0de4e0	0.0346421
205	0xbe213582	-0.15743068
206	0xbb359d29	-0.0027712083
207	0x3d472366	0.048617743
208	0x3e30ee5e	0.1727843
209	0x3ae08a89	0.001713113
210	0xbde560b1	-0.11200083
211	0x3e9af63a	0.3026598
212	0xbd15ac0d	-0.036541034
213	0xbdc3406b	-0.09533771
214	0x3e5a7196	0.21332392
215	0xbe234cc6	-0.15947255
216	0x3c805b0d	0.015668416
217	0xbbdbd0d6	-0.006708245
218	0xbde907ed	-0.11378465
219	0xbc475f06	-0.012168651
220	0xbd2ef5a6	-0.042714737
221	0xbe2d1fe2	-0.16906694
222	0xbddef7ef	-0.10887133
223	0x3c9f0d91	0.019415649
224	0x3db9c609	0.09070975
225	0x3c1b946a	0.009495834
226	0xbd5e9346	-0.05433967
227	0x3df8601d	0.12127707
228	0xbd8b1d2a	-0.06792672
229	0xbe223599	-0.15840758
230	0xbddf561e	-0.109050974
231	0x3e472254	0.19446689
232	0xbe72ae39	-0.23699273
233	0xbbc0193a	-0.0058623822
234	0x3d39fa78	0.04540488
235	0xbd929c86	-0.07158761
236	0x3e680c8a	0.22661033
237	0xbdcffebd	-0.10156009
238	0x3e0eb8af	0.13937639
239	0xbcc19b6a	-0.023633678
240	0xbd3b06b1	-0.04566068
241	0x3bd1f73b	0.006407646
242	0xbe6c4083	-0.23071484
243	0xbd9b6ec2	-0.07589485
244	0xbdf00887	-0.117203765
245	0x3e0712f1	0.1319082
246	0xbd7b5fd9	-0.061370704
247	0x3df9dfca	0.122008875
248	0xbd6660ff	-0.056244846
249	0xbd5e5140	-0.054276705
250	0x3deb4685	0.1148806
251	0xbd76ddf0	-0.06027025
252	0xbdae3d5c	-0.08507797
253	0xbd00a6f7	-0.03140923
254	0x3c802ecc	0.015647314
255	0x3e2f6a81	0.17130472

lstm.weight_hh_l1 f4 [256, 64]
0	0xbe3942fb	-0.18091957
1	0x3e0f6dcb	0.14006726
2	0x3d0aa001	0.033843998
3	0xbdc5e116	-0.09662072
4	0xbc2be84d	-0.010492397
5	0x3e5aaae6	0.21354255
6	0x3e41e3ca	0.18934551
7	0xbdba8736	-0.09107821
8	0xbd00ceda	-0.03144727
9	0x3db9314b	0.09042605
10	0x3d0d5724	0.034506932
11	0xbe1fe7cb	-0.15615766
12	0x3d9ef719	0.07761974
13	0x3e1ae8ca	0.15127864
14	0xbd779694	-0.060446337
15	0x3e00c1c1	0.12573911
16	0xbd968738	-0.0735001
17	0x3e8e0a9a	0.27742463
18	0x3e118801	0.14212038
19	0xbd098cf5	-0.033581693
20	0xbe97d051	-0.2965112
21	0x3cba0c67	0.022710992
22	0xbdb91893	-0.0903789
23	0xbda4f171	-0.08053864
24	0x3e097cf6	0.13426575
25	0x3dcb9361	0.0994022
26	0x3c179f71	0.009254322
27	0xbd692749	-0.05692223
28	0xbe498d27	-0.19682752
29	0x3ded5706	0.11588864
30	0x3ce6b609	0.028162973
31	0x3bf66e2c	0.0075204577
32	0xbda0b6d1	-0.078473695
33	0xbe2df932	-0.16989592
34	0xbe28c25e	-0.16480395
35	0x3da2e9c5	0.07954744
36	0xbd027304	-0.03184797
37	0xbea86580	-0.32889938
38	0xbce96d8d	-0.02849462
39	0x3d57ede3	0.0527171
40	0x3d7b2d57	0.061322536
41	0xbdf07d4e	-0.1174265
42	0xbce43162	-0.027855579
43	0x3db8e313	0.09027686
44	0x3daf7961	0.08568073
45	0xbe217d5a	-0.15770474
46	0xbc8ceab8	-0.017201766
47	0xbe656ff4	-0.22405988
48	0xbd01613d	-0.031586874
49	0xbe235282	-0.15949443
50	0x3da19be0	0.07891059
51	0x3e13e0c7	0.14441215
52	0x3da2962f	0.079388015
53	0x3e218511	0.15773417
54	0xbd570cea	-0.05250255
55	0xbe78e759	-0.24307002
56	0xbd76865b	-0.060186725
57	0x3df3b618	0.11899966
58	0x3e89457f	0.26810834
59	0x3e8a796c	0.27045763
60	0x3e7a03a2	0.24415448
61	0xbdaf4c53	-0.085594796
62	0xbc8333f9	-0.016015993
63	0xbe3487cd	-0.17629929
64	0xbd883365	-0.06650428
65	0xbd7ed134	-0.06221123
66	0xbe09a266	-0.13440856
67	0x3ddbb5e7	0.107280545
68	0x3ca33ba2	0.019925896
69	0xbd973f4d	-0.073851205
70	0x3a65026e	0.0008736019
71	0xbdee9a0c	-0.11650476
72	0xbdaa3635	-0.083111204
73	0xbde18d1f	-0.11013245
74	0xbc2c6ff9	-0.010524743
75	0x3c906285	0.017625103
76	0x3e1e2ed7	0.15447555
77	0x3d5a3284	0.05327083
78	0xbda7e4bb	-0.08197924
79	0xbe24cc88	-0.16093647
80	0x3c7353f6	0.014851561
81	0x3e2f3a1f	0.17112015
82	0x3df54cda	0.11977549
83	0x3d59518b	0.05305628
84	0xbca95649	-0.020671027
85	0x3e00bdcc	0.12572402
86	0x3dd33bb1	0.103141196
87	0xbcc28983	-0.023747211
88	0x3dc0d149	0.09414918
89	0x3d0d6683	0.03452159
90	0xbd8373cb	-0.0641857
91	0xbbfa7398	-0.0076431744
92	0x3d856cc0	0.06514883
93	0x3e0fd588	0.140463
94	0x3d18ee07	0.037336376
95	0x3d82a943	0.0637994
96	0xbd678331	-0.0565216
97	0xbdb2204a	-0.08697565
98	0x3d4af4d0	0.049549878
99	0x3cf396dd	0.029735023
100	0x3d04ea90	0.03245026
101	0xbd905389	-0.07047183
102	0x3d8a78b5	0.06761304
103	0x3caa3e52	0.02078167
104	0xbdd1e86f	-0.10249411
105	0x3df428e4	0.11921862
106	0x3dbe00ad	0.09277473
107	0xbbb67162	-0.0055677155
108	0x3cb8fd3e	0.022581693
109	0x3c5fae40	0.013652384
110	0x3d6bb1b8	0.057542533
111	0xbd8550a6	-0.06509523
112	0xbdf1865b	-0.117932044
113	0xbd3ec7d3	-0.046577286
114	0xbd6b00f5	-0.05737396
115	0xbca2a204	-0.019852646
116	0x3d26dbd6	0.040736996
117	0x3e22a048	0.15881455
118	0xbcc7263d	-0.024310226
119	0xbcb0b18a	-0.021569032
120	0xbd98f21c	-0.07468054
121	0xbb58e44b	-0.0033095058
122	0x3dd3b71a	0.10337658
123	0xbd99ff1b	-0.07519361
124	0x3d0a088f	0.03369957
125	0xbd5aed95	-0.053449232
126	0xbe0863d1	-0.13319327
127	0x3d496ad2	0.049174137
128	0xbdc3f5f6	-0.09568398
129	0xbcc6a4bc	-0.024248473
130	0x3e2afe3f	0.1669855
131	0xbd075b87	-0.03304627
132	0xbddafd3f	-0.10692834
133	0xbbf4bfd1	-0.0074691554
134	0xbe0d0a68	-0.13773501
135	0xbd5d918b	-0.05409388
136	0x3dddb472	0.10825433
137	0x3d88a25f	0.06671595
138	0xbdb4bc1f	-0.08824944
139	0x3d4d25d5	0.050084908
140	0x3e43e926	0.19131908
141	0x3d170f20	0.03687966
142	0xbd0e430b	-0.034731906
143	0xbd4fa200	-0.050691605
144	0xbd7fc9c9	-0.062448297
145	0x3e481cfe	0.1954231
146	0xbcdd9f46	-0.027053487
147	0xbcc85ef1	-0.024459334
148	0xbd9b8917	-0.07594507
149	0x3e677103	0.22601704
150	0xbd5f73c6	-0.05455377
151	0x3ed43ae1	0.4145117
152	0x3d29605c	0.04135166
153	0x3de82947	0.11335998
154	0x3e16c63c	0.14724058
155	0x3c491cd0	0.012274936
156	0x3c95f871	0.018306943
157	0x3e46805c	0.19384903
158	0xbe19a4ff	-0.15004347
159	0xbdbb59e1	-0.091480024
160	0x3d80770c	0.062727064
161	0x3d339b38	0.0438492
162	0xbab13799	-0.0013520598
163	0xbd7c7cee	-0.06164258
164	0xbdb65626	-0.0890315
165	0xbdd6396d	-0.10460172
166	0xbd5d9b3c	-0.05410312
167	0x3d8d96b1	0.06913508
168	0xbb94b40b	-0.0045380644
169	0x3dca766c	0.098858684
170	0xbc620f0a	-0.013797531
171	0xbdcf9081	-0.10134984
172	0x3d90a898	0.07063407
173	0xbd567186	-0.052354358
174	0x3d94ee77	0.07272046
175	0xbc1b4f30	-0.009479329
176	0xbe091497	-0.1338676
177	0xbc859cff	-0.016310213
178	0x3cd306f3	0.02576015
179	0xbe32e53c	-0.17470258
180	0x3d8f427d	0.069951035
181	0xbd13afa4	-0.036056176
182	0xbd4522a5	-0.048128743
183	0x3beb8b2c	0.0071882214
184	0xbad844e6	-0.0016500026
185	0xbe35f6c8	-0.17769921
186	0x3e32c8c0	0.17459393
187	0x3e2a99b6	0.16660199
188	0x3c94faa4	0.018185921
189	0xbd8fc4d4	-0.07019964
190	0xbc4d1bd3	-0.012518841
191	0xbe0762c9	-0.13221277
192	0xbcf5d823	-0.030010289
193	0x3d83834d	0.06421528
194	0xbd4f5255	-0.050615627
195	0x3d6c69d4	0.057718113
196	0x3cf63f88	0.030059591
197	0xbd191ded	-0.037382055
198	0xbdb4a1a2	-0.088198915
199	0x3d79c875	0.060982186
200	0xbcf7b834	-0.030239202
201	0x3cafb4df	0.02144855
202	0xbc971fde	-0.018447813
203	0xbd865f8c	-0.06561193
204	0xbd3d9eea	-0.04629413
205	0xbbb0644e	-0.005383051
206	0xbd6eae2e	-0.05827158
207	0xbd0998ac	-0.033592865
208	0x3d672457	0.05643114
209	0xbd62bfd9	-0.05535874
210	0xbd7472f0	-0.059679925
211	0x3cd40e76	0.025885802
212	0xbdc79aba	-0.097463086
213	0xbd01da02	-0.03170205
214	0xbd0a908d	-0.03382926
215	0x3e35640a	0.17713943
216	0xbd56cb77	-0.052440133
217	0x3ca1b0db	0.019737652
218	0x3e274f95	0.16338952
219	0x3d9360ea	0.07196219
220	0xbcf753d2	-0.030191336
221	0x3cfd669f	0.030932723
222	0xbd880cd9	-0.066430755
223	0xbb352cff	-0.0027645228
224	0x3d9c6820	0.07637048
225	0xbdb30546	-0.0874124
226	0xbd388abd	-0.045054186
227	0xbbbf7f6b	-0.005844047
228	0x3d95a3e5	0.07306651
229	0x3db87f8f	0.09008705
230	0xbc3dc2c1	-0.0115820775
231	0x3d6fb03a	0.058517672
232	0xbe37ad0e	-0.17937109
233	0x3dc96d70	0.09835327
234	0xbd480688	-0.048834354
235	0xbd9b925f	-0.075962774
236	0x3daddf2d	0.08489833
237	0xbdf56abe	-0.1198325
238	0xbd798ae5	-0.060923476
239	0xbd73c742	-0.0595162
240	0x3d159dd8	0.036527485
241	0xbc2623eb	-0.010140399
242	0xbd139e8f	-0.036039885
243	0xbd6ec744	-0.058295503
244	0x3aca1935	0.0015418889
245	0x3d56c580	0.052434444
246	0xbd287c42	-0.041134126
247	0xbda8cbe2	-0.082420126
248	0x3d764146	0.060120843
249	0xbd335d95	-0.04379042
250	0x3dfece0e	0.124416456
251	0x3d51e3e2	0.051242717
252	0x3d7812fa	0.060564972
253	0xbd0658a4	-0.032799378
254	0xbcfeba79	-0.031094776
255	0xbd3402f8	-0.043948144

lstm.bias_ih_l1 f4 [256]
0	0x3e9e3bc7	0.30904981
1	0x3e036387	0.12830935
2	0x3d541356	0.051776253
3	0x3e3263a9	0.1742083
4	0xbdc24930	-0.09486616
5	0x3dd35497	0.103188686
6	0xbcded97c	-0.027203314
7	0x3e5e48c3	0.21707444
8	0x3d284a53	0.041086506
9	0x3d4b5a0f	0.049646433
10	0x3e26e2ca	0.1629745
11	0x3e1692e3	0.1470447
12	0xbd4cc46b	-0.049992006
13	0x3e407a6e	0.18796703
14	0xbd33ff98	-0.043944925
15	0xbd700421	-0.058597688
16	0x3d7569bc	0.05991529
17	0x3e66ecc6	0.2255126
18	0x3e2071f3	0.15668468
19	0x3e8f58dd	0.27997485
20	0x3da9d1a7	0.08291941
21	0x3d9a55dd	0.07535908
22	0x3e5488c7	0.20755301
23	0xbc45f016	-0.012081167
24	0x3e16d963	0.14731364
25	0x3e2cd07b	0.16876404
26	0x3dc7194f	0.09721624
27	0x3d3749e7	0.044748213
28	0x3b8d147d	0.004305421
29	0xbe25f32e	-0.16206047
30	0x3dc0cd08	0.094141066
31	0xbdf341ff	-0.11877822
32	0x3d1309f1	0.035898153
33	0x3e3eb079	0.18622006
34	0x3ddfa87a	0.10920806
35	0xba93c0ea	-0.0011272703
36	0xbd8ec61d	-0.06971381
37	0x3e0aacf6	0.13542542
38	0x3c962362	0.018327419
39	0xbe444b38	-0.19169319
40	0xbcfda650	-0.030963093
41	0xbda58ed1	-0.08083881
42	0x3d985bc0	0.07439375
43	0xbdae66a5	-0.08515672
44	0x3e464d41	0.19365408
45	0xbd3e3d18	-0.046444982
46	0x3dc832fd	0.0977535
47	0xbdf1b00b	-0.11801156
48	0xbe2f805d	-0.1713881
49	0x3dae7ddf	0.08520102
50	0xbe8116e0	-0.25212765
51	0x3de6f377	0.11276906
52	0xbd8d4bb9	-0.068992086
53	0x3d857939	0.06517262
54	0xbdac8fc4	-0.084258586
55	0x3c55df25	0.01305369
56	0x3e7b744f	0.24556087
57	0x3c5f8a6e	0.013643844
58	0x3d845509	0.06461532
59	0x3d44fd58	0.04809317
60	0xbc038779	-0.008027905
61	0x3dbf93e8	0.09354383
62	0xbe5724ac	-0.21010083
63	0x3e6b062e	0.22951576
64	0x3e85c88e	0.26129574
65	0x3c1907f9	0.00934028
66	0xbd268fbf	-0.04066443
67	0x3d6ad412	0.057331152
68	0xbc83c64e	-0.01608577
69	0xbd9951a4	-0.07486275
70	0xbe38c607	-0.18044291
71	0xbde56daa	-0.112025574
72	0xbd3f06bb	-0.046637278
73	0xbd8c2daf	-0.06844651
74	0xbc36bcfa	-0.011153454
75	0x38a1d88d	7.717414e-05
76	0xbc2b5dfd	-0.01045942
77	0xbd848ca3	-0.06472137
78	0xbe512ea6	-0.20427951
79	0x3c47ae28	0.012187518
80	0x3d84fd2d	0.06493602
81	0xbcddc063	-0.027069276
82	0xbd765774	-0.060141996
83	0xbe0fc300	-0.1403923
84	0x3d995bf1	0.074882396
85	0xbce01fa7	-0.027358843
86	0x3d1860a8	0.037201554
87	0xbe55cf15	-0.20879777
88	0xbd375f5a	-0.04476867
89	0xbdd4be9c	-0.10387918
90	0xbce3d62f	-0.027812092
91	0xbe0650a2	-0.13116696
92	0xbde3c60a	-0.11121757
93	0x3bd51b70	0.006503515
94	0x3d344706	0.044013046
95	0xbe3e9944	-0.18613154
96	0x3ce31643	0.027720576
97	0x3bbeecfb	0.00582659
98	0x3d0783c4	0.033084646
99	0x3cce145b	0.02515619
100	0x3da74f3f	0.08169412
101	0xbd931749	-0.07182176
102	0x3cafd8d1	0.02146569
103	0xbb230db0	-0.0024879985
104	0xbe2762a8	-0.16346228
105	0xbd55db28	-0.052210957
106	0xbe0e6a83	-0.13907818
107	0x3e16a2e0	0.1471057
108	0xbe31f745	-0.17379482
109	0xbd810a85	-0.063008346
110	0xbc8543e1	-0.016267719
111	0x3bf20a02	0.007386447
112	0xbcc43130	-0.023949236
113	0xbd8cdb9f	-0.06877827
114	0xbdcee8ec	-0.1010302
115	0xbe6953fd	-0.22785945
116	0xbe508b83	-0.2036572
117	0x3c7c4d1b	0.015399243
118	0xbcc517eb	-0.024059257
119	0x3e0be4cb	0.13661496
120	0xbd778793	-0.060432028
121	0xbe147a1e	-0.14499709
122	0xbd123273	-0.035692643
123	0xbd2d6ca9	-0.042339955
124	0xbd6d76b2	-0.057974525
125	0xbc334dc8	-0.010943837
126	0x3d21bdda	0.039487697
127	0xbc0811e9	-0.008305051
128	0xbdb9e522	-0.09076907
129	0xbd6a2d81	-0.057172302
130	0x3d164b0d	0.036692668
131	0xbc8123b8	-0.015764102
132	0xbd8f797f	-0.070055954
133	0x3d45bdcd	0.04827671
134	0x3cfe19ed	0.031018222
135	0xbda0a461	-0.07843853
136	0x3bc3b7b2	0.005972826
137	0xbd99e01f	-0.07513451
138	0x3d4beff8	0.0497894
139	0xbcb6f8da	-0.022335459
140	0x3e18c2e7	0.149181
141	0xbd3e4d67	-0.046460535
142	0xbc94d8bc	-0.018169753
143	0x3dba961a	0.09110661
144	0xbd91b02e	-0.07113682
145	0x3dfd6f3a	0.123747304
146	0x3d91d173	0.071200274
147	0xbd697718	-0.056998342
148	0xbd8fb27f	-0.07016467
149	0xbcd68846	-0.026188027
150	0x3d9438c5	0.072373904
151	0x3d022a43	0.031778585
152	0x3d80bc57	0.06285923
153	0x3da003ce	0.07813226
154	0xbd57398f	-0.052545127
155	0xbd942210	-0.072330594
156	0xbde32999	-0.110919185
157	0x3c4e2ce1	0.012583942
158	0xbe0b7914	-0.13620406
159	0xbd0d1628	-0.034444958
160	0x3d2d570f	0.042319354
161	0xbc6b61f4	-0.014366616
162	0xbd855ab8	-0.06511444
163	0x3cdb8bfa	0.026800144
164	0xbe2cb8eb	-0.16867416
165	0xbda0f14a	-0.07858522
166	0x3e191dbb	0.14952748
167	0xbcc97260	-0.024590671
168	0x3afbad0b	0.0019201351
169	0xbc9c83f1	-0.019105883
170	0xbdb6b9cf	-0.08922159
171	0xbd7c5d4c	-0.061612412
172	0x3dc5d172	0.09659089
173	0xbd391d9e	-0.04519426
174	0x3d9f2e6d	0.07772527
175	0xbd85501f	-0.065094225
176	0x3b9678f1	0.004592054
177	0xbd7d5562	-0.061849006
178	0xbd840b4e	-0.06447469
179	0x3de29d92	0.110652104
180	0xbcfa5d7f	-0.03056216
181	0x3dabfb44	0.083975345
182	0x3d97c494	0.07410541
183	0xbd05044e	-0.03247481
184	0x3a7a563e	0.0009549594
185	0x3c9eacee	0.019369569
186	0x3d443a46	0.047907136
187	0x3e13731f	0.14399384
188	0xbb678659	-0.003532788
189	0xbda22c53	-0.079186104
190	0x3e04052d	0.128926
191	0xbe1c4ff0	-0.15264869
192	0x3e78cab1	0.2429607
193	0xbd4a1365	-0.049334902
194	0x3e47eb32	0.19523314
195	0xbd31faf2	-0.04345221
196	0x3de48ff7	0.111602716
197	0x3d988501	0.074472435
198	0xbdfb11f0	-0.12259281
199	0xbd4af74c	-0.049552247
200	0x3d4dc8cc	0.050240323
201	0x3e045d54	0.12926227
202	0x3d41027d	0.047121514
203	0x3e3165ad	0.17323942
204	0x3cf00ee0	0.029303968
205	0x3dc907d4	0.09815946
206	0xbd8aee9e	-0.06783794
207	0xbe054bfb	-0.13017265
208	0xbce9ca6c	-0.028538905
209	0x3d80ab4b	0.062826715
210	0x3c864780	0.016391516
211	0x3e5d2814	0.2159732
212	0xbdcc0805	-0.09962467
213	0xbdd85b4f	-0.10564291
214	0x3d900e4a	0.070339754
215	0xbd590115	-0.052979548
216	0x3de9b612	0.1141168
217	0x3c46ecaf	0.012141391
218	0x3ba40361	0.0050052856
219	0xbcc5a1ea	-0.024125058
220	0xbe508c4d	-0.2036602
221	0x3cedf729	0.02904852
222	0x3d89901e	0.06716941
223	0x3c14a112	0.009071605
224	0x3e24b148	0.16083252
225	0x3d283b60	0.04107225
226	0xbd201196	-0.03907927
227	0xbe254bac	-0.16142148
228	0x3d96a181	0.07355023
229	0xbe004b5c	-0.12528747
230	0x3dd428c3	0.10359337
231	0x3c66ae1b	0.014079596
232	0x3d7837cb	0.060600083
233	0x3abcddc2	0.0014409351
234	0x3e1e40c8	0.154544
235	0x3de0d24f	0.10977613
236	0x3d14c803	0.03632356
237	0x3d71003d	0.058838118
238	0x3ccc1d15	0.024916211
239	0xbd6d047a	-0.057865597
240	0x3cf130e1	0.029442253
241	0x3db4eade	0.0883386
242	0xbc9756db	-0.018474033
243	0x3d841458	0.06449193
244	0x3dc5fd09	0.09667403
245	0xbcdb976d	-0.026805604
246	0xbe189353	-0.1489995
247	0x3d5d67af	0.05405396
248	0x3d0af828	0.033928066
249	0xbcda1a02	-0.02662373
250	0x3d886ad9	0.066610046
251	0x3df0699c	0.117388934
252	0x3dd571d0	0.10422099
253	0xbdc9bead	-0.09850822
254	0x3cf0cd38	0.02939473
255	0x3dee949d	0.116494395
