src/notebooks/lstm_model.pth (torch, 219445 bytes, 9 tensors)

lstm.weight_ih_l0 f4 [256, 14]
000000 d8 c3 52 3e fd 8e 3d 3e a6 12 c7 3a d0 6a 9d 3c
       0.20582521 0.18511577 0.0015188053 0.019215971
000010 91 bd 1a be 1e e6 17 bd 16 0a 83 3d 44 ae 1f bd
       -0.15111376 -0.03708469 0.06398408 -0.038984552
000020 38 32 e8 3b fd 66 21 3e 41 c1 0f bd be 4c 0c be
       0.0070860647 0.15761943 -0.03509641 -0.1370115
000030 8b 6a 9b 3e f6 53 3a bd 64 2f e9 3d bd 06 ef bd
       0.30354723 -0.045490228 0.11385992 -0.11671207
000040 a8 05 dd bd 00 9f 33 bc 16 44 94 3c 6a 78 a5 3d
       -0.107920945 -0.0109632015 0.018098872 0.08079608
000050 06 0e b3 3b 3d bc 63 3e e3 63 73 bc 70 76 f9 bc
       0.005464318 0.22239776 -0.014855358 -0.030451983
000060 8a 11 9d 3d df d0 c1 bd c4 58 11 3e c5 70 26 be
       0.07669361 -0.09463667 0.14194018 -0.16253956
000070 b4 b3 5c 3e 66 c0 c1 3b ae 55 a5 bd be 4b 82 bd
       0.21552926 0.0059128283 -0.08072983 -0.06362103
000080 28 87 1c bc 86 44 b3 bd bf 35 25 3e 97 06 e2 3e
       -0.009553708 -0.08753304 0.16133784 0.44145653
000090 d8 be 41 3b 3a 0e 14 3d 75 ac 2d 3e c7 06 f3 3d
       0.0029563215 0.03614638 0.16960318 0.11866527
0000a0 1a c7 00 bd 04 1e 9d bd 59 c7 8a bc b5 d3 86 bd
       -0.031439878 -0.07671741 -0.01694076 -0.06583349
0000b0 31 d9 2a be 8c a7 26 3d ba b8 3e be c6 26 00 3e
       -0.16684414 0.04068713 -0.18625155 0.12514791
0000c0 30 a9 19 be be 02 c4 bd 27 42 f7 3d 1c 8f 3e 3d
       -0.15005946 -0.095708355 0.120731644 0.0465232
0000d0 ca 5f 6f 3e ce 21 2b 3d fc 4f 99 3d fa 34 1f bd
       0.23376384 0.041780286 0.07485959 -0.03886888
0000e0 e5 a0 87 3e 22 a2 35 bd 3e 91 19 3e 70 2a bb 3c
       0.2648994 -0.044344075 0.14996812 0.022847384
0000f0 b9 a3 cd 3d d4 88 73 3c 75 fa 90 bd d9 a2 59 3e
       0.10040993 0.014864165 -0.07079021 0.21253528
000100 12 0e 57 3d f2 54 db 3d b5 b0 0a bd 3f 4c c3 3c
       0.052503653 0.107095614 -0.033859927 0.023840068
000110 a6 ce 2f 3e 17 04 d6 bc d2 d7 43 3d 21 6d 45 be
       0.17168674 -0.026124997 0.047813244 -0.1927991
000120 17 18 a8 bc 30 ac 88 bd 2d fd 78 bc 11 be 39 3e
       -0.0205193 -0.06673467 -0.015197081 0.18138911
000130 65 d2 e6 3d bc fe 0a 3d 5a 80 02 3e 7e 20 63 39
       0.11270598 0.03393434 0.12744275 0.00021660511
000140 c1 05 70 be fd 1e ec ba 36 44 4d 3e b0 83 76 3d
       -0.23439695 -0.0018014606 0.20045552 0.06018418
000150 60 32 e5 bd c8 de dd bd 5f bb 1b bd 34 da 85 bd
       -0.11191249 -0.10833508 -0.038020488 -0.065357596
000160 bb b5 db 3d 59 cb c3 3d ad 6a 03 be e7 be c0 bd
       0.10728022 0.0956027 -0.12833662 -0.09411412
000170 4b 43 67 be 02 d5 cf 3d 55 b3 94 3d 50 f9 f4 bd
       -0.22584264 0.1014805 0.07260767 -0.11961615
000180 b7 1b 00 bd b6 cf c8 bd 9a 5f 68 bd a6 8c eb bd
       -0.03127643 -0.09805243 -0.056731798 -0.11501436
000190 16 ef 1b be e0 ef ba bd e3 48 02 be 2e 21 10 3e
       -0.15227923 -0.09127784 -0.12723117 0.14075157
0001a0 10 7c f3 bd 11 e8 95 bd 35 4a bf bd 58 fa 16 be
       -0.118888974 -0.07319654 -0.09340326 -0.14743936
0001b0 43 b7 70 bd b3 be 24 3e 1b 76 f3 bd f9 98 5c bd
       -0.058768522 0.16088371 -0.11887761 -0.053856824
0001c0 9f 2b 68 be 18 dd 51 3c 04 cc 2d be c4 d5 13 3d
       -0.2267289 0.0128090605 -0.16972357 0.036092535
0001d0 3b b0 9a bd 89 90 65 bd 97 de d5 3c af bd 40 bd
       -0.075531445 -0.056046043 0.026107116 -0.047055896
0001e0 e0 64 f2 bd 1d 99 98 3d ed 4b 00 be 34 5b 21 bd
       -0.11835647 0.07451079 -0.12528963 -0.03939362
0001f0 58 d6 e7 3d fa 64 07 bd b1 88 d4 be 92 b7 19 3c
       0.1132018 -0.033055283 -0.41510537 0.0093821455
000200 0b 15 c7 bb a0 ee 83 3d d9 54 3e be 56 50 94 3c
       -0.0060755066 0.064419985 -0.18587054 0.018104713
000210 34 80 33 3e 5e 1a 66 bc 5b 9d c6 bc b8 5c 78 ba
       0.17529374 -0.014044372 -0.024244955 -0.00094742654
000220 3a de 02 be 0d d2 82 3b 16 0c 9e bd d2 f9 a4 3c
       -0.12780085 0.003992325 -0.07717149 0.020138655
000230 57 70 eb 3d 75 4b f7 3d ef 1e f0 bd 80 e2 e6 3b
       0.114960365 0.12074939 -0.1172465 0.007046044
000240 4a 29 19 3c f4 2c c4 bd f4 94 40 bd 45 cd b4 bd
       0.009348223 -0.09578887 -0.047017053 -0.088282146
000250 58 4c cc 3c c3 5f 1b be 7b 03 19 3e 53 d8 1e 3e
       0.024938747 -0.15173249 0.14942734 0.15512209
000260 11 b4 40 be 48 43 1b 3e df b2 74 3e d6 9e b7 bb
       -0.1881869 0.15162385 0.23896359 -0.0056036515
000270 7f 83 43 3d 98 61 8a 3c c4 85 ae bd 49 3c 1f 3d
       0.047732826 0.01689224 -0.085216075 0.03887585
000280 ef 73 37 3d 11 c5 2b 3e 9e 10 2a 3e 6f 96 c2 3d
       0.044788297 0.16774394 0.16607901 0.09501349
000290 87 a8 83 3d a0 8b 36 bc f5 8d 3f 3c 6e 7b 16 3e
       0.064286284 -0.011141688 0.01169156 0.14695522
0002a0 c5 6a 8c be e8 1b 53 3d 7f 09 43 bd 98 03 cd 3d
       -0.2742521 0.051540285 -0.047616478 0.10010451
0002b0 24 c2 8f 3d 89 c0 0f 3d e5 cf 85 bc ec 34 65 3d
       0.07019451 0.035095725 -0.016334483 0.055958673
0002c0 25 2d e5 bc bb 05 0f 3d 95 b3 51 3d 77 49 f4 bd
       -0.027975628 0.034917574 0.051196653 -0.11928075
0002d0 20 e4 e9 bd 97 d4 51 3e 65 34 74 bd c2 7f 8f 3d
       -0.114204645 0.20491253 -0.05962028 0.0700679
0002e0 c1 65 0c 3e 00 f0 b4 bd 0e 16 a2 3d 68 fb 19 be
       0.13710691 -0.08834839 0.07914363 -0.1503731
0002f0 1f 7a a8 3a 5e 07 7c 3e 01 29 07 3e 74 0c 50 be
       0.0012853778 0.24612185 0.13199235 -0.2031725
000300 25 79 e6 bc d5 3b 00 3d aa 01 00 bd 93 aa e6 bd
       -0.028133938 0.03130706 -0.031251587 -0.11263003
000310 a9 11 06 3d a3 d2 11 be 50 11 9e bc b8 25 99 bc
       0.032731686 -0.14240508 -0.019295365 -0.018694744
000320 0b 42 01 3d 22 b9 0f be d6 f2 71 3d a9 f4 85 be
       0.031557124 -0.14035466 0.059069477 -0.26163223
000330 e6 b3 20 3e f7 c1 8e bd 2d cc 05 3e 82 de a0 3c
       0.15693626 -0.069705896 0.13066168 0.01963735
000340 91 38 f5 bd da 87 1c be a1 0c ab bc 85 89 c9 bd
       -0.1197368 -0.15286198 -0.020880045 -0.09840683
000350 b3 c0 36 3e 00 b3 d1 bb 01 8b 7a 3e d7 eb 59 be
       0.17846946 -0.0063995123 0.24467088 -0.21281372
000360 41 30 9b bc b9 d2 1e be c5 27 06 be 01 f1 24 3e
       -0.018943908 -0.15510072 -0.13101108 0.1610756
000370 e5 85 16 3e 15 4d 40 3d 9f 4c b7 bd 26 8b e5 bd
       0.14699514 0.04694851 -0.08950161 -0.11208181
000380 fa bb 21 3e 92 e2 fa bc f6 e7 cb bd be 1f 9e bd
       0.15794364 -0.030625615 -0.099563524 -0.07720898
000390 b6 85 3a be 2a 96 19 3d 71 e3 92 3c 68 fe 2e 3d
       -0.18215069 0.037496723 0.017930718 0.04272309
0003a0 e1 a2 4d bd ac c4 d7 3c a1 c6 6f ba 94 66 3e bd
       -0.05020416 0.026338898 -0.00091467245 -0.046484545
0003b0 e2 d7 02 bd dd ef 2f bd b3 bc e1 3e bf a1 00 3d
       -0.031944163 -0.04295336 0.4408928 0.031404253
0003c0 08 d8 90 3d 22 57 f2 3d ef 90 6d 3c 68 52 f8 bd
       0.07072455 0.118330255 0.014499887 -0.12125093
0003d0 49 4e 4b 3e da c8 11 be 2f 66 ca 3d 7e 8f d7 3c
       0.19854082 -0.14236775 0.09882771 0.02631354
0003e0 52 f2 54 3d 84 cf 2c 3e 71 50 9d bd 31 3e 29 3e
       0.051988907 0.16876036 -0.076813586 0.1652763
0003f0 11 b7 b0 bd 7a 7a 93 bb 8f 36 bd 3d ce 1b 9b bd
       -0.08628667 -0.0045006843 0.09238922 -0.07573663

lstm.weight_hh_l0 f4 [256, 64]
000000 31 92 11 bc ad 84 a8 3c 41 ab 61 3e b8 36 39 be
       -0.008884952 0.020571077 0.22037984 -0.1808728
000010 d0 87 c7 be b1 49 72 3d 57 f0 e8 3b 9a c6 f2 bd
       -0.38970804 0.05915231 0.007108729 -0.118542865
000020 79 82 ed 3d 0a 3a 93 3c be 59 ec bb 7b a6 01 bd
       0.11597151 0.017972011 -0.0072128465 -0.03165291
000030 ea bc b5 3d a5 da 30 3e 75 f9 fa 3c 71 05 93 bd
       0.08873923 0.17270906 0.030636529 -0.07178772
000040 9d ea 04 be 5b f9 99 bd 23 8f 20 be 57 ec 3c be
       -0.12980123 -0.07518264 -0.15679602 -0.18449531
000050 34 8b df 3c 60 9a 6a be fc 91 f6 3d c6 23 c3 3d
       0.027288057 -0.22910452 0.12039563 0.095283076
000060 06 1f ea bd 2a 70 1d 3d 09 ca 10 be 8a 2c 75 bd
       -0.114316985 0.038437046 -0.1413957 -0.05985693
000070 1a 57 5a 3d 0c ef a9 bd 77 f2 ce bc 66 52 8a 3a
       0.053305723 -0.08297548 -0.0252621 0.0010553121
000080 40 55 8f be 1e 18 99 bd 7d af 3d be 2b cc 0e bc
       -0.27994728 -0.07475303 -0.18523975 -0.00871567
000090 fe 3e 9e bd c3 dc fc bc a0 36 80 3e ac 6e b8 bd
       -0.077268586 -0.030866986 0.25041676 -0.09005484
0000a0 f7 68 5e bd f4 a4 8c 3d 02 1e 36 3e 61 64 f6 3d
       -0.05429932 0.068674 0.17784885 0.120308645
0000b0 90 ce f4 bb 79 09 7c bd 2e d2 24 be de 52 48 3d
       -0.007470913 -0.06153247 -0.16095802 0.048907153
0000c0 d5 1b 24 3e fc 03 dd bd 20 a8 8a bc 98 14 3b 3e
       0.16026242 -0.107917756 -0.016925871 0.18269575
0000d0 4f db ac bd d6 e2 3f be d2 1f 6d bc 19 3e 95 3d
       -0.08440267 -0.18738875 -0.014472919 0.07287235
0000e0 d7 09 37 3e ad ac 93 3d 81 de 10 3e 74 d9 f2 bc
       0.17874847 0.0721067 0.14147379 -0.029644705
0000f0 0f 91 73 be 72 6f 31 3e 7a fa 3b 3c 52 a5 56 3e
       -0.23785804 0.1732767 0.0114732925 0.20961502
000100 72 7b d3 bd 8a b1 e3 bd d8 91 c0 3d 71 72 12 3e
       -0.1032628 -0.11117847 0.094028175 0.14301468
000110 68 8b c1 3d 8f db 3e be 48 33 c4 3d 03 f1 fa 3d
       0.09450418 -0.18638442 0.095800936 0.122530006
000120 57 26 da 3d a1 4f 47 be 18 cc 83 3d 00 ae a6 3d
       0.10651844 -0.1946397 0.06435412 0.081386566
000130 ac 5f 01 3e 5e 04 41 3d 93 47 36 3e a2 49 34 3e
       0.12634152 0.047123305 0.17800741 0.17606214
000140 fd e0 88 bd ae 25 a9 3d 2d f3 6b bc 7b e8 7d bd
       -0.06683538 0.0825914 -0.014401239 -0.06198929
000150 19 93 34 be a5 c9 3c 3e 5e b7 5c 3e bd 86 f8 3d
       -0.17634238 0.18436296 0.21554324 0.12135074
000160 26 0a a3 bc f4 99 d7 3c b2 d2 34 bd 3e 17 6a 3d
       -0.0199023 0.026318528 -0.044146247 0.05715107
000170 9b d0 ac bc e9 08 08 be c1 9c c3 bd 9b c2 02 bd
       -0.021095565 -0.13284649 -0.09551383 -0.03192387
000180 54 9a b1 bd 23 ca 3c 3e b7 cb cd bd 15 2e 5d 3d
       -0.08672014 0.18436484 -0.10048621 0.053999025
000190 56 28 32 be 49 6f 82 bb 24 c7 1d 3d fe de 3e be
       -0.173982 -0.0039805514 0.038519993 -0.18639752
0001a0 ce e6 19 3d 64 95 10 be 7e 9d c0 bc e0 c4 c4 3d
       0.037573628 -0.14119488 -0.023512598 0.096078634
0001b0 a8 93 4f be c2 2f 0b 3e 47 30 eb 3d 3a eb c4 bd
       -0.2027117 0.13592437 0.114838175 -0.096151784
0001c0 dc bd 92 bd 3b 8a c7 bd 3b dc ef bc 90 6b 07 3e
       -0.07165119 -0.09743162 -0.029279819 0.13224626
0001d0 5a 1a 06 be 5c 0b ac bb 3d c8 e6 3d 37 39 13 bd
       -0.1309599 -0.0052503776 0.11268661 -0.035943236
0001e0 2d a6 26 3c 7f dd 8d 3e 87 69 5b 3d 07 60 17 3d
       0.010171455 0.2770805 0.053567436 0.036956813
0001f0 5a 3d ee 3d ab 7d 6b bd 69 a4 f6 bd 6c e1 5c bd
       0.11632796 -0.057492893 -0.120430775 -0.053925917
000200 b2 d9 a8 be b8 ec 4f 3d d7 25 18 3e 0c d0 57 be
       -0.32978588 0.050762862 0.14858185 -0.21075457
000210 55 1a 17 be ce ca b3 bd 02 20 37 bd 58 f9 66 3d
       -0.14756139 -0.08778916 -0.04470826 0.056390136
000220 6e 17 cb bc e2 74 84 3c 6f 86 14 3e 9e a6 18 bd
       -0.024791446 0.016169015 0.14504407 -0.037268274
000230 7a 16 b8 3d 0e 74 48 3d f7 3c 76 3d 18 46 19 be
       0.08988662 0.048938803 0.060116734 -0.14968145
000240 1e 49 2f 3d 72 e0 47 3e 1c 9d 19 be a8 a0 42 3d
       0.04279434 0.19519213 -0.15001339 0.047516495
000250 7f 1e cb bd a4 a3 a9 be 1d 11 5e 3e bb 84 9a 3c
       -0.09917926 -0.3313266 0.21686216 0.018862119
000260 6c 36 4c be b1 88 09 bc 0d ba 41 bc a8 18 05 bd
       -0.19942635 -0.008394406 -0.011824143 -0.032494217
000270 67 c0 a6 3d b4 71 1a 3e 31 a8 d1 bd 25 ce 75 3e
       0.081421666 0.15082437 -0.10237158 0.24004419
000280 e7 72 b0 3d 89 ba b6 bd 32 0b cd bb 60 12 9b 3c
       0.08615666 -0.089222975 -0.006257438 0.01892966
000290 9a f5 34 be 72 36 52 bd f9 51 d2 bd 8c 48 3a be
       -0.17671815 -0.051321454 -0.10269541 -0.18191737
0002a0 de cc 98 3e 5f d4 54 be ae 8e 20 3e e5 d1 dc bd
       0.298438 -0.20784138 0.15679428 -0.10782222
0002b0 b7 ee 39 be f1 4a 40 be 9b 27 07 3e d2 39 21 3e
       -0.18157469 -0.18778588 0.13198702 0.15744713
0002c0 64 95 c9 3c 11 6c 67 be 8a fb e9 bb 4e 1c 22 3e
       0.024607368 -0.22599818 -0.0071405815 0.1583111
0002d0 3c 0b b7 3c 5a 2d 7a be a1 2a d3 3d 21 d0 f7 bd
       0.022344224 -0.24431363 0.10310865 -0.12100244
0002e0 e9 f4 40 be 5f f2 3c be 4c 15 27 be 45 96 26 be
       -0.18843426 -0.18451832 -0.16316718 -0.16268261
0002f0 bf 87 a7 be 1a a1 ec bd 18 1e dc bd 2d c8 d6 bc
       -0.32720754 -0.11554165 -0.107479274 -0.026218498
000300 6e 41 c3 bd db b3 5c 3d 41 fe 40 bd 35 c9 de 3b
       -0.09533964 0.05388246 -0.047117475 0.006798888
000310 d8 04 63 be c0 4f eb bc c6 c4 84 3d 67 9c b3 3d
       -0.22169816 -0.028724551 0.06482844 0.08770066
000320 a9 06 f4 bd dc a9 12 3e 1f c8 0e be f7 6a 8e be
       -0.11915333 0.14322609 -0.13943528 -0.27815983
000330 44 ea 73 3d 51 bf f9 bd 22 d0 a0 3e 3f 4e 1a be
       0.059549585 -0.12194694 0.31408793 -0.15068911
000340 11 6d 0a bc b0 0b a7 be a8 84 24 be 74 24 12 be
       -0.008448855 -0.32626104 -0.1606623 -0.14271718
000350 39 45 96 be bd 5f 23 be 4f 8b 18 3e 13 0b 3a 3d
       -0.29349688 -0.1595449 0.14896892 0.045420717
000360 69 5a 15 bd 23 a7 2c be fc 7b d9 bd 25 97 d6 bd
       -0.036463175 -0.16860633 -0.10619351 -0.10478047
000370 4f 76 32 be 91 4e ab 3d 47 e5 20 be cf 5c 50 be
       -0.17427944 0.08364595 -0.15712462 -0.20347904
000380 04 e7 ce bd b9 01 f9 3d 1c 69 dd bd 54 1f 08 be
       -0.101026565 0.12158532 -0.10811064 -0.132932
000390 c0 c5 c0 bd 8c 6f 8d bc 0d c7 8f 3e 25 7c ad bd
       -0.09412718 -0.017265104 0.2808155 -0.08470944
0003a0 77 ee 81 be a9 ca 92 3d d9 64 3c bd 15 87 b0 3e
       -0.25377247 0.071675606 -0.045994613 0.3447806
0003b0 1a 05 ab 3c 32 19 00 bd f0 17 6d 3e 52 64 51 3d
       0.020876456 -0.031274028 0.23153663 0.051121064
0003c0 a0 e1 7d 3d e1 0e d8 bb d2 f5 a1 be d7 b9 ac bd
       0.06198275 -0.0065935706 -0.3163286 -0.08433884
0003d0 6a e3 5e 3c 67 70 06 bd a0 ae cf bc 67 97 f3 3d
       0.013604024 -0.03282204 -0.025351822 0.11894112
0003e0 5c d4 9d bb 8e 65 00 3e bf 1d e6 bb 5d a4 fa 3d
       -0.004816575 0.1253874 -0.007022589 0.12238381
0003f0 18 eb 10 3e ce 20 e6 3d 23 2e 85 bd 9e 60 2d 3d
       0.14152181 0.11236726 -0.065029405 0.04232847

lstm.bias_ih_l0 f4 [256]
000000 e6 49 4e 3c 56 b7 34 3e 4d e3 18 3d 6c 29 20 3e
       0.012590861 0.17648062 0.037326146 0.15640801
000010 f5 01 1b 3e dc 1c 29 bc 16 fd e8 3c 32 19 f4 3d
       0.15137465 -0.010321822 0.028440993 0.11918868
000020 f7 eb af 3e 58 5b 36 3e df 14 a4 3c 9f ec d3 3c
       0.34359714 0.17808282 0.020029483 0.025869666
000030 c6 3b 1c 3e e7 a6 95 3e 89 2c 01 be 17 4b 20 3e
       0.15257177 0.292289 -0.12614645 0.15653645
000040 b1 f1 0f be 3a ab 7c 3e aa 36 d3 3d 8d af 6a bc
       -0.14057042 0.24674693 0.10313161 -0.014324081
000050 cf bb 11 3e 1b 3a 83 bd 21 a8 2f 3e 0a 3c 2d be
       0.142318 -0.06407567 0.1715398 -0.16917434
000060 e3 93 29 3e 99 2f c1 3d 29 bc ad bc 86 7b 38 3e
       0.1656032 0.09432907 -0.021207886 0.1801587
000070 ec ac ac bc 9d 25 f5 3d 0b c9 2e 3e a3 1f f7 3a
       -0.02107855 0.11970065 0.1706888 0.0018854033
000080 86 ee 88 3d 2a 44 d6 3d d9 33 b1 3e 05 af fd 3c
       0.0668612 0.1046222 0.3460987 0.030967245
000090 5a 8d 00 3e 83 88 a1 3d c4 9d 42 3e 36 2f 00 be
       0.12553921 0.07887366 0.19005495 -0.1251801
0000a0 76 14 9b 3e fe 8b 26 3e c4 2c b2 bc 46 55 93 bc
       0.30289048 0.1626434 -0.021749862 -0.017984997
0000b0 8f 21 2a 3d 3c 57 a3 3c 78 6a 2b bd 45 1a 95 3d
       0.04153591 0.019939058 -0.041849583 0.07280401
0000c0 ac 52 ab bd dd 75 ad bd aa a1 1f 3d 7f ca 32 be
       -0.08365378 -0.08469746 0.038972534 -0.17460059
0000d0 8b aa 34 3e 95 67 5a bd 4d 0b 59 bc 56 bc 7b 3e
       0.17643182 -0.05332144 -0.013247323 0.24583563
0000e0 28 7e 08 be d8 da be 3d f9 79 43 3e a1 1f 03 be
       -0.13329375 0.09319085 0.19089498 -0.12805034
0000f0 ec f9 88 bd 51 5c a0 3e f9 fd 8a 3e 50 96 25 3e
       -0.06688294 0.31320432 0.2714689 0.16170621
000100 a9 bc f8 3c e9 96 2a be b9 49 10 bc dc a1 1a 3e
       0.030363398 -0.1665913 -0.008806639 0.15100807
000110 fe 23 45 3d 65 d4 67 bd 05 e0 31 3e af e9 83 3d
       0.048130028 -0.05659904 0.17370613 0.06441056
000120 8c 1e 3c be 1a ff ff 3c cb 1b 1a be 90 e0 3a 3d
       -0.18371028 0.031249572 -0.15049665 0.045624316
000130 72 d4 04 3d d8 7c c7 3d 68 5d 99 bc c5 a1 f8 3d
       0.032429166 0.09740609 -0.018721297 0.1214023
000140 ef 04 1a bd 84 de d4 3d 6a f2 72 3d 3d e5 4a 3c
       -0.03760236 0.10394004 0.059313215 0.012383756
000150 2e 10 0a 3d b1 e7 01 3e 19 7b d8 bd 38 6c 09 3b
       0.033706836 0.1268604 -0.10570354 0.0020969044
000160 be 3e 86 3d 35 8b e4 bc 5f e8 7c 3d 82 06 a5 3d
       0.06554936 -0.02789841 0.061745044 0.08057882
000170 f5 05 b8 bd 45 aa 13 be f4 8d 0a 3e ee 54 60 3d
       -0.08985511 -0.14420421 0.13530713 0.054768495
000180 66 c5 ce 3d a3 42 50 bd a7 4e 93 3c a3 c2 66 bc
       0.100962445 -0.0508448 0.01798184 -0.014084491
000190 3f 8b 0a 3d 6e cf 4a 3d 53 e5 ab 3d 03 c6 b5 3d
       0.0338242 0.049514227 0.083933495 0.08875658
0001a0 a7 33 12 bc 6c 04 b5 bd f4 04 9f bd 2c b0 ba 3c
       -0.008923448 -0.08838734 -0.077646166 0.022789083
0001b0 e4 93 49 3a a6 7e bc 3d 3e e1 88 bd 8d f9 d6 bd
       0.0007689579 0.09203844 -0.066835865 -0.10496817
0001c0 2e 0b 31 bd 6b 51 c3 3d 47 e3 2d 3c 72 ec 38 bd
       -0.043223552 0.095370136 0.010613269 -0.045147367
0001d0 25 7b 1a be 9d 38 d7 3d 39 64 4b 3c 72 76 05 3d
       -0.15086038 0.10508845 0.012414032 0.03258366
0001e0 95 d9 5f 3d de ff 00 3e 77 3d 0a 3e e9 21 ed bd
       0.05465086 0.12597606 0.1350001 -0.115787335
0001f0 54 3e d7 bd 4b be 84 bd 4c 36 5c 3d a9 1a 8f 3d
       -0.10509935 -0.06481608 0.05376272 0.06987507
000200 06 68 dc 3c db d3 67 bd 36 eb 6e 3d 69 5b b2 3c
       0.026905071 -0.056598525 0.058329783 0.021772103
000210 a3 f0 00 3e bb 2f 39 3d 04 86 eb 3d b0 e2 f3 3d
       0.12591796 0.045211535 0.11500171 0.119084716
000220 4e 85 5b bd e2 26 f3 bd dc 31 59 3c 46 ea 54 bd
       -0.053593926 -0.11872651 0.013256516 -0.051981233
000230 ef a8 02 3c c6 d6 50 3c 1e 17 39 3b 01 42 9e 3b
       0.007974847 0.0127465185 0.0028242539 0.0048296456
000240 c2 a3 0e 3e ef dd 98 3c fa e3 00 bd 0c da b6 3c
       0.13929656 0.018660514 -0.031467415 0.02232077
000250 07 b9 93 3d 5d cd 08 3e 51 07 e2 3d dd d1 fb bd
       0.072130255 0.1335959 0.11036552 -0.122958876
000260 ba 1e 6c 3c 26 94 a3 bb d9 11 4c 3c da 7e af 3d
       0.014411623 -0.004992026 0.012455427 0.08569117
000270 87 47 c8 3c 27 90 26 3e f9 a2 12 bd 96 11 8b 3b
       0.02444817 0.16265927 -0.035799954 0.0042440398
000280 ec 6a d2 3d 42 f7 39 bd bc 1b 6f 3d 6f 4f c7 3d
       0.102743 -0.04540182 0.05837606 0.09731948
000290 f7 a6 da 3d e9 10 04 3d 06 3b 47 3c e1 6d 1c bc
       0.10676377 0.03224269 0.012160068 -0.009547682
0002a0 75 2d 65 3d 73 81 f6 bd 35 e4 d7 3d 6f 3e 09 bb
       0.055951554 -0.12036409 0.10541574 -0.0020941754
0002b0 fd c9 a8 3d 3a 5e a8 3d d3 24 5d 3d 6e ae bd bd
       0.08241651 0.08221097 0.053990196 -0.092617854
0002c0 2c 4a 40 bd ee 13 18 3b ea 73 ac bc 3c f8 f8 bd
       -0.046945736 0.0023205238 -0.021051366 -0.12156722
0002d0 dc 84 c8 bc 84 d6 aa 3b f1 7a ad bc 34 09 5f bd
       -0.024477415 0.0052135605 -0.021176787 -0.054452136
0002e0 4d 23 d0 bc c5 ed ee bd a1 e1 aa bc 26 2e 10 bd
       -0.025407458 -0.11666445 -0.020859541 -0.03520026
0002f0 82 63 51 3d 6b b0 f3 bd e9 28 e0 3c 34 b7 a3 bc
       0.05112029 -0.118988834 0.027363257 -0.019984819
000300 82 43 b8 3d c5 87 56 3d 4c e9 74 3e 52 2c 95 bc
       0.08997251 0.052375574 0.2391712 -0.01820961
000310 10 4e 06 3e ce f6 cd bd 61 c4 41 3d d1 66 97 3e
       0.13115716 -0.1005684 0.047306422 0.2957063
000320 bb 4a a8 3e 91 7e 46 3e 16 6b fe 3c fe 1f bf 3d
       0.32869515 0.19384219 0.031056922 0.09332274
000330 62 e0 88 bb 16 a7 fe 3d 7a fd 37 bd c2 eb 90 bc
       -0.004177139 0.12434213 -0.04491947 -0.017690543
000340 06 45 fb bd 72 41 5e 3e 03 00 2d 3d 37 a9 08 3c
       -0.122690246 0.21704653 0.04223634 0.008341125
000350 81 45 4e 3e b3 a7 92 bd ac 48 4e 3e 00 d9 15 be
       0.20143701 -0.07160892 0.2014491 -0.1463356
000360 1b 79 17 3b 08 36 27 3d 6e 0e e1 bc b1 08 23 3e
       0.0023112956 0.040823013 -0.0274727 0.15921284
000370 0a c0 2b 3e 76 52 82 3e c8 10 69 bd 5b d3 33 be
       0.16772476 0.25453538 -0.05690077 -0.17561094
000380 c1 4c 37 bc ae 86 ab bd 39 08 8e 3e 25 96 83 3d
       -0.011187733 -0.083752975 0.27740648 0.06425122
000390 9e a3 e7 3d 50 0e 4f 3e d3 90 76 3d b4 88 21 bc
       0.113105044 0.20220304 0.06019671 -0.009859253
0003a0 e0 9c 69 3e 92 1b 00 3d 39 05 1e bd f9 26 01 be
       0.2281375 0.031276293 -0.0385792 -0.12612523
0003b0 5c f2 ea 3c 0b e5 94 3d a7 81 30 bd cf bf c3 ba
       0.02868002 0.07270249 -0.043092396 -0.0014934483
0003c0 be d3 05 3d 89 aa ba bc 84 ae ca bd bd ec f9 bd
       0.032672636 -0.022786396 -0.098965675 -0.12203357
0003d0 c7 14 e0 3d 60 21 17 bd 64 92 3a 3d 25 44 76 3e
       0.10941463 -0.036897063 0.045549765 0.24049433
0003e0 6e df 07 be 48 5a 7f bd d3 12 0b 3e a3 fb 92 3c
       -0.13268825 -0.06234196 0.135814 0.017942255
0003f0 d4 42 ac bc 61 73 dc 3d 5e e7 cf 3d b2 31 34 3e
       -0.02102796 0.10764194 0.10151552 0.17597082

lstm.bias_hh_l0 f4 [256]
000000 d9 2c 07 bd b7 89 bf 3d e7 3c 83 bc 7d 8d c5 3c
       -0.033001754 0.09352439 -0.016020251 0.024115318
000010 34 5c 58 3e 6d 9d 1e be 68 17 46 3e ea 6d 4a 3e
       0.21128923 -0.1548974 0.19344866 0.19768491
000020 18 82 af 3e 49 de 60 3e d8 9a a4 3d ee 44 40 3e
       0.3427894 0.21959795 0.080373466 0.18776295
000030 64 6e 28 ba e7 37 8b 3e b4 94 1e bd 14 b7 bc 3d
       -0.0006425141 0.27191088 -0.038716033 0.09214607
000040 e3 5d 90 bb b1 e3 74 3e df 38 60 bd 30 0d 29 be
       -0.0044057234 0.23914982 -0.054741737 -0.16508937
000050 e1 86 43 bd 93 3d cc 3d 80 b8 69 3e 4e a6 2c be
       -0.047736052 0.09972682 0.22824287 -0.16860315
000060 e2 97 13 3e 0a a5 00 bd 5b 28 a4 bc 48 75 64 3e
       0.14413407 -0.031407394 -0.020038774 0.22310364
000070 ef c3 8e 3d d1 9c e8 3d 2c ec 83 3c 90 6d 8d 3d
       0.06970965 0.11358035 0.016103826 0.06905663
000080 3e 11 10 3e 9c 48 be 3c 17 0e 16 3e 73 53 5f 3d
       0.14069077 0.023227982 0.14653812 0.054522943
000090 c1 8a 81 3c fc 27 ed 3d e2 dc 9e 3c cb ec ea bd
       0.015813233 0.11579892 0.019392435 -0.11470946
0000a0 2d 36 ea 3d d3 75 05 bd db 00 69 bd 54 99 f1 3c
       0.114361145 -0.03258307 -0.05688558 0.029492058
0000b0 e3 36 04 be 21 a9 6f bd 9c 07 08 3e 30 5b 07 be
       -0.12911563 -0.058510903 0.13284153 -0.13218379
0000c0 93 bd 3c bd d2 a7 19 be 3d 8c 5f 3d 7a f7 92 bd
       -0.04607923 -0.15005425 0.0545771 -0.07176109
0000d0 97 48 41 3e a9 dd 8a 3d 63 a9 8d 3d 77 6c 9d 3e
       0.18875347 0.067805596 0.069170736 0.30746815
0000e0 56 c0 8f 3d 52 c7 f6 3d ba d6 30 3e fe ca 30 be
       0.07019107 0.12049736 0.17269412 -0.17264935
0000f0 5a 9e 72 3d eb 24 b2 3e 72 3d b6 3d 10 71 73 3e
       0.059233047 0.3479379 0.088984385 0.23773599
000100 68 8f dc bd 9e ef 23 be 3f 65 5d 3c bd 58 f1 3c
       -0.1076954 -0.16009375 0.0135129085 0.029461259
000110 60 08 da 3d 3b bd b5 3d 53 93 42 3e 6d b2 3d bd
       0.10646129 0.088739835 0.19001512 -0.04631274
000120 e9 e9 16 be 7b 64 ba 3c 97 15 b2 bc 76 07 ad bd
       -0.14737667 0.022752991 -0.02173881 -0.08448689
000130 7a 66 9d 3d 11 5a 07 3e 3d 22 cd bc 4b 67 58 3d
       0.076855615 0.13217951 -0.02504074 0.052832883
000140 8e 05 d6 bd 2d 1c 86 bc 11 71 47 bd 4b 8e c4 3b
       -0.10450278 -0.016370857 -0.048691813 0.005998408
000150 f0 ca 9d 3d 59 c0 c6 3d 50 66 c0 bd a6 46 03 be
       0.07704723 0.09704656 -0.093945146 -0.12819919
000160 f7 15 12 3c 96 20 bd bd 81 f6 33 3e 3f d5 92 3d
       0.00891637 -0.09234731 0.17574503 0.0716958
000170 93 25 54 3d 62 77 88 be 84 cf 33 3e 71 d9 8f bd
       0.051793646 -0.26653582 0.1755963 -0.070238955
000180 12 a4 00 3c f2 52 a2 bd 5e de 6e bd 2f c1 2d be
       0.007851617 -0.07925977 -0.058317535 -0.16968225
000190 cb 22 6e 3d 99 50 26 3d 78 e9 af 3d 6a 22 29 bd
       0.05813865 0.040604208 0.085894525 -0.041292585
0001a0 86 98 8f bd 14 7e aa bd a4 04 04 3e 01 57 15 bd
       -0.070115134 -0.08324829 0.12892395 -0.036459927
0001b0 0c ef bd 3c e4 e4 c0 bc 0d 8e 18 3d 2f 27 4f 3d
       0.023185275 -0.023546644 0.037244845 0.050574478
0001c0 11 6f 07 3d 6f e8 f6 bc f4 70 c5 bc 3b 32 01 3e
       0.033064906 -0.03014013 -0.024101712 0.12616818
0001d0 c0 99 2e be a1 bc e0 bb a8 4e 26 3d f8 df 06 bd
       -0.17050838 -0.006858424 0.040602356 -0.032928437
0001e0 bd ab a1 3d 39 3a aa 3d cc 96 8a bd c1 30 68 3d
       0.078940846 0.08311886 -0.067670435 0.05668712
0001f0 cc a9 e5 bd 74 e6 ba 3d 03 47 82 3d d8 71 17 be
       -0.11214027 0.09125987 0.06361201 -0.14789522
000200 91 4c af bd bf 28 94 bd c6 fb 02 be f6 96 c9 3d
       -0.08559526 -0.07234334 -0.12791356 0.09843247
000210 f4 57 cc 3d b2 ff 1f 3d b1 3f 10 3e 72 c0 5e bc
       0.09977713 0.03906221 0.14086796 -0.013595687
000220 d2 7a 60 3d 99 3f 4a bd 18 fe 1a 3d f6 cb 8f 3b
       0.05480463 -0.049377058 0.03783998 0.0043883277
000230 32 18 99 bd 43 9d ed bd 02 b6 03 bd e3 d1 88 3d
       -0.07475318 -0.11602261 -0.032155998 0.06680658
000240 fb 5a 13 3d 5a 91 4a bd 20 65 9e bc 90 ee 2f 3d
       0.035975438 -0.049455024 -0.01933533 0.04295212
000250 ea 2e 3e 3c 3e 8a 31 3e 9d 52 8c bc 8e c3 88 3d
       0.011607865 0.17337891 -0.017129237 0.06677924
000260 b3 09 d4 3b 6e 33 b1 bd dd 9a 80 3d 8d e8 91 3d
       0.006470883 -0.086523876 0.06279538 0.07124434
000270 90 40 34 bc bd a5 66 3d 50 b0 16 3e cc 71 c0 3d
       -0.011001721 0.056310404 0.14715695 0.09396705
000280 55 2d 7c bc f7 83 13 be 22 24 dd bd 08 64 62 bd
       -0.015391667 -0.1440581 -0.107979074 -0.05527118
000290 bd d8 be bd 40 bc 18 3d a4 82 0d 3e 06 35 01 3d
       -0.09318683 0.037288904 0.13819367 0.031544708
0002a0 7a 48 8d bd 22 76 c6 bd e0 6a a6 3d 3b 01 83 3d
       -0.068985894 -0.09690501 0.081258535 0.06396719
0002b0 04 e6 3c bc 2f 51 bc b9 7d 44 ef 3c 9a 30 8a bd
       -0.011529449 -0.0003591864 0.029207462 -0.06747551
0002c0 3d d3 03 3c 2d 18 e2 bc 97 93 a0 3c 80 5a db bc
       0.008045969 -0.027599419 0.019601626 -0.026776552
0002d0 fd dd 85 bd ef c5 aa bd 06 a7 8e 3d 91 ba 26 3d
       -0.065364815 -0.08338534 0.06965451 0.040705267
0002e0 e9 2f a6 bd 3f e1 50 3d 1f 30 e3 3c 5d 67 c7 bd
       -0.08114607 0.05099606 0.027732907 -0.09736512
0002f0 df 64 66 3d 0c 4c 84 bd f4 ec 7a 3d a2 f0 46 3d
       0.056248542 -0.06459817 0.061261132 0.04856933
000300 cf 3d f6 bd 30 1f 7b 3b f9 c3 a9 3c 56 ee 07 3e
       -0.12023508 0.003831815 0.02072333 0.13274512
000310 62 ee 85 bd 51 de a7 ba 35 90 b8 3d 63 68 d9 3d
       -0.065396085 -0.0012807344 0.0901188 0.10615613
000320 9b f1 a7 3e cb 0f 77 bb 60 df a0 3d b5 dd 0d 3d
       0.32801518 -0.0037698622 0.078551054 0.034635264
000330 3f 97 9d bd 23 01 e1 3d 8e 40 09 be 60 29 04 bd
       -0.076948635 0.10986545 -0.13403532 -0.03226602
000340 d8 d4 64 3c 1f ec 53 3e 52 ff e9 3c 8a 0c 04 be
       0.0139667615 0.20695542 0.028564129 -0.12895408
000350 c6 5b 3b 3e 40 4c 08 be cf bc 0f 3e e7 4c 44 3d
       0.18296728 -0.13310337 0.14036869 0.047924902
000360 8c fc 61 3d 36 a4 ba 3d fa 55 e9 3d 4e 0d 25 3b
       0.055172488 0.09113352 0.11393352 0.0025184932
000370 d4 3c 19 3c c3 9b 50 3e bd 1c 97 3d 89 8a 98 bd
       0.009352881 0.20371918 0.07378528 -0.074482985
000380 ed c1 25 3d 47 ca a0 3d ac 9a 3b 3e 79 3d 0f bd
       0.040468145 0.07851081 0.18320721 -0.034970734
000390 76 4f a9 3d a3 44 c3 3d 44 26 02 3e cb 19 fb bc
       0.08267109 0.09534576 0.1270991 -0.030651947
0003a0 17 0b 34 3e c5 d0 01 3d 92 dd dd bb 4e 9c 84 3d
       0.17582355 0.03169324 -0.006770798 0.06475125
0003b0 f5 ba c4 3d 67 00 f2 bc 50 b4 57 3d a6 d8 04 3d
       0.09605972 -0.029541207 0.052662194 0.032433175
0003c0 48 02 bf 3b f3 cb 98 bd f0 74 c2 3d 83 f1 63 bd
       0.0058291294 -0.07460775 0.0949496 -0.055650245
0003d0 7a 45 93 3d 4b 22 d0 3c b8 7c 34 3e 08 32 86 3e
       0.07190986 0.025406977 0.17625701 0.26210046
0003e0 9b 06 a6 3d 1c 98 6e 3c d5 8a 22 3e ac 0e db bd
       0.08106729 0.014562633 0.15873273 -0.10696158
0003f0 1e 52 d4 3d bd 62 90 3e 8b 17 94 3d 40 02 31 3e
       0.10367225 0.2820033 0.07231053 0.17286015

lstm.weight_ih_l1 f4 [256, 64]
000000 26 f1 22 bd ee 57 b3 bc de dc 32 3e 33 b9 03 3c
       -0.03978076 -0.021892514 0.17467067 0.00803976
000010 c0 d9 f6 3c 90 5d 96 bd 42 f3 95 3d 75 68 3b 3d
       0.030133128 -0.073420644 0.07321788 0.045753915
000020 dc 96 ca 3c ae 07 ad bd 86 52 7d bd ec 86 08 3e
       0.024730138 -0.084487304 -0.06184628 0.13332719
000030 3b 4b c6 3d 4e 84 26 3d fb 2d e9 3d 2c 2c 98 3c
       0.09682318 0.04065352 0.11385723 0.01857575
000040 cc f2 76 bd 54 75 a3 bd ce ef 8c 3b 32 4d 1f bd
       -0.060290143 -0.07981363 0.004301048 -0.03889198
000050 17 1a 5b bd db 96 b1 3d 72 b2 8b 3d f1 4d 42 3d
       -0.053491678 0.086713515 0.06821145 0.047437612
000060 89 dc 35 bc 3d ee 26 bd f2 71 da bc af e3 7a 3e
       -0.011099943 -0.040754545 -0.026665661 0.24500917
000070 eb 95 b8 3d ae d5 6a bc 68 32 b9 3d 2b dd 49 3e
       0.090129696 -0.014333172 0.09042817 0.19713275
000080 a7 bc 68 bd 1d 45 34 be 24 ca 02 be 4b 49 9d bd
       -0.056820538 -0.1760449 -0.12772423 -0.07679995
000090 ea db 55 bb e1 3c 0a 3e fa a2 63 3d db 72 1f 3d
       -0.00326323 0.13499786 0.05557535 0.038927894
0000a0 67 17 b7 3d de 25 05 be 2c bb 5e 3b 23 86 80 bd
       0.089400105 -0.13002726 0.0033986075 -0.062755845
0000b0 ad 67 86 bd 51 c1 60 bd d6 25 82 3b e8 44 88 be
       -0.06562743 -0.05487186 0.0039717956 -0.2661507
0000c0 45 52 53 bd 3b a1 15 3c 25 34 69 bd ff 3f 1f 3e
       -0.05159213 0.009132679 -0.056934495 0.15551756
0000d0 0e 4f 69 3d 5d 07 74 3d 82 7a f1 3d 95 db 72 bd
       0.056960158 0.059577335 0.11790945 -0.05929144
0000e0 d8 58 5c bd 14 66 7e 3d f7 c4 e1 bd 75 9f 96 3d
       -0.053795666 0.062109068 -0.11023896 0.07354633
0000f0 50 88 32 bd bc d5 8e bc 0c a7 1d be 53 46 8a 3d
       -0.04358703 -0.0174359 -0.15395755 0.067516945
000100 b5 52 1d 3c 30 f8 2d bc 2c b5 40 3e 62 30 80 3d
       0.009602238 -0.010618255 0.18819112 0.06259228
000110 62 cd 36 bd a3 bb de bd be 5b db 3d 9e a9 10 3e
       -0.044629462 -0.108756326 0.10710858 0.14127204
000120 25 40 c9 bd c4 2c f8 3d 4b 28 b0 bd 78 33 1e bd
       -0.09826688 0.12117913 -0.08601435 -0.038623303
000130 03 72 03 3d 66 23 c7 3c de 18 fb bd 5e 6c 40 3d
       0.032091152 0.024308871 -0.122606024 0.046978347
000140 8a c2 32 3c a8 11 e8 3c 3f 25 0a bd cb 24 68 be
       0.01091064 0.028328732 -0.033726927 -0.22670285
000150 76 29 89 bd 4e 1b 1e bd ef 05 14 bd 31 4d 80 3d
       -0.06697361 -0.03860026 -0.03613847 0.06264723
000160 55 45 ec 3d 1b 06 78 bd 8a 56 91 bd 4b 5d 45 3d
       0.115366615 -0.060552698 -0.07096584 0.048184674
000170 0d 5f 85 bc de 06 c6 3d 12 67 2c 3e ca 33 5b 3e
       -0.016280675 0.096692786 0.16836193 0.21406475
000180 cf 94 77 bd 49 59 09 3e 6d b6 75 3d b3 cc a9 3b
       -0.06044465 0.13412966 0.059988428 0.0051818728
000190 0b 22 5b bd 2a 33 67 bd f0 78 d4 3d 6c f5 fb bd
       -0.053499263 -0.05644528 0.103746295 -0.1230267
0001a0 b7 e5 33 be 4d 46 a5 3d 7e 8b 3b be e1 36 00 3e
       -0.17568098 0.080700494 -0.18314931 0.12520935
0001b0 4e 80 89 be 41 ca 02 be 67 49 6d 3e f6 b9 f4 bd
       -0.268557 -0.12772466 0.23172532 -0.11949532
0001c0 b1 87 9e 3d 80 40 89 3d 75 27 59 be 68 7e 70 bc
       0.07740725 0.067017555 -0.21206458 -0.014678575
0001d0 4f 7a 21 bc 6e 33 8f 3e e3 18 e9 3d e5 c5 35 be
       -0.009855821 0.27968925 0.113817 -0.17751272
0001e0 bb 14 09 be 03 29 5a 3d 67 d9 2f 3e 9d 24 c8 3d
       -0.13386814 0.053261768 0.17172776 0.097726084
0001f0 8c 5f bd bd c5 4a 57 3d 3c 25 49 bd d7 49 62 be
       -0.0924674 0.05256154 -0.049107775 -0.2209848
000200 79 27 50 3e e3 86 95 bd 0e aa 25 3e 9d bb 2c 3c
       0.20327558 -0.07301118 0.16178152 0.010542777
000210 73 5d e4 bd b9 39 01 3e 5c fa 8b bd 03 ce 8d bd
       -0.111506365 0.12619676 -0.06834862 -0.06924059
000220 9c de 88 3c 85 98 c3 3c 0c 21 80 bb df d5 33 bd
       0.01670771 0.023876438 -0.0039101895 -0.043905135
000230 b6 d0 4d bc f6 54 46 bd c8 c8 01 3c ac 66 69 3d
       -0.012561968 -0.04842087 0.007921405 0.05698268
000240 78 ad 86 bc 54 74 36 3d 8d 8b 9c bd b6 59 cc bd
       -0.016440138 0.044544533 -0.07643805 -0.099780485
000250 ab 0f 0b 3e 56 c1 28 bc 64 8e 9b 3d 4c ff 50 bd
       0.13580196 -0.010300001 0.07595518 -0.05102472
000260 1e 31 f7 bc 98 31 00 bd 09 98 84 bd 41 6e 94 3d
       -0.030174788 -0.031297296 -0.06474311 0.07247592
000270 5d 72 9f bd 2a 71 88 3d ae b4 bf bc 04 0c 24 bc
       -0.07785485 0.06662209 -0.023401584 -0.01001263
000280 6c 1a 38 bc 6e 25 a5 bd 95 fa 1c be e1 4c 0a bb
       -0.011236768 -0.0806378 -0.15329964 -0.0021102952
000290 10 50 01 3e e8 d0 cc bd fc 0c 14 3d 37 47 c2 3d
       0.12628198 -0.10000783 0.036145195 0.094862394
0002a0 72 d3 08 3d 08 7d 90 3c 91 d7 f9 3d 7b 99 98 bd
       0.033404775 0.017637745 0.12199319 -0.07451149
0002b0 8f 4e 5a 3e 3d aa 38 3d 1b 14 d7 bd 40 a1 ac bc
       0.2131903 0.045084227 -0.10501882 -0.021072984
0002c0 80 24 94 3d b2 ba b4 3c 84 f9 fa bd 46 04 7d bd
       0.07233524 0.02206168 -0.122546226 -0.061771654
0002d0 55 48 19 be e5 3e 99 bd 6a 1b cc 3d c9 b4 99 3d
       -0.14968999 -0.07482699 0.09966166 0.07505185
0002e0 1f 41 e8 3d 8c f8 95 bd 03 8b e3 3c 5f dc 31 bd
       0.11340546 -0.07322797 0.027776247 -0.043423053
0002f0 c3 8d 49 bd a1 fd 37 bc 7a a3 7e 3c 67 5e 1f ba
       -0.04920746 -0.011229903 0.015541906 -0.00060794357
000300 98 08 d8 bd 5e f1 09 be 9f f9 4d 3e 8b 3b 7e 3c
       -0.10548514 -0.1347098 0.20114754 0.015517126
000310 59 6a f4 3d 7b 9e 69 3d 96 ea 03 3c 07 5f a3 bc
       0.11934347 0.057035904 0.008051535 -0.019942774
000320 36 ff 0a 3e fe 10 4b bc 50 2a 95 bd dc 23 48 bd
       0.13573918 -0.012394188 -0.07283461 -0.048862323
000330 37 3b ea 3c 91 a6 c1 bd 3b 80 46 3d f7 97 a5 bc
       0.028592689 -0.09455598 0.048462134 -0.020214064
000340 51 d1 c9 3d f9 1f d4 bd a4 eb 08 be c8 8f 52 be
       0.09854377 -0.10357661 -0.1337114 -0.2056266
000350 06 f7 98 bd 63 fa 93 3d 1e 2d 03 3e 54 da cf 3d
       -0.07468991 0.07225492 0.1281018 0.10149065
000360 c6 6a 9e be 64 87 e6 3b 9f 49 3e be 47 e7 d2 3d
       -0.30940837 0.007035183 -0.18582772 0.10298019
000370 ac 9a d9 bd 4c 51 7f 3d a2 6c 5c be 8d cb 12 3e
       -0.106252044 0.06233339 -0.21525815 0.14335461
000380 37 24 1a bc 3e aa 6c 3d 3d 62 a5 bd fd ae 72 3d
       -0.009408048 0.057779543 -0.08075378 0.059248913
000390 1b f7 1c be de 7f a2 3b c7 4e 78 bd 57 18 1b 3d
       -0.15328638 0.0049590906 -0.060622003 0.03786501
0003a0 d5 3d 15 3e be 70 2c be 20 05 a9 3d da 8d 33 3d
       0.14574368 -0.16839883 0.08252931 0.043836452
0003b0 4c 3a e4 3d 85 8f af bd de f5 84 bc 5a 02 fe bd
       0.11143932 -0.08572296 -0.01623052 -0.12402792
0003c0 cf cb f2 bc ac b2 34 bd 0a f9 7c 3d 37 68 54 3e
       -0.0296382 -0.044115707 0.06176094 0.2074288
0003d0 dd bd 09 3d 5b 1f b2 ba 59 9f 2f 3d 50 7c 63 3b
       0.033628333 -0.0013589667 0.042876575 0.0034711547
0003e0 d9 27 3d 3e 88 4c 18 ba f8 19 32 3d 42 ed 58 3d
       0.18472232 -0.0005809744 0.043481797 0.05296064
0003f0 46 7e 05 3d f4 ca a0 bd f3 8b 15 bc 10 df f1 bd
       0.032591127 -0.0785121 -0.009127605 -0.11810124

lstm.weight_hh_l1 f4 [256, 64]
000000 92 cc 11 bd bf e1 b4 3d 7d 2e 48 bd 95 a9 f2 bd
       -0.035595484 0.0883212 -0.04887246 -0.118487515
000010 87 64 08 be ef 43 96 3c 53 95 14 be 05 f2 8b bd
       -0.13319598 0.01834294 -0.14510088 -0.06833271
000020 54 26 98 bd c5 3c 98 3c f5 53 7b bd 44 4c be bd
       -0.074291855 0.018583665 -0.061359365 -0.0929189
000030 be b9 90 3d 25 7d 05 3e e6 28 f7 bc f1 76 17 be
       0.070666775 0.1303602 -0.03017087 -0.14791466
000040 de e2 87 bd 06 18 9f bc a7 d8 c0 3c 33 39 99 bc
       -0.06635068 -0.019420635 0.023540808 -0.018704033
000050 9f 8a 0c 3d cb 35 db 3d a1 27 39 bc 37 aa f4 3d
       0.034311887 0.107036196 -0.011300952 0.119465284
000060 40 06 34 be c0 14 36 3c ac c0 f8 bb ee 93 d0 bd
       -0.17580509 0.011113346 -0.0075913277 -0.10184465
000070 0a 06 dd 3d 6a 44 4a 3c d5 e8 33 bc 4a 14 a4 bd
       0.107921675 0.012345413 -0.010980804 -0.08011682
000080 22 2c f8 bd 22 3a be 3d 9c 54 2f be 7f e0 88 3d
       -0.12117793 0.09288432 -0.1712212 0.06683444
000090 08 b7 d5 3d 21 b6 95 3d e0 e0 1e 3d 05 b8 bb 3c
       0.10435301 0.07310129 0.038788676 0.022914896
0000a0 5e c1 4b 3c d3 ec 90 3c e6 1b 11 3d 83 73 03 bd
       0.012436239 0.017691052 0.035426997 -0.032092582
0000b0 06 e3 16 3d 5f 10 d7 bd 8a 23 55 bc d8 d5 47 3d
       0.0368376 -0.105011694 -0.013008961 0.04878792
0000c0 64 68 e8 3d 2b d8 11 3d 2c 0f d8 3d 18 9f 5d 3d
       0.11348036 0.035606544 0.10549769 0.0541068
0000d0 19 36 08 bd 10 d3 c0 bd 0d eb fa 3a 03 fe 97 3d
       -0.033254717 -0.09415257 0.0019143537 0.07421496
0000e0 b4 2e e4 3d b1 23 19 bd 11 17 19 3d a8 06 90 bd
       0.111417204 -0.037387554 0.037375513 -0.070325196
0000f0 31 9b aa bc 84 cf af bd ab 26 8e bc eb 55 8a bd
       -0.020825954 -0.08584502 -0.017352423 -0.06754669
000100 44 ad 51 bd 72 49 29 bd c1 e4 1d be ea cc 32 3e
       -0.05119063 -0.04132981 -0.15419294 0.17460981
000110 85 bb c2 3d 54 f1 49 bd 59 79 36 bd 6d 99 59 be
       0.09508423 -0.049302414 -0.04454932 -0.21249934
000120 53 fd 9a bd 4c d4 ba 3d b4 1b 0c bd 73 6d c9 bd
       -0.07567849 0.09122524 -0.034206107 -0.09835329
000130 30 5f 1f 3e 51 6c 61 3d 02 24 17 be 23 9d 57 3c
       0.15563655 0.05503494 -0.1475983 0.013160023
000140 ad 17 a0 bd ce eb 33 3d 0a 05 67 3d d0 e0 8d 3d
       -0.07817016 0.043926053 0.05640129 0.06927645
000150 4e 13 96 3b 52 2b e6 bd 73 8c 92 bd 0f 22 13 3e
       0.004579938 -0.112387314 -0.07155695 0.14368461
000160 cf 3c 52 bd b0 47 6f 3d 8d 30 6e bd 27 e9 5b 3d
       -0.051327523 0.058417976 -0.05815177 0.05368915
000170 d6 2e c7 bd 80 cd 15 be 17 a9 56 be 79 55 4a bd
       -0.0972573 -0.14629173 -0.2096294 -0.04939792
000180 c0 1b 15 3d cc 25 40 bd 29 f8 0b be 5d 07 cf bb
       0.036403418 -0.046911046 -0.13668884 -0.0063180164
000190 80 39 38 3c 88 ae 10 be 14 62 ef 3c ec 31 da bc
       0.011244178 -0.14129078 0.029221572 -0.026635133
0001a0 2f 1a dd 3c 3a 28 ed bb 88 5e f2 ba 19 c2 12 bc
       0.026990024 -0.0072374614 -0.0018491307 -0.008957409
0001b0 4c 93 64 3c 7a ce 07 3e 92 66 ce 3c 1b 0b 89 3d
       0.013951134 0.13262358 0.025195394 0.06691571
0001c0 9c c8 6b bd cf b4 f0 3c 50 c4 2d 3d fd 56 fc 3d
       -0.057564363 0.029383091 0.042423546 0.12321279
0001d0 d1 39 1f bd bb c4 f6 bd 60 60 22 bd 64 ec 90 3d
       -0.038873497 -0.12049242 -0.03964269 0.07076338
0001e0 39 55 b7 bc 34 c7 59 bd 9f aa 1b 3d c8 93 23 bd
       -0.022379505 -0.05316849 0.038004514 -0.039935857
0001f0 e4 e5 be 3d b3 81 2b 3d 10 21 ad 3c 6e 7a 05 bd
       0.09321192 0.041871738 0.02113393 -0.03258746
000200 5f af 08 3e 74 4f 59 3d 59 2d b9 bd a6 90 0f be
       0.13348149 0.053054288 -0.090418525 -0.14020023
000210 4a fc 08 bc 0b 74 5e 3d d3 9d b6 3d 38 c3 bf 3c
       -0.008360932 0.054309886 0.08916821 0.023408517
000220 02 fe 40 bd 03 7a 03 be f3 9f 81 bd cc 66 82 3c
       -0.04711724 -0.12839513 -0.06329336 0.015918158
000230 ae 6a a8 bd 1a a7 bc 3d b5 46 4e bd 39 6a 43 bc
       -0.082234725 0.092115596 -0.0503604 -0.011927181
000240 57 da 0c bd 6f e8 6b bd 17 34 0b 3b 4b 1c d3 bd
       -0.034387913 -0.057594713 0.0021240765 -0.10308131
000250 33 33 98 bc 5e 46 7d 3c 80 a6 a6 bd 12 21 be bd
       -0.018579101 0.015458671 -0.08137226 -0.092836514
000260 6b 2a 05 bd d7 27 5e bd f7 f9 6b bd ea 57 ef bd
       -0.032511156 -0.054237213 -0.057611432 -0.1168669
000270 5b 8e c4 bd e8 6a 55 bd 81 4d 49 3d ef 12 b3 bd
       -0.09597465 -0.052103907 0.04914618 -0.08743846
000280 f9 b2 bc 3d 29 9b 36 bc 22 e9 94 3d b4 57 ff bc
       0.09213824 -0.0111453915 0.07271029 -0.03116975
000290 d3 ca 18 bd a5 de 1f 3d d2 2b b7 3d 24 ab 98 3c
       -0.037302803 0.03903069 0.08943905 0.018636294
0002a0 f0 9a 7e bd 90 70 cf bd f2 8d a2 3c d5 63 22 bc
       -0.06215948 -0.101288915 0.019843075 -0.009911497
0002b0 6f 93 d0 3c 13 b2 85 3c 06 40 64 3d 72 26 4a 3d
       0.025460927 0.016320264 0.05572512 0.04935307
0002c0 39 a0 71 bd 58 59 9a 3d 24 34 85 bd 04 ee cd bd
       -0.05899069 0.07536572 -0.06504086 -0.100551635
0002d0 0f e2 3a bd 60 7a 71 bd f4 60 34 bd be 32 53 bd
       -0.045625743 -0.058954597 -0.044037774 -0.051562063
0002e0 24 b3 0a 3c ab 85 ca 3d 2b 4f ee 3d 92 ee b5 3d
       0.008465562 0.098887764 0.11636194 0.08883394
0002f0 7b 3c 70 bd 70 3f 9f 3d cd 55 9b bc ef 70 99 bd
       -0.05865143 0.077757716 -0.018961811 -0.074922435
000300 33 4b 84 bd ff 18 d0 3d bf 24 e3 bd 93 30 da 3d
       -0.064596556 0.101610176 -0.11090993 0.10653796
000310 68 89 4b 3d 89 87 91 bd 91 97 a3 bd 37 f6 0e 3d
       0.049691588 -0.071059294 -0.079878934 0.034902778
000320 ff f1 d6 bd ce 5c 04 bd 87 d2 30 be d9 92 03 bc
       -0.10495376 -0.032315068 -0.1726781 -0.008030617
000330 e6 57 c7 3d 15 07 33 3d c1 8d 0e 3c 32 ba c2 bd
       0.09733562 0.043707926 0.008700789 -0.0950817
000340 df 96 81 3d bc 0e 2d bd a9 fa 43 bd 54 b8 d6 bc
       0.063276045 -0.04225038 -0.04784647 -0.026210941
000350 35 bd 04 3e 02 2f 92 3d 6f 59 90 3d ef 13 22 3d
       0.12962802 0.07137872 0.07048308 0.03956979
000360 a8 90 73 3d 6c 43 fe 3d d1 99 b2 3c f5 54 2e 3d
       0.059464127 0.124152035 0.021801861 0.04256149
000370 1c 00 8c 3d 12 35 91 bd fd ed 7c 3c a9 54 99 3d
       0.06835958 -0.070902005 0.0154376 0.07486851
000380 43 bf cd bd 4d 9c 39 3e 11 43 a0 bd 10 28 36 3e
       -0.10046246 0.1812603 -0.07825292 0.1778872
000390 97 80 f6 3d 71 c9 83 bc 0c 05 b8 bd f9 f7 1f 3a
       0.12036245 -0.016087266 -0.089853376 0.00061023195
0003a0 b5 6f 46 3d fd 8c f8 3b e0 54 42 3d ba 3f 1f 3e
       0.048446376 0.0075851665 0.047444224 0.15551654
0003b0 21 41 a6 bd 2e f2 e2 bd 84 43 cb 3d ca 0e 46 3e
       -0.08117891 -0.11081348 0.09924987 0.19341579
0003c0 7a ce b9 bc e1 70 85 bd f6 6d 4c 3d 47 de c3 bd
       -0.022681464 -0.065156706 0.049909554 -0.095638804
0003d0 ef 6a ca 3d f1 18 9f 3c 59 75 a7 3d 51 e9 d9 3d
       0.09883677 0.019421073 0.08176679 0.10640205
0003e0 18 69 bc 3c ce 30 e2 bd 0d 38 03 3e 03 e0 9e bc
       0.022999331 -0.11044465 0.1281435 -0.019393926
0003f0 8b 18 a9 3d ee 43 7d 3d 8b cb c5 bd da 50 7d bd
       0.08256634 0.06183236 -0.09657963 -0.061844684

lstm.bias_ih_l1 f4 [256]
000000 20 c7 16 3d 71 7e d9 3d 77 41 28 be ba ee 84 3e
       0.036810994 0.1061982 -0.16431223 0.25963384
000010 0d 17 01 bc 01 77 31 3e 85 b6 7d 3d f7 70 3d 3d
       -0.007879031 0.17330553 0.061941642 0.04625031
000020 11 38 86 bd f9 a3 9e bc 59 ca f2 bd e7 b6 33 3e
       -0.065536626 -0.019365298 -0.11855001 0.1755024
000030 40 51 a6 3b 4e 84 40 bd 2f 2a 34 3e 58 9f 25 be
       0.0050756037 -0.047001176 0.17594217 -0.16174066
000040 08 e4 99 bd 36 98 e2 3d 66 ec 84 bc 29 9e 53 3d
       -0.07514197 0.11064188 -0.016226005 0.051664505
000050 aa 7f 23 bd 81 d8 98 3d ae 22 51 3d cd 9f 11 3c
       -0.03991667 0.0746317 0.051058464 0.008888197
000060 4f bb 89 bc 50 f0 b2 3d 3f cc fb 3d b2 73 b5 bd
       -0.016812949 0.08737242 0.12294816 -0.08859958
000070 9c a9 ad 3e fd 63 0d 3e aa a3 07 3e ad 48 72 bd
       0.33918464 0.13807674 0.13246027 -0.05915134
000080 f8 91 de bc a4 df 93 3c 6c 37 a7 3c 49 60 1a 3e
       -0.027169213 0.018050976 0.02041217 0.15075792
000090 2c 03 19 3e f0 2e 45 3d eb a5 e5 3d ba d4 2c 3e
       0.14942616 0.048140466 0.11213287 0.16878024
0000a0 e7 14 1f 3c 59 57 8d 3d b6 aa 3e bd a0 28 5e bd
       0.009709573 0.06901426 -0.04654952 -0.05423796
0000b0 72 60 f4 3d 1f a6 2a 3d e4 74 58 3d c9 e4 35 3d
       0.11932458 0.04166233 0.05284585 0.04440764
0000c0 50 b8 a0 3d 25 d1 ad 3b 7e 49 27 3a db 19 e0 3d
       0.07847655 0.005304473 0.00063814956 0.109424315
0000d0 34 0a a5 3e 5d bd 5d 3e 34 22 50 3d 4b 9b c7 3d
       0.32234347 0.21654268 0.05081387 0.09746417
0000e0 df 1f 9b 3d c2 18 2a be 09 9f b8 3d 26 2e 62 3b
       0.07574438 -0.16611007 0.090147085 0.003451237
0000f0 a5 27 9b 3d 43 cb f4 bd 7b ed 40 3e 76 24 32 bd
       0.07575921 -0.119528316 0.18840592 -0.043491803
000100 fd e7 00 3d 9c 7e f1 3c f1 b6 0c bd 1e 7b 61 bd
       0.03147124 0.029479317 -0.034354154 -0.055049054
000110 ca e1 e2 bd 1c be 92 bd 69 26 65 bd 42 1b 40 be
       -0.11078222 -0.07165167 -0.055944834 -0.18760398
000120 c5 ef 61 bd aa 22 a7 bd f0 fa 14 3d dd f5 a4 3c
       -0.055160303 -0.081609085 0.036372125 0.020136768
000130 ea 91 a4 3d 14 c8 2f be 33 7a 05 be 73 ed a3 bd
       0.080356434 -0.17166167 -0.13034897 -0.08004274
000140 67 61 bb bd 69 ca 97 bd 2b 0e 76 bd 8d 7d 10 bd
       -0.091494374 -0.074116535 -0.060072105 -0.035275985
000150 31 3f d6 bd c7 b8 56 be 9b dd 09 3e ca 9e 4a be
       -0.104612716 -0.20968924 0.13463442 -0.19787136
000160 7d 93 13 be 9f 50 19 bb b2 0d 39 3d 49 b2 e1 bd
       -0.14411731 -0.0023394001 0.045179076 -0.11020333
000170 3e 0c 3b be aa fd 16 3d 42 f9 2b bd ba 06 8c bd
       -0.18266389 0.036863007 -0.041985758 -0.068372205
000180 b4 2b 75 3d 7d 50 4e 3d 09 87 a4 3d 38 27 e4 3d
       0.05985613 0.05036973 0.080335684 0.11140293
000190 0d d7 ee 3d 35 17 29 be b2 e6 09 be bd de 78 3d
       0.116621114 -0.16512759 -0.1346691 0.060759295
0001a0 f6 a9 7d ba 8a c6 8d bc 20 95 bc 3c 50 12 17 be
       -0.000967651 -0.017306585 0.023020327 -0.1475308
0001b0 3e 66 af bd 3e 93 b9 3c 59 91 3b bd 66 28 f4 3d
       -0.08564423 0.022653218 -0.04579291 0.11921768
0001c0 69 4f fe bd 96 9d 33 bd 7e 21 09 3d 82 14 21 3c
       -0.1241749 -0.043851458 0.033479206 0.00983155
0001d0 f3 5b 36 3e 12 0e 20 3c 01 7c 95 bd 4f f9 8d 3d
       0.17808513 0.00976898 -0.072990425 0.069323175
0001e0 97 5e 08 be d4 81 02 be fa 6d 0a bd 51 4f bc bd
       -0.13317333 -0.12744838 -0.033796288 -0.09194816
0001f0 36 f4 ec bd 4a e4 fe bd 0c 55 cc bd 65 d8 30 be
       -0.11570017 -0.124458864 -0.09977159 -0.17270048
000200 66 2b 85 bc c5 73 be 3d 23 e2 b7 bc 2d cb 86 3d
       -0.016256046 0.09299425 -0.022446698 0.065817215
000210 ac 32 71 bd e5 2d 97 3c b0 52 47 bb 40 a5 27 3d
       -0.058886215 0.018454501 -0.0030414276 0.04092908
000220 df a2 bc bc 54 a1 11 3c e0 8f a6 3c ce 6a 23 3d
       -0.023026882 0.008888561 0.020332277 0.03989678
000230 d0 28 db 3c e2 bc c8 bc a2 17 39 bc 39 4c 41 3d
       0.02675286 -0.024504129 -0.011297138 0.047191832
000240 2e 6c 38 3c c2 ea 02 3d 05 02 32 3c b4 9e 39 3d
       0.011256261 0.031962164 0.010864739 0.045317367
000250 d5 7b 2e 3d 84 3e f6 3d 53 9b 47 bd 3e f0 f2 bb
       0.042598564 0.12023643 -0.048732113 -0.007413893
000260 4a 03 8f bd b7 ae 90 bc 77 dd 75 3d 26 f6 8e bd
       -0.06983049 -0.017661436 0.06002566 -0.06980543
000270 f1 6c c8 3d 62 78 f0 bc 8e f4 95 3d 8e 44 dd bc
       0.09786404 -0.029354278 0.07322036 -0.027010228
000280 c8 91 e9 bd af 86 1f bd 70 8c 9e bc 3b 4d 02 3e
       -0.11404759 -0.038946804 -0.019354075 0.12724774
000290 2d ec b5 bd 86 65 90 bd b1 91 c1 bd 04 02 3c bd
       -0.088829376 -0.07050614 -0.094516166 -0.04590036
0002a0 85 b6 a7 3c 35 23 06 bd 20 6b 70 3c 64 5f 21 3d
       0.020472774 -0.03274842 0.014673978 0.039397612
0002b0 5b 62 70 bd d4 9f bc bd bc f7 c0 3d b8 16 f0 3d
       -0.05868755 -0.09210172 0.094222516 0.11723083
0002c0 60 52 dd bd 15 da 4d 3d 3b 33 bc 3a 70 ba 23 3d
       -0.108067274 0.050256807 0.001435853 0.039972723
0002d0 51 5f f0 3d d0 55 03 3d c5 3d ab 3d 9d 16 de bb
       0.1173693 0.03206426 0.08361391 -0.006777598
0002e0 76 92 d4 3d a2 58 86 bd 2a 4c 47 3d 23 bc bf bb
       0.10379498 -0.06559874 0.04865662 -0.005851285
0002f0 20 5c 39 3d 5e 9a 57 3d f8 9a 8c 3d 38 c8 d2 3d
       0.045253873 0.05263745 0.068654954 0.10292095
000300 69 f0 14 3e 96 72 95 3d 6a 67 90 bd 6c 43 90 3c
       0.14544834 0.07297246 -0.07050975 0.017610274
000310 09 cb 6e 3c 1a ee 5d 3d 50 82 12 3e 40 33 7f bc
       0.014574775 0.05418215 0.14307523 -0.015576184
000320 e8 eb 3a 3d f0 a7 bf bd 69 49 93 bd 24 cf 8c 3d
       0.045635134 -0.093582034 -0.07191736 0.068754464
000330 36 25 8a 3d 2a 25 77 b9 1f 70 17 3d f7 28 83 bd
       0.06745379 -0.000235696 0.03697216 -0.06404298
000340 1a 37 b3 3d 55 5f aa bc c3 8e e1 3c a2 a6 d5 3d
       0.08750744 -0.020797411 0.027533894 0.10432173
000350 14 9e 36 be 33 9c 1d bd 07 fc 60 bc 34 84 e7 3b
       -0.1783374 -0.03847904 -0.013731963 0.0070653204
000360 48 35 21 be 87 45 3a bd d2 a7 14 3e 39 b7 11 3c
       -0.15742981 -0.045476463 0.14517143 0.008893781
000370 d0 44 99 3e 6d c6 32 bc 1e 55 45 bd f8 5b 17 be
       0.29935312 -0.010911566 -0.048176877 -0.14781177
000380 79 08 a5 3b e2 3b fd 3d 8d 14 0a 3e e4 c5 09 be
       0.0050364104 0.12364937 0.13484402 -0.13454396
000390 7b 5e 1e 3e f6 ac 84 3b 0e 8d d0 3d 9a a7 d4 3d
       0.15465729 0.004048939 0.10183154 0.1038353
0003a0 4a 2b 1d 3e 3b 2e 81 bc 2c 96 a3 3d 40 9e 64 3d
       0.15348545 -0.015769115 0.079876274 0.05581498
0003b0 fd c1 d9 bc b8 a9 8e bd 3a b0 1c bc c8 4a f0 3c
       -0.026581759 -0.06965965 -0.0095635 0.029332533
0003c0 5d d5 b9 bd d3 cd 35 3c bc 55 5d 3b 39 91 95 bd
       -0.09073899 0.011096436 0.0033773025 -0.0730309
0003d0 5e ee 10 3e c1 60 24 3d e8 47 a0 3d 9f c6 4f 3d
       0.1415343 0.040131334 0.07826215 0.05072653
0003e0 32 ae 9f 3d 9a 47 4c be 0a c7 ab 3d c7 25 ed 3d
       0.07796897 -0.19949189 0.08387573 0.11579471
0003f0 be 5b 2a 3e 97 fb 78 be 2e 04 c1 3d 60 25 89 bd
       0.1663656 -0.24314724 0.09424625 -0.06696582
