src/notebooks/lstm_model.pth (torch, 219445 bytes, 9 tensors)

lstm.weight_ih_l0 f4 [256, 14]
0	0x3e009766	0.12557754
1	0xbd8f7c39	-0.070061155
2	0x3c84bbd0	0.016202837
3	0x3dca45ee	0.09876619
4	0x3c40020b	0.011719237
5	0x3d4625de	0.048375957
6	0xbd4a1d40	-0.0493443
7	0xbe1c9dbb	-0.15294544
8	0xbdac932f	-0.084265105
9	0x3d8345c7	0.06409793
10	0xbda58ea0	-0.08083844
11	0xbdac1734	-0.08402863
12	0xbc0a9ed5	-0.00846072
13	0x3e4edfc6	0.2020255
14	0x3dce1543	0.10062649
15	0x3d9594cb	0.07303771
16	0xbc964c08	-0.018346801
17	0x3d6e9ad0	0.05825311
18	0xbd32489c	-0.043526277
19	0xbd065287	-0.032793548
20	0x3d40e20c	0.047090575
21	0xbe732371	-0.23743989
22	0x3e0b1fdc	0.13586372
23	0x3babb60f	0.005240209
24	0x3d83d939	0.06437916
25	0x3dd0f6c8	0.1020332
26	0x3c73ee49	0.014888355
27	0x3dcdf425	0.100563325
28	0x3e442d95	0.19158013
29	0xbd16ff37	-0.036864486
30	0x3d64374d	0.0557168
31	0xbc4be410	-0.012444511
32	0xbdab19f5	-0.0835456
33	0xbd8f52af	-0.069981925
34	0xbd91c3b8	-0.071174085
35	0xbdbc7302	-0.092016235
36	0x3d87a4ba	0.06623216
37	0x3dc91537	0.098184995
38	0x3d39e386	0.045383
39	0x3da53eaa	0.08068593
40	0x3e1325b7	0.14369856
41	0x3ce6168d	0.028086925
42	0x3e89b4c4	0.26895726
43	0x3d8dc24a	0.06921823
44	0x3cb0eee5	0.021598289
45	0x3c1773a0	0.009243876
46	0x3e1298f7	0.14316164
47	0xbe0a4ccf	-0.13505863
48	0x3d197bc7	0.03747156
49	0x3d8b9a07	0.06816488
50	0x3e35adb1	0.1774204
51	0xbdc1fa97	-0.09471624
52	0xbb88fa5c	-0.004180236
53	0xbc96dd09	-0.018415945
54	0xbdc6d7c8	-0.09709126
55	0xb8902442	-6.8732086e-05
56	0x3e9193d8	0.28433108
57	0xbe2f9a9c	-0.17148823
58	0x3dd27457	0.10276096
59	0x3ddeb2b4	0.10873929
60	0xbd11f145	-0.035630483
61	0xbe01d55f	-0.12679051
62	0xbe868d30	-0.26279593
63	0xbce9cd52	-0.028540287
64	0x3d092a9b	0.033487897
65	0x3e4e57d2	0.20150688
66	0x3c9f109e	0.019417103
67	0xbe2804dd	-0.16408105
68	0xbd416a91	-0.04722077
69	0xbd91b119	-0.07113857
70	0x3daae723	0.08344867
71	0xbddd03e0	-0.10791755
72	0xbdd06f5d	-0.10177491
73	0x3d97c99e	0.07411502
74	0xbe1d91c9	-0.15387644
75	0xbd76ae3a	-0.06022475
76	0xbd35660a	-0.044286765
77	0xbd445f6a	-0.047942556
78	0x3e1d77d7	0.15377747
79	0x3dc1ad77	0.09456914
80	0x3c799d5e	0.015235273
81	0xbdb250fc	-0.08706853
82	0xbd90ac53	-0.07064118
83	0x3e009940	0.1255846
84	0xbddea235	-0.10870782
85	0x3d367cbb	0.044552546
86	0x3ce44f29	0.027869778
87	0x3df1a24e	0.11798535
88	0xbc6f13eb	-0.014592151
89	0x3e249cf3	0.16075496
90	0x3e14b64e	0.14522669
91	0x3e23090d	0.15921421
92	0x3dec1e32	0.11529197
93	0x3bd7eeaf	0.0065897326
94	0xbdc070e9	-0.09396536
95	0xbd43c8f5	-0.04779907
96	0xbd5122fd	-0.051058758
97	0xbe8aeff8	-0.27136207
98	0xbd0b4ca9	-0.034008656
99	0x3d313b3b	0.043269377
100	0x3e214f80	0.15752983
101	0xbb48e500	-0.0030654073
102	0x3dd4487b	0.10365387
103	0xbb3278a9	-0.0027232564
104	0xbe21e6aa	-0.15810648
105	0x3cb813ec	0.022470437
106	0xbdf069ae	-0.11738907
107	0x3def3b3d	0.11681221
108	0x3c9cbad7	0.01913206
109	0xbcc8907e	-0.024482962
110	0x3da64383	0.081183456
111	0xbea94c67	-0.33066103
112	0x3c834a0e	0.016026523
113	0x3dc3aebf	0.095548145
114	0xbc39b181	-0.011333824
115	0xbdb5f85c	-0.088852614
116	0xbbb0497e	-0.0053798547
117	0x3d6314f2	0.055439897
118	0x3d0e6a3d	0.034769285
119	0xbe55cb9b	-0.2087845
120	0xbd818dcb	-0.06325873
121	0xbc45cbc5	-0.012072508
122	0x3cd100c9	0.02551307
123	0x3d7d7b88	0.061885387
124	0xbd8703b9	-0.06592507
125	0xbad8f529	-0.0016552556
126	0x3e30a2ed	0.17249651
127	0x3c131a98	0.008978508
128	0x3e034668	0.12819827
129	0xbddbdf60	-0.10735965
130	0x3d9283b2	0.07154025
131	0x3db7af36	0.08968966
132	0xbdff2987	-0.124590926
133	0xbd06af60	-0.032882094
134	0x3e03869e	0.12844321
135	0x3e18a471	0.1490648
136	0xbd185ada	-0.037196018
137	0x3d28b4d4	0.041188076
138	0x3b566d21	0.0032718854
139	0xbe2518a7	-0.16122685
140	0x3cbd3fdb	0.023101738
141	0x3dad0078	0.08447355
142	0x3dc014d9	0.093789764
143	0xbd203368	-0.039111525
144	0x3e04f31a	0.12983361
145	0xbda752d5	-0.08170096
146	0xbe4312c1	-0.19050123
147	0x3bdf7dff	0.00682044
148	0xbd493c50	-0.049129784
149	0xbd82d961	-0.06389118
150	0xbd1fdc8a	-0.03902868
151	0xbdc595fe	-0.09647749
152	0x3dbfbcc7	0.09362178
153	0xbec684cf	-0.387732
154	0xbdb91424	-0.09037045
155	0xbc895451	-0.016763838
156	0x3d1d02e7	0.038332846
157	0xbba5cf00	-0.0050600767
158	0xbd8ff392	-0.07028879
159	0x3db356c9	0.08756787
160	0x3df89e6c	0.121395916
161	0x3db1a483	0.08673956
162	0x3cc3df6d	0.023910249
163	0xbe1b0709	-0.15139402
164	0xbd5c1957	-0.053735103
165	0xbc267c20	-0.01016143
166	0xbd3f8c97	-0.046764936
167	0xbd0c0225	-0.034181733
168	0x3e31791c	0.17331356
169	0x3e097055	0.13421758
170	0xbcb67cbd	-0.022276277
171	0xbcd69a00	-0.02619648
172	0x3d288a28	0.04114738
173	0xbd99f2dc	-0.07517025
174	0x3e1df4ee	0.15425465
175	0x3bf63c5f	0.007514521
176	0x3e0bb699	0.13643874
177	0x3cc01fab	0.0234526
178	0x3d8b4567	0.06800347
179	0x3e359d8e	0.17735884
180	0x3e137869	0.14401402
181	0x3da3f888	0.08006388
182	0xbdf5ee38	-0.12008327
183	0x3e0a87b0	0.13528323
184	0xbe29b87d	-0.16574283
185	0x3d1bb224	0.038011685
186	0x3c5a4060	0.013321012
187	0x3d9f3efc	0.07775685
188	0xbd5032ad	-0.05082958
189	0x3b9b2618	0.0047347657
190	0xbdb09e36	-0.08623926
191	0xbd7e59c5	-0.06209733
192	0x3d524651	0.05133659
193	0x3dfba558	0.12287396
194	0x3dd1413d	0.10217521
195	0x3d05c122	0.03265489
196	0x3de8635f	0.113470785
197	0xbda3f372	-0.08005418
198	0xbda1eefe	-0.07906912
199	0x3ddb7c92	0.10717119
200	0xbd403b2c	-0.04693143
201	0xbb92f874	-0.0044851843
202	0x3da65df0	0.08123386
203	0x3d017d8a	0.031613864
204	0x3e4aaa41	0.19791509
205	0xbd107ff8	-0.03527829
206	0xbe034858	-0.12820566
207	0x3e1c62f7	0.15272127
208	0xbd973a27	-0.073841386
209	0xbd7176c2	-0.058951147
210	0xbdd0d107	-0.10196119
211	0xbdba9045	-0.091095485
212	0xbd5770c3	-0.052597772
213	0x3d9aa132	0.07550277
214	0xbd7c5244	-0.061601892
215	0xbbbfabc9	-0.005849336
216	0xbd62d664	-0.05538024
217	0xbe15885d	-0.146028
218	0x3dd7dbea	0.10539992
219	0x3d714c01	0.058910374
220	0x3d54e982	0.051980503
221	0x3de55ea5	0.11199693
222	0x3d7167b8	0.058936805
223	0x3c6c3e86	0.014419204
224	0xbda08ad2	-0.07838978
225	0xbc485d5a	-0.012229288
226	0xbc383f46	-0.011245554
227	0x3dfc02dc	0.12305233
228	0xbdb3cb11	-0.08778966
229	0x3ceae4b2	0.028673504
230	0xbc8bfb1b	-0.01708751
231	0xbbe0936e	-0.0068535125
232	0x3e2d2bcb	0.16911237
233	0x3d66a097	0.056305494
234	0xbd874d43	-0.066065334
235	0x3cea55eb	0.028605422
236	0xbdcb66c3	-0.099317096
237	0x3e1b8ff1	0.15191628
238	0xbc2da4f3	-0.010598409
239	0xbdd9ed0b	-0.106409155
240	0x3d87d6ca	0.06632765
241	0x3b035940	0.002004221
242	0x3d7902a4	0.060793534
243	0x3b8a13af	0.0042137722
244	0xbd84cc0e	-0.06484233
245	0x3d0635de	0.032766216
246	0x3ca03b21	0.019559445
247	0x3cd3408a	0.02578761
248	0xbc8fe05d	-0.01756304
249	0xbb46e693	-0.0030349835
250	0x3dd24464	0.10266951
251	0xbe324414	-0.17408782
252	0xbd74a363	-0.05972613
253	0x3d9b362e	0.07578693
254	0xbdd23e01	-0.102657326
255	0x3d7e10f8	0.0620279

lstm.weight_hh_l0 f4 [256, 64]
0	0x3c502d01	0.012706042
1	0xbd94489d	-0.072404124
2	0xbcab3c63	-0.020902818
3	0x3cc8d9b7	0.024517877
4	0xbd0aca6d	-0.033884455
5	0xbd77c13d	-0.06048702
6	0xbdbdc061	-0.09265209
7	0x3d7aa570	0.06119293
8	0x3bd27b98	0.006423425
9	0xbd4ac964	-0.049508467
10	0x3e1a80c1	0.15088178
11	0xbd6b5521	-0.057454232
12	0xbc91fce6	-0.017820787
13	0x3d60bb4b	0.054866116
14	0x3c79af05	0.015239482
15	0xbd73c356	-0.05951246
16	0xbbc110be	-0.0058918884
17	0xbd67cad6	-0.056589924
18	0xbd66bad8	-0.05633053
19	0x3e03a9dc	0.12857765
20	0x3d2a2bdb	0.04154573
21	0xbe1b61cb	-0.15174024
22	0x3db3f522	0.0878699
23	0xbda6a22f	-0.08136403
24	0x3d6b7679	0.05748603
25	0xbd635632	-0.055502124
26	0x3c52fcc6	0.012877649
27	0x3e0abb83	0.13548093
28	0xbde88605	-0.11353687
29	0xbc14c553	-0.009080249
30	0xbdfeace2	-0.124353185
31	0xbe035f12	-0.12829235
32	0xbdde319b	-0.10849305
33	0x3e382ba5	0.17985399
34	0xbe1cb3c3	-0.15302949
35	0xbd4a3f7f	-0.04937696
36	0x3d8155f5	0.06315223
37	0xbbcfbee8	-0.0063398965
38	0xbd490b8e	-0.049083285
39	0x3d5e0560	0.054204345
40	0x3d5d320b	0.054002803
41	0x3d0dc6e0	0.03461349
42	0x3d0a0753	0.03369839
43	0x3e148f01	0.14507677
44	0xbd8ab996	-0.06773679
45	0x3d94f340	0.07272959
46	0xbdcf8152	-0.10132088
47	0xbcd1bbe6	-0.025602292
48	0xbd4ce78e	-0.050025515
49	0x3cfb8bde	0.030706342
50	0xbd34c040	-0.044128656
51	0xbdc9d841	-0.098557
52	0x3dba1a6e	0.09087072
53	0xbd9a761b	-0.07542058
54	0x3d4dfb58	0.05028853
55	0xbd0a3b2a	-0.03374783
56	0xbdc4d338	-0.09610599
57	0x3dd784cf	0.10523378
58	0x3ddf2681	0.10896016
59	0xbd1737bf	-0.036918398
60	0x3e3285f1	0.17433907
61	0xbd26cb66	-0.04072132
62	0x3c9eaec6	0.019370448
63	0x3ca310d3	0.019905483
64	0xbd0a8bb5	-0.03382464
65	0xbcdb1bf4	-0.026746728
66	0x3e137da6	0.144034
67	0xbd1367d3	-0.035987686
68	0xbdee8b4b	-0.11647662
69	0xbd759bf6	-0.05996319
70	0xbd88ce48	-0.0667997
71	0x3e270ff7	0.16314684
72	0xbc17de37	-0.009269289
73	0x3d8819ea	0.06645568
74	0x3e026ab5	0.12736018
75	0x3c80e549	0.015734332
76	0xbe222c52	-0.1583722
77	0x3dc401cb	0.095706545
78	0xbd49d356	-0.04927381
79	0xbdd9a7a4	-0.10627678
80	0x3da1545e	0.0787742
81	0x3c055f34	0.008140374
82	0xbcfab5df	-0.030604301
83	0xbd5d70b0	-0.054062545
84	0x3d806fed	0.06271348
85	0xbde049ee	-0.10951601
86	0xbd95ed86	-0.073206946
87	0xbd093bf4	-0.03350444
88	0x3e032b04	0.12809378
89	0xbd547b40	-0.051875353
90	0x3cebf379	0.02880262
91	0x3d56b87a	0.052422024
92	0xbd3e20a5	-0.04641785
93	0x3d668d22	0.05628694
94	0xbcdd73e8	-0.027032807
95	0xbd2c8886	-0.042122386
96	0x3e13a72f	0.14419244
97	0x3dc0a967	0.09407311
98	0x3dc0ee12	0.09420408
99	0xbd57670f	-0.05258852
100	0x3d296174	0.041352704
101	0x3d5abe54	0.053404167
102	0x3dce7f36	0.10082857
103	0x3e02033c	0.12696546
104	0xbda66229	-0.08124191
105	0xbd730158	-0.059327453
106	0xbc73efc5	-0.0148887085
107	0x3c916ac3	0.017751103
108	0x3d9f5d0e	0.07781421
109	0x3ca4eb37	0.02013169
110	0xbe0d11ef	-0.13776372
111	0xba02d2cd	-0.0004990518
112	0xbce7613a	-0.028244603
113	0x3ddce09e	0.1078503
114	0xbc7b3196	-0.015331646
115	0x3ba3cbc0	0.004998654
116	0x3e259e29	0.16173615
117	0x3d4b84b2	0.049687095
118	0xbcb022d1	-0.021500977
119	0x3c76c4df	0.015061586
120	0x3e20f272	0.15717486
121	0xba933f72	-0.0011234118
122	0xbda0acf7	-0.078454904
123	0x3d3b72f7	0.045763936
124	0x3df5602e	0.119812354
125	0x3c87aefe	0.016562935
126	0x3e18491b	0.14871638
127	0x3db5b3c7	0.088721804
128	0xba9275e4	-0.001117405
129	0x3d8c1c10	0.0684129
130	0xbba3ceca	-0.0049990164
131	0xbe29beb0	-0.16576648
132	0xbc04d64f	-0.008107736
133	0x3c7ded83	0.015498522
134	0x3e2b0ad0	0.16703343
135	0x3e7544e9	0.23952068
136	0x3e1695a6	0.14705524
137	0x3d887ace	0.06664048
138	0x3e1a1cb0	0.15050006
139	0x3e48c8df	0.19607876
140	0xbceaeb83	-0.028676754
141	0x3db7a33a	0.0896668
142	0xbda5eff4	-0.08102408
143	0xbafcef59	-0.0019297405
144	0xbd048e98	-0.03236255
145	0x3de35ea0	0.11102033
146	0x3c6ba213	0.014381903
147	0xbe66d9ec	-0.22544068
148	0x3e5b1000	0.21392822
149	0xbc99e3cf	-0.018785385
150	0xbd17672c	-0.036963627
151	0xbda0cf34	-0.07852021
152	0xbe24fb45	-0.16111477
153	0x3d99995e	0.074999556
154	0xbd5a97ad	-0.053367306
155	0xbc0e2246	-0.008675164
156	0x3da460c0	0.08026266
157	0xbda030e0	-0.07821822
158	0xbd862883	-0.06550696
159	0xbc92afa2	-0.017906014
160	0x3db995b6	0.09061758
161	0x3d846e04	0.06466296
162	0x3e14389f	0.14474724
163	0xbe150037	-0.14550863
164	0xbd070a7b	-0.03296898
165	0x3d3b068b	0.045660537
166	0x3e2b2b88	0.16715825
167	0x3bb79e2b	0.005603572
168	0xbdc61746	-0.09672408
169	0xbd885b1a	-0.06658001
170	0xbe2ce743	-0.16885094
171	0x3cb2b990	0.021816999
172	0x3e2a8556	0.16652426
173	0x3cb8d000	0.02256012
174	0xbde5b5b0	-0.11216295
175	0xbd02414d	-0.031800557
176	0xbe1aab89	-0.15104498
177	0x3ddc4e29	0.10757095
178	0x3e017a87	0.12644397
179	0xbe2c53ee	-0.16828892
180	0x3e0a7f71	0.13525178
181	0xbde9e7c5	-0.1142116
182	0x3cda6b12	0.026662383
183	0x3dd13179	0.10214514
184	0xbd8fb37b	-0.07016655
185	0xbb924c6c	-0.0044646766
186	0x3d80b55d	0.06284592
187	0xbe18fdce	-0.14940569
188	0x3da8b05b	0.08236762
189	0xbc6fd3e0	-0.014637917
190	0xbcde5aa1	-0.027142825
191	0xbe300990	-0.17191148
192	0xbd07fd6e	-0.033200674
193	0x3bab55e1	0.0052287434
194	0x3d808ca6	0.062768266
195	0xbca3130e	-0.019906547
196	0x3b4e1aa8	0.0031448994
197	0xbdca978b	-0.09892186
198	0x3e256822	0.16153005
199	0x3e51dccc	0.20494384
200	0x3dbaccd7	0.09121101
201	0xbd936f2e	-0.0719894
202	0xbbf1962d	-0.0073726387
203	0x3e05eb8a	0.13078132
204	0x3b7376d9	0.0037149696
205	0x3ce2a8e7	0.02766843
206	0x3c7bf41a	0.015378023
207	0x3d18e61d	0.037328828
208	0xbc40072a	-0.011720458
209	0x3d4c631d	0.04989921
210	0xbd40a2f8	-0.04703042
211	0xbe9b81ff	-0.30372617
212	0x3d853c69	0.06505663
213	0xbdeed518	-0.11661738
214	0x3c26d3ec	0.010182362
215	0xbcefb92f	-0.029263107
216	0xbbf074d7	-0.007338147
217	0x3d1c45ee	0.038152628
218	0xbca5a9a3	-0.02022249
219	0x3e420c92	0.18950108
220	0xbdc1451a	-0.09437008
221	0x3d5e9258	0.054338783
222	0xbdc4ae81	-0.096035965
223	0xbcaa9d93	-0.02082709
224	0x3d208e55	0.03919824
225	0x3e5309f3	0.20609264
226	0xbdd8653d	-0.10566185
227	0xbdcfab1e	-0.1014006
228	0x3dc4921b	0.0959818
229	0xbdc39ff0	-0.0955199
230	0xbb930f3a	-0.004487899
231	0x3de66cac	0.11251196
232	0x3d541fdf	0.051788207
233	0xbd8adc19	-0.067802615
234	0xbdbd5623	-0.09244945
235	0x3ded6774	0.11591998
236	0xbcd5d9ca	-0.026104826
237	0xbd8b12b5	-0.067906775
238	0xbbb88ffd	-0.005632399
239	0xbd4bd82e	-0.049766712
240	0x3d0f2c8c	0.034954593
241	0x3e45a1f4	0.19300061
242	0x3e172d39	0.14763345
243	0xbe1e6679	-0.15468778
244	0xbde0c632	-0.10975303
245	0xbd1464c9	-0.03622893
246	0xbdd02c34	-0.10164681
247	0xbdd45175	-0.10367099
248	0x3d9bdc57	0.07610386
249	0x3dc411bc	0.09573695
250	0x3dd90611	0.1059686
251	0xbcca7c41	-0.024717452
252	0xbd289370	-0.041156232
253	0xbe0b9fcf	-0.13635181
254	0x3b8deeb4	0.004331434
255	0x3d8cbbc4	0.06871751

lstm.bias_ih_l0 f4 [256]
0	0xbc2bae1e	-0.0104785245
1	0x3d41fa7b	0.047358017
2	0x3deff6f6	0.11717026
3	0xbccacc52	-0.02475563
4	0x3cdead0d	0.027182126
5	0xba0b113f	-0.0005304999
6	0x3cce0b6f	0.025151936
7	0x3d6d8455	0.05798753
8	0x3dc2b072	0.095063105
9	0xbd14c8bc	-0.036324248
10	0x3e1dc94a	0.15408817
11	0x3e4320bf	0.1905546
12	0xbc6e4ca6	-0.014544642
13	0xbdac9484	-0.084267646
14	0x3eb4a3d6	0.35281247
15	0x3cf5e167	0.030014707
16	0x3e39b9d8	0.181373
17	0x3e5db48a	0.21650901
18	0xbcf66da1	-0.030081572
19	0x3dbb7351	0.09152854
20	0xbc9cbe64	-0.019133754
21	0x3d0837e2	0.03325642
22	0x3e6252c3	0.22101884
23	0x3e32878c	0.1743452
24	0x3d929b53	0.07158532
25	0x3da8ad66	0.08236198
26	0xbd044b29	-0.03229824
27	0x3e96caf4	0.29451716
28	0x3dc03317	0.093847446
29	0x3d720acc	0.059092328
30	0xbda000bd	-0.07812641
31	0x3d090fc1	0.03346229
32	0x3c19a712	0.009378212
33	0xbdf85741	-0.12126017
34	0x3da7162e	0.08158527
35	0xbd23fe98	-0.04003772
36	0x3d42ca59	0.047556255
37	0xbdf16b54	-0.11788049
38	0x3d5773d4	0.052600697
39	0xbddf5714	-0.10905281
40	0x3e6ed892	0.23324803
41	0x3e2a871a	0.166531
42	0x3e166feb	0.14691131
43	0x3e0b431b	0.13599817
44	0xbd8e2f12	-0.06942572
45	0x3cc427b1	0.023944708
46	0xbd9f5530	-0.0777992
47	0x3e1ae7e8	0.15127528
48	0xbd92bc2c	-0.07164797
49	0x3e5d0303	0.2158318
50	0xbdcbc7d1	-0.09950221
51	0x3e58d86f	0.21176313
52	0x3d3eeca0	0.046612382
53	0x3b8d76be	0.0043171337
54	0x3cb9c16f	0.022675244
55	0xbe0dac30	-0.13835216
56	0x3d8975aa	0.06711896
57	0x3e35a686	0.17739305
58	0x3e59385c	0.21212906
59	0x3e4c5ce6	0.19957313
60	0x3dc0d6c0	0.0941596
61	0x3cb7202e	0.022354212
62	0x3e7de413	0.24794035
63	0x3db35735	0.08756868
64	0xbc701ab5	-0.014654805
65	0x3d63a358	0.0555757
66	0x3d658199	0.056031797
67	0xbdbb65c5	-0.091502704
68	0xbd3ac663	-0.045599353
69	0xbc5ae072	-0.013359176
70	0xbc198950	-0.009371117
71	0x3d0fdaf6	0.035120927
72	0xbd73cc32	-0.059520908
73	0x3d6a9073	0.057266664
74	0xbd9e9caf	-0.07744729
75	0xbe0ef6d2	-0.13961342
76	0xbdc85060	-0.09780955
77	0x3d7ae68e	0.06125503
78	0x3d86e860	0.06587291
79	0x3d4533b7	0.048145022
80	0xbd95570c	-0.072919935
81	0xbbefa1f2	-0.0073130066
82	0xbcf7f860	-0.030269802
83	0xbc6661da	-0.014061416
84	0x3dd21d85	0.10259537
85	0x3b0e1102	0.0021677618
86	0x3d50fbb9	0.05102131
87	0xbc794c8a	-0.015216002
88	0xbd9de409	-0.0770951
89	0xbd84119f	-0.064486735
90	0x3d5bddff	0.05367851
91	0xbd9a42ce	-0.07532273
92	0x3d0f79ea	0.035028376
93	0xbdf9ce70	-0.12197578
94	0xbda8537c	-0.082190484
95	0x3d168ba0	0.03675425
96	0x3df1c237	0.11804622
97	0xbdfcd735	-0.12345735
98	0xbcdbd285	-0.026833782
99	0x3b1ea311	0.0024206082
100	0x3db957a5	0.0904992
101	0x3d5187bf	0.05115485
102	0x3ccb15e5	0.024790714
103	0xbda8b829	-0.08238251
104	0x3ce6fb87	0.02819611
105	0x3d3fc79f	0.046821233
106	0xbde2dae0	-0.11076903
107	0x3e05c888	0.13064778
108	0xbd2f8146	-0.042847894
109	0xbcef8152	-0.02923647
110	0xbdf28d75	-0.11843387
111	0xbe0d8ae6	-0.13822517
112	0xbd8ca314	-0.06867042
113	0x3df3eaf2	0.11910047
114	0x3d5000b3	0.050781917
115	0x3b692568	0.0035575274
116	0x3d045f5b	0.0323175
117	0xbde54ab2	-0.111958876
118	0xbd752328	-0.05984798
119	0x3d45e4a1	0.04831374
120	0x3dacdac3	0.08440163
121	0x3da905fc	0.082530946
122	0x3da3b60e	0.079937086
123	0xbdace864	-0.084427625
124	0xbd4afa85	-0.04955532
125	0x3e260bd4	0.1621545
126	0x3bb07c20	0.0053858906
127	0x3adceae0	0.0016854666
128	0xbd7cc5e9	-0.06171218
129	0x3c39eac6	0.011347478
130	0xbd42db98	-0.047572702
131	0xbc385c00	-0.011252403
132	0x3d9c6475	0.07636348
133	0xbd9a2812	-0.07527174
134	0xbde7c57f	-0.11316966
135	0x3d7c75e4	0.061635867
136	0x3ce6bd10	0.028166324
137	0x3c4d60ea	0.012535313
138	0x3e0eb767	0.1393715
139	0x3d6d6eef	0.057967123
140	0x3da7509c	0.08169672
141	0xbda91550	-0.08256018
142	0x3dc19021	0.094513185
143	0x3d93a6bb	0.07209536
144	0x3d341cb6	0.043972693
145	0x3da99254	0.08279863
146	0xbd544498	-0.05182323
147	0xbdd23831	-0.10264624
148	0xbd9e9335	-0.07742921
149	0x3b7acbf2	0.0038268534
150	0x3e191ac3	0.14951615
151	0xbdc2e109	-0.09515578
152	0x3d0d37b0	0.034476936
153	0x3d55f065	0.05223121
154	0x3d2d59c5	0.04232194
155	0x3d9f614e	0.07782231
156	0xbd0d003c	-0.03442405
157	0x3adc0816	0.0016787078
158	0x3d9b2c35	0.07576791
159	0x3d6b2b95	0.05741461
160	0xbce8e07b	-0.028427353
161	0x3df71297	0.120640926
162	0x3cb2ebff	0.021841047
163	0x3d096734	0.033545688
164	0xbdc7e6f4	-0.09760848
165	0x3c812a2f	0.015767185
166	0x3d01c146	0.03167846
167	0x3d59aa3c	0.053140864
168	0x3d85af1d	0.06527541
169	0x3d46498c	0.048409984
170	0xbd71739e	-0.05894815
171	0x3ca428c4	0.02003897
172	0x3cc351e6	0.023842763
173	0x3d8a27be	0.067458615
174	0xbc20ee5c	-0.009822454
175	0xbdb289c4	-0.08717683
176	0x3d22b5c6	0.039724134
177	0x3dea7ada	0.11449213
178	0x3e0f74e1	0.1400943
179	0xbd0ef5a8	-0.034902245
180	0xbb11f210	-0.0022269525
181	0xbd41d366	-0.047320746
182	0x3dd93a04	0.10606769
183	0x3d7d3e7d	0.06182717
184	0xbdcb2ec2	-0.09921028
185	0xba8476a5	-0.001010616
186	0x3df532ac	0.119725555
187	0xbd17fa98	-0.03710422
188	0x3df6ac7e	0.12044619
189	0x3d60b8d9	0.054863784
190	0x3dd1d68e	0.10246001
191	0x3c9d25a4	0.019182988
192	0x3e1abd1d	0.15111203
193	0x3e4c36c7	0.19942771
194	0xbd676d30	-0.056500614
195	0xbd0d35f6	-0.03447529
196	0xbd68fb30	-0.056880176
197	0x3d124fe4	0.03572072
198	0x3dc9315a	0.09823866
199	0x3c70ddbf	0.014701306
200	0xbd4530f2	-0.04814238
201	0x3d55a670	0.05216068
202	0x3dba0db9	0.09084649
203	0x3dd7a582	0.10529615
204	0xbd9e557a	-0.07731147
205	0x3d10adc9	0.035321984
206	0x3eb5f4db	0.35538372
207	0x3d8af629	0.067852326
208	0x3e33b61b	0.17549936
209	0x3e07d23d	0.13263793
210	0x3e14691a	0.14493218
211	0x3e097536	0.13423619
212	0x3e1c465a	0.15261212
213	0xbdf47a06	-0.119373366
214	0x3db0583a	0.08610578
215	0x3e16f573	0.14742069
216	0x3d1a124f	0.037615117
217	0x3d3bca94	0.04584749
218	0x3d81668f	0.063183896
219	0x3e862890	0.26202822
220	0x3da1b870	0.07896507
221	0xbd726eaa	-0.05918757
222	0x3c5832aa	0.013195673
223	0xbddc6aa7	-0.1076253
224	0x3d368405	0.044559497
225	0x3cfd0c60	0.03088969
226	0xbc8edb26	-0.017438482
227	0xbd7a43ac	-0.061099693
228	0xbe143e8a	-0.14476982
229	0x39e607a2	0.00043874705
230	0x3d5e9f98	0.05435142
231	0xbd6b297e	-0.057412617
232	0x3e3a7f95	0.18212731
233	0x3e86eb8a	0.26351577
234	0x3c916e94	0.017752923
235	0x3d6fd5e5	0.058553595
236	0x3dc191a9	0.094516106
237	0x3de8f1f6	0.113742754
238	0x3d8d3a1c	0.06895849
239	0x3e1e5df9	0.15465535
240	0x3dbc351b	0.091898166
241	0x3d977877	0.07396024
242	0xbdb630ab	-0.088960014
243	0x3e86fdcc	0.26365507
244	0x3dfcbbcf	0.12340509
245	0x3d1d2cb5	0.038372714
246	0xbc55244c	-0.013009142
247	0xbbb05645	-0.005381378
248	0x3e5dfba2	0.21678022
249	0x3e3ead48	0.18620789
250	0x3d232c16	0.039836966
251	0x3d1b9157	0.037980404
252	0xbc4f5f8a	-0.012657056
253	0x3e0075bb	0.1254491
254	0x3e09a5dc	0.13442177
255	0x3d78294f	0.06058627

lstm.bias_hh_l0 f4 [256]
0	0x3df5d951	0.120043404
1	0x3e27faae	0.1640422
2	0x3de3b8a5	0.111192025
3	0xbd820b47	-0.06349807
4	0xbd943d69	-0.072382756
5	0x3caa81cd	0.020813847
6	0xbbc97f7f	-0.006149232
7	0xbcc6ab86	-0.02425171
8	0x3d201ef1	0.039092008
9	0x3cbc6775	0.02299855
10	0xbc06948f	-0.00821413
11	0xbc86ac0a	-0.016439456
12	0xbc038432	-0.008027123
13	0x3db9327a	0.09042831
14	0x3e9e5c48	0.3092978
15	0x3bfadbb9	0.0076555875
16	0x3d65c878	0.056099385
17	0x3ddad969	0.10685999
18	0x3d73c7b5	0.059516627
19	0x3e9454f9	0.2897108
20	0xbd0382d0	-0.032107174
21	0xbde463c5	-0.11151842
22	0x3e0e7ec5	0.13915546
23	0x3cac4fcc	0.021034144
24	0x3c00c282	0.007858874
25	0x3e190d98	0.14946592
26	0x3da152e7	0.078771405
27	0x3e1e902b	0.15484683
28	0x3d76144d	0.060077954
29	0x3db75e26	0.08953504
30	0xbd05f888	-0.03270772
31	0xbdae39af	-0.08507096
32	0x3dae636f	0.08515059
33	0x3d77bfef	0.060485777
34	0x3df33805	0.11875919
35	0x3d5f8f53	0.054580044
36	0x3dbbf0c3	0.09176781
37	0xbde6a5c4	-0.11262086
38	0xbd9d90b1	-0.07693613
39	0x3b28d8ac	0.0025763912
40	0x3e299568	0.165609
41	0x3df05a42	0.11735965
42	0x3e007bbe	0.12547204
43	0x3e0a1c04	0.1348725
44	0xbd366069	-0.044525538
45	0x3df92c2b	0.121666275
46	0xbc576597	-0.0131467795
47	0x3dcea186	0.10089402
48	0x3dce3a67	0.10069733
49	0x3dfff1fa	0.12497325
50	0xbd0da37e	-0.034579746
51	0x3d98b832	0.074570075
52	0x3dd822b2	0.105534926
53	0x3de6bb87	0.11266237
54	0xbc843503	-0.01613856
55	0x3dbaeb41	0.09126902
56	0x3df94989	0.12172229
57	0x3e540734	0.20705873
58	0x3e397d5e	0.1811423
59	0x3e2a17dd	0.16610666
60	0x3e1f90c3	0.15582566
61	0x3cf7e1e1	0.030259075
62	0x3eaef96d	0.34174672
63	0x3bef1224	0.0072958637
64	0xbd311925	-0.04323687
65	0x3d1f8c51	0.038952176
66	0x3ce39b4b	0.02778401
67	0xbdf57670	-0.11985481
68	0x3ccce881	0.02501321
69	0x3df2af2c	0.11849818
70	0xbdc314dd	-0.09525464
71	0xbd09a9af	-0.03360909
72	0x3dd5a98d	0.1043273
73	0x3d9a1082	0.0752268
74	0xbd5c8255	-0.05383523
75	0x3d4482aa	0.047976173
76	0xbde4f4d1	-0.111795075
77	0xbcefefa3	-0.029289072
78	0xbc194519	-0.009354853
79	0x3d51a648	0.05118397
80	0xbd8e1e75	-0.06939403
81	0x3d3b27ac	0.04569213
82	0xbde80923	-0.11329868
83	0xbd8adad6	-0.06780021
84	0x3dbd0e7c	0.09231278
85	0xbe008c7c	-0.1255359
86	0xbe02529b	-0.12726824
87	0xbdd15555	-0.10221354
88	0xbdab2d61	-0.08358265
89	0x3d94c183	0.07263472
90	0xbe1101e0	-0.14160872
91	0xbe0b85a0	-0.13625193
92	0x3cb84481	0.022493603
93	0xbd4f32f8	-0.050585717
94	0x3d6b0508	0.057377845
95	0xbaf751bc	-0.0018868963
96	0x3d8892b0	0.066686034
97	0x3dc7e42b	0.097603165
98	0xbded3613	-0.115825795
99	0x3b835564	0.004007982
100	0x3c54cd77	0.01298844
101	0x3daacc18	0.08339709
102	0xbc8f879e	-0.017520722
103	0xbde4d93b	-0.11174246
104	0x3d9ecb71	0.07753647
105	0x3de29a08	0.110645354
106	0x3d3e624f	0.046480473
107	0xb9d61085	-0.0004082957
108	0xbc6c095a	-0.014406526
109	0xbc85ff87	-0.016357196
110	0x3d2b2c3b	0.04179023
111	0xbddb9b23	-0.10722949
112	0x3b3b5329	0.0028583503
113	0x3d3be28f	0.04587036
114	0x3d4457e4	0.04793538
115	0xbdd68eae	-0.10476433
116	0x3e2485c9	0.1606666
117	0xbda88142	-0.08227779
118	0x3dbd5707	0.09245115
119	0xbd6c7858	-0.057731956
120	0xbdd6570e	-0.10465823
121	0x3d4312f6	0.047625504
122	0x3b3e8764	0.0029072398
123	0x3cc73576	0.024317484
124	0xbdfaf1c3	-0.12253144
125	0x3e11b990	0.14230943
126	0xbd39bea8	-0.04534784
127	0x3b92828b	0.0044711283
128	0x3c4fc340	0.012680829
129	0xbc5c911e	-0.013462333
130	0xbc5fb2c0	-0.013653457
131	0xbd0078ab	-0.031365078
132	0x3e019872	0.1265581
133	0x3dadc24b	0.08484324
134	0x3d886481	0.066597946
135	0x3de3ef90	0.11129677
136	0xbcdced2c	-0.026968561
137	0x3c47bef5	0.012191524
138	0x3dd90bbe	0.10597943
139	0x3d64bff0	0.05584711
140	0xbc8cd713	-0.0171924
141	0x3de616c4	0.11234811
142	0x3d37ea4f	0.04490119
143	0xbcffa763	-0.031207746
144	0xbc8c888d	-0.017154956
145	0x3d0437ce	0.032279782
146	0x3cd54291	0.026032718
147	0xbdaf3245	-0.0855451
148	0xbcf18d84	-0.029486425
149	0x3bb0148c	0.005373543
150	0xbd95c8c6	-0.07313685
151	0x3dbd56fc	0.092451066
152	0x3d62cd15	0.055371363
153	0xbdaeed9c	-0.08541414
154	0xbd3073ea	-0.043079294
155	0x3d95942e	0.07303654
156	0xbd0c7100	-0.034287453
157	0xbc85d426	-0.016336512
158	0xbd60a42a	-0.05484406
159	0xbdd58512	-0.10425772
160	0x3c3b49de	0.0114311855
161	0x3d136484	0.03598453
162	0x3cc0df49	0.02354397
163	0x3daaddb9	0.083430715
164	0xbd0b4329	-0.033999596
165	0xbe563ec1	-0.20922376
166	0x3cece64f	0.028918413
167	0x3e1a7115	0.150822
168	0x3c97086d	0.018436635
169	0x3db3b514	0.08774772
170	0x3cf4c95e	0.029881176
171	0xbd9e54f1	-0.07731045
172	0x3d09e1e8	0.033662707
173	0x3b1257f6	0.002233026
174	0xba5950a4	-0.00082899095
175	0x3cd354e5	0.025797317
176	0x3de144b3	0.109994315
177	0x3c14eeb9	0.009090119
178	0xbc2a2d44	-0.010386769
179	0xbd41b19d	-0.047288526
180	0xbaa399ed	-0.0012481787
181	0x3df06074	0.11737147
182	0x3dc43442	0.0958028
183	0xbdc53523	-0.09629276
184	0x3cc8ad4d	0.024496699
185	0x3e2a919b	0.16657107
186	0xbd96e87c	-0.073685616
187	0xbd8e3c0f	-0.06945049
188	0x3dd6cdd4	0.10488477
189	0xbd965925	-0.07341222
190	0xbd03df60	-0.03219545
191	0x3d323e20	0.04351628
192	0x3ca2e34d	0.019883776
193	0x3dbfd89f	0.09367489
194	0xbb90651e	-0.0044065854
195	0xbcbb441c	-0.022859626
196	0x3caba39b	0.020952037
197	0x3e0e9dca	0.13927379
198	0xbd30136c	-0.042987272
199	0xbbb169a3	-0.005414204
200	0xbde52e41	-0.11190463
201	0xbc92d5ec	-0.017924272
202	0x3d44659d	0.04794847
203	0xbbf26e39	-0.0073983935
204	0xbdf379be	-0.11888455
205	0x3e0494ba	0.1294736
206	0x3e2e0748	0.16994965
207	0xbdbd6b75	-0.092490114
208	0x3ce15733	0.0275074
209	0x3c39100a	0.011295328
210	0x3d4e3172	0.050340123
211	0x3dd4491e	0.103655085
212	0x3e199c02	0.15000919
213	0xbd0aef17	-0.03391942
214	0x3e45c008	0.19311535
215	0xbce928c0	-0.028461814
216	0x3e068597	0.13136898
217	0x3e078c53	0.13237123
218	0x3d2c5ce7	0.042080786
219	0x3e3de467	0.1854416
220	0x3ddbf1af	0.10739457
221	0xbd7fe630	-0.062475383
222	0xbc397df9	-0.011321538
223	0xbdaa384e	-0.083115205
224	0xbdcf2ba6	-0.10115747
225	0xbe268208	-0.1626054
226	0x3c2d120a	0.010563383
227	0xbd7f6e41	-0.062361006
228	0x3d91a5a1	0.07111669
229	0xbd458566	-0.04822292
230	0xbd76ae14	-0.060224608
231	0xbe244731	-0.16042782
232	0x3e066ca1	0.13127376
233	0x3e07b3f2	0.13252237
234	0x3d7987cb	0.060920518
235	0x3df4cb4c	0.11952838
236	0x3d42fc37	0.047603812
237	0x3e732421	0.23744251
238	0xbdfd6a4f	-0.123737924
239	0xbca464c0	-0.020067573
240	0xbd888eda	-0.06667872
241	0x3b0c385a	0.0021395893
242	0x3c4496a7	0.011998809
243	0x3df9a445	0.12189535
244	0x3cb86a69	0.022511678
245	0x3dd7b397	0.10532301
246	0xbc00bb92	-0.00785722
247	0x3d95fe03	0.073238395
248	0x3e47e38b	0.19520395
249	0x3d25cbc6	0.040477537
250	0x3e0786b9	0.13234986
251	0x3e11610c	0.14197177
252	0xbd87ec6b	-0.0663689
253	0xbd76c8cd	-0.060250092
254	0x3e8f3919	0.2797325
255	0xbd83d3a7	-0.06436854

lstm.weight_ih_l1 f4 [256, 64]
0	0xbdd96f42	-0.10616924
1	0xbd98cfa1	-0.07461477
2	0xbd2aff29	-0.041747246
3	0xbca4db38	-0.020124063
4	0x3c60fc44	0.01373202
5	0xbd975b08	-0.0739041
6	0x3db247c5	0.08705095
7	0x3e1ff005	0.15618904
8	0xbdd7884a	-0.10524042
9	0xbd611bb4	-0.05495806
10	0x3d2ba8e9	0.041909132
11	0x3c356e64	0.011073682
12	0x3cea5fe7	0.028610183
13	0xbe00e001	-0.1258545
14	0xbdea9b69	-0.114554234
15	0x3ddd2d03	0.10799601
16	0xbd940ea1	-0.07229353
17	0x3e246ae3	0.16056399
18	0x3dacc669	0.08436281
19	0xbdf52335	-0.11969606
20	0xbd0733e0	-0.033008456
21	0x3d2975ad	0.04137199
22	0xbe0174f4	-0.1264227
23	0xbe2402bc	-0.16016668
24	0xbdea3d33	-0.11437454
25	0xbccf8fc3	-0.025337106
26	0xbd6fe41a	-0.058567144
27	0x3e09a5fb	0.13442223
28	0xbda8d907	-0.0824452
29	0xbc2464f0	-0.010033831
30	0x3d598912	0.053109236
31	0x3c9d176a	0.019176204
32	0x3e21c48a	0.1579763
33	0x3e3950d4	0.1809724
34	0x3d5a8049	0.053345
35	0x3d685a6c	0.056726858
36	0x3dabf1d0	0.083957314
37	0x3df67f55	0.120360054
38	0xbd5f3d68	-0.05450192
39	0x3d9c9973	0.076464556
40	0x3d854618	0.0650751
41	0xbd8a6769	-0.06758005
42	0xbe54ec66	-0.20793304
43	0x3d86d78a	0.065840796
44	0x3e2c1785	0.16805847
45	0xbb9523f1	-0.0045514037
46	0xbd0ddb1c	-0.034632787
47	0xbdde5f4e	-0.10858022
48	0xbb53c095	-0.0032310833
49	0x3dacc086	0.084351584
50	0x3dcc8111	0.09985555
51	0xbdfa6baf	-0.1222757
52	0xbd8e866c	-0.06959233
53	0xbd0b84ee	-0.03406232
54	0x3da6e4bc	0.08149096
55	0x3dc65ccf	0.096856706
56	0x3db49173	0.08816805
57	0x3d07dbc8	0.033168584
58	0x3e096adc	0.1341967
59	0xbd98dbd9	-0.074638076
60	0xbc8b2682	-0.016986135
61	0x3dfb350c	0.12265977
62	0x3dbf74e4	0.09348467
63	0x3da6aba8	0.081382096
64	0xbc89ca3c	-0.016820066
65	0xbced4904	-0.02896548
66	0x3e080175	0.13281806
67	0x3c4895e0	0.012242764
68	0xbd788b91	-0.060679976
69	0x3bef99b0	0.007312022
70	0x3d5055aa	0.050862946
71	0x3d79a165	0.060944933
72	0xbd69f275	-0.05711599
73	0x3d51f724	0.051261082
74	0x3e04f06e	0.12982342
75	0x3d272999	0.040811155
76	0xbd99aabf	-0.0750327
77	0xbd8fb66b	-0.07017215
78	0xbcf56a63	-0.029957956
79	0x3c9d2eae	0.019187298
80	0xbd51706d	-0.05113261
81	0x3e02cb9e	0.12772986
82	0x3de8b390	0.11362374
83	0xbe0b7a11	-0.13620783
84	0x3c5abcc0	0.013350666
85	0xbdb0006e	-0.08593832
86	0xbdb6a6fa	-0.08918567
87	0xbe507306	-0.20356378
88	0xbd3349fc	-0.04377173
89	0xbdf8ed45	-0.121546306
90	0x3d85d698	0.06535071
91	0x3d33aa9e	0.043863885
92	0xbe10b809	-0.14132704
93	0xbd0ebbeb	-0.03484718
94	0xbdfb26fa	-0.122632936
95	0x3d33c518	0.043889135
96	0x3d965e86	0.07342248
97	0x3d516864	0.051124945
98	0x3cf2bb6a	0.029630382
99	0x3d802f62	0.062590376
100	0x3c7f8e6a	0.015597919
101	0xbbc5e6f0	-0.006039493
102	0xbd00393b	-0.03130458
103	0xbd0e461e	-0.034734838
104	0xbce09120	-0.027412951
105	0x3ded281d	0.115799166
106	0xbe0a377c	-0.13497728
107	0x3db1d2d4	0.086827904
108	0x3c7a5134	0.015278149
109	0x3cd81461	0.026376905
110	0xbe1a1e2a	-0.15050569
111	0xbdb29a0e	-0.0872079
112	0xbcc236b1	-0.02370772
113	0x3df7baa5	0.120961465
114	0xbd0ac3bd	-0.033878077
115	0xbcaeed5b	-0.021353414
116	0xbd0cce3f	-0.03437638
117	0xbe61da11	-0.22055842
118	0x3dc8ca4c	0.0980421
119	0xbd8856a1	-0.06657148
120	0x3c7350be	0.014850793
121	0x3decd748	0.11564499
122	0xbd22dc68	-0.039760977
123	0x3bb6cf60	0.0055789202
124	0xbcda5f27	-0.0266567
125	0x3b8b94b2	0.004259669
126	0xbc1fc2ab	-0.009751002
127	0x3dc494f1	0.09598721
128	0xbd41bc32	-0.047298618
129	0xbdaea4f4	-0.08527556
130	0xbd7bd863	-0.06148566
131	0xbe102fab	-0.14080684
132	0xbd86ba0a	-0.06578453
133	0x3d789996	0.060693346
134	0x3da85cfb	0.082208596
135	0xbae44a03	-0.0017417077
136	0xbcef10dd	-0.029182846
137	0xbc274aa4	-0.010210667
138	0xbcc84eb4	-0.024451591
139	0x3d95fafd	0.07323263
140	0x3de3f0e7	0.11129933
141	0x3d49436f	0.049136575
142	0xbd930d91	-0.07180322
143	0xbd5928f0	-0.053017557
144	0x3b43f425	0.002990016
145	0x3b9cf841	0.0047903364
146	0xbdab46b2	-0.083630934
147	0xbd9ff02f	-0.07809483
148	0xbc281664	-0.010259245
149	0xbd9c6734	-0.07636872
150	0x3c801f96	0.015640061
151	0xbe40fa56	-0.18845496
152	0x3dd10923	0.10206821
153	0xbc129811	-0.008947388
154	0xbd809cef	-0.06279933
155	0x3de0fef4	0.109861284
156	0xbcf4d554	-0.029886879
157	0xbe15879a	-0.14602509
158	0x3dcbd6ba	0.09953065
159	0x3e1ab8fc	0.15109628
160	0x3ba34fa6	0.00498386
161	0x3c5f81eb	0.013641815
162	0x3ceffe78	0.029296145
163	0x3c8fade9	0.017538982
164	0xbe211abb	-0.15732853
165	0x3e1de25d	0.15418382
166	0x3dcfc11c	0.101442546
167	0x3e35f17e	0.17767903
168	0x3e2e8607	0.17043315
169	0x3de2a4a4	0.11066559
170	0xbe739c53	-0.23790102
171	0x3d0ccea3	0.03437675
172	0x3db70eb0	0.08938348
173	0x3d9f2b60	0.07771945
174	0xbd54b48c	-0.051929995
175	0x3dcde81a	0.100540355
176	0xbc67582a	-0.014120141
177	0x3ce75fd5	0.028243938
178	0x3e769123	0.24078803
179	0x3c929188	0.01789166
180	0x3e110919	0.14163627
181	0xbcddc94f	-0.02707353
182	0xbbb84675	-0.0056236335
183	0xbd39a2da	-0.045321323
184	0x3c8042a2	0.015656773
185	0xbdaaef54	-0.083464295
186	0x3e11851a	0.1421093
187	0xbd382f56	-0.044967018
188	0xbc96ac59	-0.018392729
189	0x3d0610d3	0.03273089
190	0xbd72adb5	-0.05924769
191	0x3d4a2241	0.049349073
192	0xbbb75b3f	-0.005595594
193	0xbdecc111	-0.11560262
194	0xbcdc7410	-0.026910812
195	0xbe119235	-0.1421593
196	0xbbe2d3ea	-0.006922235
197	0xbda22173	-0.07916536
198	0x3d844687	0.064587645
199	0x3da9bf41	0.08288432
200	0xbc31c9b9	-0.010851317
201	0x3d99ad09	0.07503707
202	0x3c8bfa4e	0.017087128
203	0x3e560be6	0.20902976
204	0xbd5f8c07	-0.0545769
205	0xbd0b613a	-0.03402827
206	0xbd846872	-0.06465234
207	0x3cfbe79d	0.03075009
208	0x3df2a5e9	0.11848051
209	0x3d815469	0.06314928
210	0x3d09eb9a	0.033671953
211	0xbd9c82a2	-0.07642104
212	0xbd3918e3	-0.04518975
213	0xbde50a93	-0.111836575
214	0x3c1572a1	0.009121568
215	0xbdffb844	-0.12486318
216	0xbdde81ec	-0.108646244
217	0xbc9f3610	-0.019434959
218	0xbdaabeba	-0.083371595
219	0x3ca4421b	0.020051053
220	0xbc9380a1	-0.018005671
221	0xbe219ffd	-0.15783687
222	0xbbcfb132	-0.006338262
223	0x3dc6c681	0.0970583
224	0x3e24f36f	0.16108488
225	0x3db98e17	0.090603046
226	0x3dedae67	0.1160553
227	0x3db51509	0.08841903
228	0xbd05ae88	-0.03263715
229	0xbd22b632	-0.039724536
230	0xbdbaf100	-0.09127998
231	0x3dfb67bf	0.12275647
232	0x3de1afd5	0.110198654
233	0xbdae04c8	-0.08497006
234	0xbe7d0bfe	-0.24711606
235	0x3e49fd3d	0.19725509
236	0xbbab82ea	-0.005234112
237	0xbcf39e5a	-0.029738594
238	0xbe534bc0	-0.20634365
239	0x3dc0e9cc	0.09419593
240	0xbd3ff18a	-0.04686121
241	0x3e599933	0.21249847
242	0x3e2dd7ca	0.16976848
243	0x3bfa3ad7	0.007636409
244	0x3ca057f3	0.019573187
245	0xbd857093	-0.065156125
246	0x3d85179d	0.064986445
247	0x3d4107c3	0.047126543
248	0x3ced5c12	0.028974567
249	0x3d4a2d28	0.04935947
250	0x3d866b8a	0.0656348
251	0xbdf96bf0	-0.121787906
252	0xbd8e6885	-0.06953529
253	0x3c119cae	0.008887453
254	0xbd3b9758	-0.04579863
255	0xbe29b2d4	-0.16572124

lstm.weight_hh_l1 f4 [256, 64]
0	0x3db6717c	0.08908364
1	0xbdc7e728	-0.097608864
2	0x3c79dd6b	0.015250544
3	0x3b9436cb	0.0045231334
4	0x3bd159db	0.0063888854
5	0xbda220f1	-0.07916439
6	0x3dd9e5be	0.10639523
7	0xbc72dcd2	-0.0148231555
8	0xbe185f24	-0.14880043
9	0xbd7e9b4d	-0.062159825
10	0x37f9f04b	2.9795008e-05
11	0x3d0d6dc7	0.03452852
12	0xbd60da08	-0.05489543
13	0x3d88ffd6	0.06689422
14	0xbd9f510e	-0.07779132
15	0xbd007e53	-0.031370472
16	0x3dc27b0c	0.094961256
17	0x3d2cffef	0.042236265
18	0xbdf29f6c	-0.118468136
19	0x3df19b9a	0.11797257
20	0xbc96c001	-0.018402101
21	0xbd79e57c	-0.06100987
22	0x3c7215c9	0.014775702
23	0x3d35f34d	0.044421483
24	0x3badf57f	0.0053088064
25	0x3dd37be9	0.10326368
26	0xbcea94e2	-0.028635446
27	0x3c1f621f	0.009727984
28	0x3bd58edf	0.0065172757
29	0xbd6f4145	-0.058411855
30	0x3cd3e3fb	0.025865545
31	0x3e2184e8	0.15773356
32	0x3a868107	0.0010261842
33	0xbb572dfe	-0.003283381
34	0x3d49c442	0.04925943
35	0x3d4ed120	0.050492406
36	0x3c5b8a8a	0.0133997295
37	0xbd0091a9	-0.031388912
38	0x3e0b5eb1	0.1361034
39	0x3c6d535d	0.014485207
40	0x3de45997	0.111499004
41	0xbdd83dad	-0.10558639
42	0x3d0ec4b4	0.03485556
43	0x3d6a1a56	0.057154022
44	0x3d1a79fd	0.037713993
45	0x3e01b9d8	0.1266855
46	0xbd111524	-0.035420552
47	0xbd99bd96	-0.07506864
48	0x3da750f7	0.0816974
49	0xbdb20079	-0.086914964
50	0x3d674507	0.056462314
51	0x3d22e52f	0.039769348
52	0xbda13368	-0.07871133
53	0xbe36b976	-0.17844185
54	0xbd1e3bc4	-0.038631216
55	0xbde6ad6c	-0.11263546
56	0x3d9056e0	0.0704782
57	0x3e2f6df2	0.17131785
58	0x3e1170c3	0.14203171
59	0xbe1c8d19	-0.152882
60	0x3dcca803	0.09992983
61	0xbd8ea7aa	-0.06965573
62	0x3d4fde60	0.050749183
63	0xbd639974	-0.055566266
64	0x3dc2ddf4	0.095149904
65	0xbdd13c95	-0.10216633
66	0xbdbe6db0	-0.09298265
67	0xbe304172	-0.17212465
68	0x3cc4e127	0.024033142
69	0x3d82ada4	0.063807756
70	0x3dde10ee	0.10843073
71	0xbe016a73	-0.12638263
72	0x3bb3c8ca	0.0054865824
73	0x3bb2b658	0.005453866
74	0xbdf59c7a	-0.11992736
75	0xbdf194e4	-0.11795977
76	0x3c5eaf6f	0.013591631
77	0xbd1920c4	-0.037384763
78	0x3db028c1	0.08601523
79	0x3df62b5e	0.120199904
80	0xbc852886	-0.016254675
81	0x3dec30fd	0.11532781
82	0x3d6173ce	0.05504208
83	0x3a00de5b	0.0004915946
84	0xbd8a12dd	-0.06741879
85	0x3d6ee756	0.058326088
86	0xbd11843d	-0.035526503
87	0xbd4c3ed8	-0.04986462
88	0x3d8b6cf2	0.06807889
89	0xbd9a0cb0	-0.07521951
90	0x3d17b950	0.037041962
91	0xbc9f56dc	-0.019450597
92	0x3dae4aee	0.085103855
93	0xbcf29432	-0.02961168
94	0xbce5dcd9	-0.02805941
95	0xbd96fb24	-0.0737212
96	0xbdc6efc8	-0.097137034
97	0xbd595d74	-0.05306764
98	0x3d7bd66c	0.061483786
99	0x3b590739	0.0033115877
100	0xbde36f79	-0.11105246
101	0xbe072301	-0.13196947
102	0x3e0451a4	0.12921768
103	0x3dce126d	0.10062108
104	0x3d960124	0.07324436
105	0x3db9f4b3	0.09079876
106	0x3d00108d	0.031265784
107	0xbdc4dc5a	-0.09612341
108	0xbdc73c15	-0.097282566
109	0x3df10239	0.11768002
110	0xbd12235c	-0.035678253
111	0x3dedaef8	0.11605638
112	0xbd30c02b	-0.043152016
113	0xbcc466bd	-0.02397477
114	0x3dc8fd8c	0.09813985
115	0x3dc608ab	0.09669622
116	0xbe69c44f	-0.22828792
117	0x3a79f1a9	0.00095346064
118	0xbda7fb53	-0.08202233
119	0xbddf6224	-0.10907391
120	0x3c7e0ea6	0.015506422
121	0x3db4cfe6	0.08828716
122	0x3a839d01	0.0010041298
123	0xbdc18f68	-0.09451181
124	0xbdd825dc	-0.10554096
125	0xbdf56238	-0.11981624
126	0x3ce954bd	0.02848279
127	0x3d4412b2	0.04786939
128	0x3e1479f1	0.14499642
129	0x3d08f0fe	0.033432953
130	0xbd81ed3b	-0.06344076
131	0xbcc641cc	-0.024201296
132	0xbe093805	-0.13400276
133	0xbc0d88f4	-0.008638609
134	0xbe13347c	-0.1437549
135	0xbd94cd6a	-0.07265742
136	0xbc0b4703	-0.008500817
137	0xbd8e7e11	-0.06957639
138	0xbc2a3879	-0.010389441
139	0xbe50ddac	-0.20397061
140	0x3d51bb4e	0.05120402
141	0xbcc1be47	-0.023650302
142	0xbd38fe53	-0.045164417
143	0x3df34b2e	0.11879574
144	0x3d24930d	0.0401793
145	0x3de7db82	0.11321165
146	0xbdfa0008	-0.12207037
147	0x3e14ef42	0.14544395
148	0x3dc38e31	0.09548605
149	0xbdf51f95	-0.119689144
150	0xbe51d220	-0.20490313
151	0x3dcd0462	0.100106016
152	0xbc84f9b1	-0.016232343
153	0xbd1836ee	-0.03716176
154	0xbd8204c0	-0.06348562
155	0x3d4c8abe	0.049937002
156	0x3cb40760	0.021976173
157	0xbdfbdad1	-0.12297595
158	0x3d968607	0.073497824
159	0xbd02b2b4	-0.031908706
160	0x3cfd15c4	0.030894168
161	0xbe3d88c8	-0.18509209
162	0x3df28aa3	0.11842849
163	0xbe0582f6	-0.13038239
164	0xbe553011	-0.20819117
165	0x3cb66625	0.022265503
166	0xbd5243b9	-0.051334117
167	0xbdcbdef0	-0.09954631
168	0xbd762b3a	-0.060099818
169	0xbd74db7f	-0.05977964
170	0x3d6c566c	0.057699606
171	0x3d8991df	0.06717276
172	0x3c2528ff	0.010080575
173	0xbe1a84c4	-0.15089709
174	0xbd405152	-0.046952553
175	0xbde2e36a	-0.11078532
176	0x3c899473	0.016794419
177	0xbd7c9c5e	-0.06167256
178	0x3bbabac9	0.005698536
179	0xbd2f2979	-0.04276416
180	0xbd54262d	-0.05179422
181	0x3bd63dca	0.0065381275
182	0xbdd2d33e	-0.102941975
183	0x3e056001	0.13024904
184	0x3d1c4bdc	0.038158283
185	0xbd50670b	-0.05087952
186	0x3e05d704	0.13070303
187	0xbe085af2	-0.13315943
188	0x3dc5507b	0.09634491
189	0x3db9913d	0.09060905
190	0x3d65353c	0.05595897
191	0xbdc2740e	-0.09494792
192	0xbdb7e361	-0.08978916
193	0x3cc5a9b2	0.024128769
194	0x3db85b65	0.09001807
195	0xbc8f227b	-0.017472496
196	0xbd2695fd	-0.040670384
197	0xbda3260b	-0.079662405
198	0x3e059a00	0.13047028
199	0x3d0a03d9	0.033695076
200	0xbc9b87d9	-0.018985676
201	0x3c524e83	0.012836101
202	0xbda8ce11	-0.08242429
203	0xbe22b6b3	-0.15890007
204	0x3dd673a9	0.10471279
205	0xbcbfd2c0	-0.023415923
206	0xbde92090	-0.11383164
207	0x3e11eb53	0.14249925
208	0x3e336744	0.17519861
209	0xbda69108	-0.08133131
210	0xbdd21ce7	-0.10259419
211	0x3e08e8c2	0.1337004
212	0xbd5740c0	-0.052551985
213	0x3c0bf7f7	0.008543006
214	0xbc820952	-0.015873585
215	0xbdf61191	-0.12015069
216	0xbd8fd538	-0.0702309
217	0xbd50d3b0	-0.05098313
218	0x3e3e12e6	0.18561897
219	0xbdb0ded3	-0.0863625
220	0xbcb6b1ad	-0.02230152
221	0xbd82626a	-0.06366427
222	0xbc8d2307	-0.017228616
223	0x3d8b5237	0.068027906
224	0xbbab65d4	-0.0052306447
225	0xbd3872a0	-0.04503119
226	0x3e2ace73	0.16680317
227	0x3cca30f5	0.024681548
228	0xbdd31330	-0.10306394
229	0xbe114659	-0.14186992
230	0x3d5b4642	0.0535338
231	0xbdf4f15a	-0.11960097
232	0x39ffed34	0.0004881412
233	0xbcce332b	-0.025170883
234	0xbd2d279e	-0.04227411
235	0x3d42503f	0.04743981
236	0xbcc4307c	-0.0239489
237	0x3ca54093	0.020172393
238	0x3d8c3a83	0.06847098
239	0x3e218e9c	0.15777057
240	0x3e05e2b6	0.13074765
241	0xbd8bc2de	-0.06824277
242	0xbdaedf44	-0.08538678
243	0x3c875bcf	0.01652327
244	0xbe424e35	-0.18975146
245	0xbe7de041	-0.24792577
246	0x3bd9c2c4	0.0066455323
247	0xbde96dd6	-0.11397903
248	0xbdf0430c	-0.11731538
249	0x3e76f428	0.24116576
250	0x3cb9b628	0.022669867
251	0xbe516105	-0.20447166
252	0x3df54fbd	0.119780995
253	0x3ba38c5e	0.0049910983
254	0x3d378c94	0.0448118
255	0xbd9fdf74	-0.07806292

lstm.bias_ih_l1 f4 [256]
0	0x3e81e25c	0.2536801
1	0x3c49ad74	0.012309421
2	0x3e2f0f3a	0.17095652
3	0x3eaccca5	0.3374988
4	0xbd947b4b	-0.07250079
5	0x3defd9de	0.11711477
6	0x3e2b856c	0.16750115
7	0x3dd9517c	0.10611245
8	0x3da22f13	0.07919135
9	0x3d6375aa	0.055532135
10	0xbcb90591	-0.022585662
11	0x3ddf3b13	0.108999394
12	0x3df58082	0.119874015
13	0x3dcb6fef	0.09933459
14	0xbd255066	-0.040359877
15	0xbd929433	-0.07157173
16	0x3cb0eed1	0.021598252
17	0x3daa2e11	0.08309568
18	0x3ca451df	0.02005857
19	0x3dc0ad72	0.09408082
20	0xbd350573	-0.04419465
21	0x3d733b02	0.059382446
22	0x3d2e294a	0.042519845
23	0x3e7100bd	0.23535438
24	0x3dae9a4e	0.08525525
25	0xbc9213ea	-0.017831761
26	0x3ccbe221	0.0248881
27	0x3d93ef7c	0.072234124
28	0x3cfa81cd	0.030579472
29	0x3e55a440	0.20863438
30	0x3d89d53f	0.067301266
31	0x3cf15192	0.029457841
32	0x399046bf	0.0002751853
33	0x3e49e569	0.1971642
34	0x3d8640fd	0.06555364
35	0xbe12a35c	-0.14320129
36	0x3de76af5	0.11299697
37	0x3cce7359	0.025201486
38	0x3ddba710	0.10725224
39	0x3e4c1b0a	0.1993219
40	0xbe21ad08	-0.15788662
41	0x3e32f0c2	0.17474654
42	0x3e33f503	0.17573933
43	0xbdb21398	-0.086951435
44	0x3da036d8	0.078229606
45	0xbd6611c6	-0.056169294
46	0x3c673807	0.014112479
47	0x3e5dbc4c	0.21653861
48	0xbcd731e7	-0.026268912
49	0x3daabcab	0.08336767
50	0x3d8d2c06	0.068931624
51	0xbe3aa40d	-0.18226643
52	0x3e31d661	0.17366935
53	0x3c6bc6fd	0.014390704
54	0x3e945b9b	0.2897614
55	0x3e4b71c3	0.19867615
56	0x3d19ec23	0.037578713
57	0x3e614625	0.21999414
58	0x3dc5bc1a	0.09655018
59	0x3e643762	0.22286752
60	0xbd9a9324	-0.07547596
61	0x3dfe8244	0.1242719
62	0x3e19de6e	0.15026256
63	0x3d4c7ac2	0.04992176
64	0x3cfea3fa	0.03108405
65	0xbe23c177	-0.1599177
66	0x3cd7d37b	0.026345959
67	0x3d27541f	0.04085171
68	0xbdaed6a5	-0.08537034
69	0x3d9bf560	0.07615161
70	0xbe0ede66	-0.13952026
71	0xbdd324e7	-0.10309773
72	0xbd79482d	-0.060859848
73	0xbd0d5c25	-0.034511704
74	0xbddacdcc	-0.10683784
75	0x3d192a66	0.03739395
76	0x3d618d55	0.055066425
77	0x3d574299	0.052553747
78	0xbd5f93fa	-0.05458448
79	0xbd696b11	-0.056986872
80	0x3d165fcd	0.036712456
81	0x3c958cf7	0.018255694
82	0xbd8525a2	-0.065013185
83	0xbe1c9da0	-0.15294504
84	0x3d72658f	0.059178885
85	0x3d43cc5e	0.04780232
86	0xbe075fbf	-0.13220118
87	0xbdd00538	-0.101572454
88	0xbd99530e	-0.074865445
89	0xbddad1bf	-0.10684537
90	0xbd19e967	-0.037576105
91	0xbe094ebb	-0.1340894
92	0xbb60ff07	-0.0034331696
93	0xbc8d139c	-0.017221265
94	0x3c791d61	0.015204758
95	0xbd3a2403	-0.0454445
96	0xbbe97917	-0.0071250307
97	0xbe0435ae	-0.12911102
98	0x3cddb673	0.027064538
99	0x3d1df7c1	0.038566355
100	0xbd956e69	-0.0729645
101	0x3d326d73	0.04356141
102	0xbd29c29b	-0.041445356
103	0xbdf32a61	-0.118733175
104	0x3d87210e	0.065981016
105	0xbcb8452b	-0.02249392
106	0x3e0b0692	0.13576725
107	0xbe66ccf9	-0.22539128
108	0xbdd16cc4	-0.102258235
109	0xbda4bcfb	-0.08043858
110	0xbb7ba297	-0.0038396472
111	0xbde80bcd	-0.11330376
112	0xbd16101e	-0.036636464
113	0xbd9bb28a	-0.07602413
114	0xbdecbf51	-0.11559928
115	0xbe113b41	-0.1418276
116	0xbc90263d	-0.017596358
117	0x3d2b5dff	0.04183769
118	0xbe194f15	-0.14971574
119	0xbdd4ad06	-0.10384564
120	0xbdbc890d	-0.09205828
121	0xbd6e99bb	-0.058252078
122	0xbd37b440	-0.044849634
123	0x3d2e177f	0.042502876
124	0xbdb34511	-0.08753408
125	0xbca83e37	-0.020537479
126	0x3d5866a9	0.05283228
127	0x3dc9446c	0.098275036
128	0xbdee2410	-0.11627972
129	0xbd1c0e82	-0.038099773
130	0xbc18c5a9	-0.00932447
131	0xbd99e8df	-0.0751512
132	0xbd1280f6	-0.035767518
133	0xbd4ce76a	-0.05002538
134	0x3ba5b419	0.0050568697
135	0xbda22230	-0.07916677
136	0x3b3f2995	0.0029169072
137	0x3dd48d42	0.10378505
138	0xbdd62b06	-0.10457425
139	0x3c951581	0.01819873
140	0x3df2fffe	0.11865233
141	0x3b0a5a41	0.0021110924
142	0xbdbea3fa	-0.0930862
143	0x3da09428	0.078407586
144	0xbc9ce979	-0.019154297
145	0x3dcc5e0b	0.09978875
146	0xbdbd7ee2	-0.092527166
147	0x3d9910dd	0.074739195
148	0xbdc89f5c	-0.097960204
149	0xbd0ba220	-0.03409016
150	0xbd9a1c47	-0.07524925
151	0xbd9293b0	-0.071570754
152	0xbd8805d2	-0.06641735
153	0x3c897cda	0.016783167
154	0x3cd816f7	0.026378138
155	0x3d93a34c	0.07208881
156	0x3b06578e	0.0020498964
157	0x3d661a62	0.056177504
158	0xbbaf4d99	-0.0053498265
159	0x3daaa05f	0.083313696
160	0xbd6b41c3	-0.057435762
161	0xbd91b6e9	-0.071149655
162	0x3dd6839a	0.1047432
163	0xbcf81693	-0.030284202
164	0xbcc91fe3	-0.024551338
165	0x3cccf9e2	0.025021497
166	0xbd571de4	-0.05251874
167	0x3da845b8	0.08216423
168	0xbdd9e3f3	-0.10639181
169	0x3c97e064	0.018539615
170	0xbc67e52c	-0.01415376
171	0x3d03227a	0.0320153
172	0xbd36ba17	-0.044611063
173	0x3d9b4698	0.07581824
174	0xbd67cbf1	-0.056590978
175	0x3d8e0984	0.06935409
176	0x3dd8f08b	0.10592755
177	0x3cdd2cdc	0.02699893
178	0xbd8391b8	-0.06424278
179	0xbd573f00	-0.052550316
180	0xbdd042c8	-0.101689875
181	0xbde4f361	-0.11179233
182	0x3da85516	0.08219354
183	0x3da31cb2	0.079644576
184	0xbd1dc445	-0.038517255
185	0x3dbb1976	0.09135716
186	0x3da53d1e	0.08068298
187	0xbd9b954b	-0.07596835
188	0x3dd0337a	0.101660684
189	0x3dcc787a	0.099839166
190	0xbddb3c95	-0.107049145
191	0xbda9a8db	-0.0828416
192	0x3e727d1e	0.23680541
193	0xbd615d59	-0.055020664
194	0x3e31add6	0.1735147
195	0x3da6adc1	0.0813861
196	0xbd87b35b	-0.06626006
197	0x3e0919c2	0.13388732
198	0x3e87ff8b	0.2656215
199	0x3e3348cf	0.17508243
200	0xbe0eedaa	-0.13957849
201	0xbd0236fa	-0.03179071
202	0x3db36523	0.08759525
203	0x3d94bb15	0.072622456
204	0x3d134ec3	0.035963785
205	0x3d112d7a	0.03544376
206	0xbd2c4eaa	-0.042067207
207	0x3d8facea	0.070154026
208	0x3df043d4	0.11731687
209	0xbd44f607	-0.048086192
210	0x3dab881b	0.083755694
211	0xbdded116	-0.10879724
212	0xbdd55cf0	-0.10418117
213	0x3ddfe4e7	0.109323315
214	0x3c1f7e75	0.00973474
215	0x3dcad674	0.09904185
216	0x3da665ce	0.081248865
217	0xba764348	-0.0009394181
218	0xbc3db573	-0.011578905
219	0x3e0a3da5	0.13500078
220	0xbd84dac0	-0.06487036
221	0xbd8a3fac	-0.06750426
222	0x3d8b1d9e	0.067927584
223	0x3e0e604f	0.13903926
224	0x3caab89e	0.020839985
225	0x3de0b35a	0.109717086
226	0x3be3f372	0.006956511
227	0xbe182620	-0.14858294
228	0x3d68458e	0.056706958
229	0x3db1413f	0.08655023
230	0x3e1a82ce	0.1508896
231	0x3e0864c6	0.13319692
232	0xbd159afc	-0.036524758
233	0xbd9de17e	-0.07709025
234	0x3d13ea08	0.03611186
235	0x3d946891	0.07246507
236	0x3e08d3b6	0.13362011
237	0x3d2be224	0.04196371
238	0x3e2c27bd	0.16812034
239	0x3cf125c0	0.029436946
240	0xbd1bb21e	-0.038011663
241	0x3c4e8a88	0.012606271
242	0x3da09de6	0.07842617
243	0xbd81f189	-0.06344897
244	0xbbf5a73f	-0.007496744
245	0x3e1d8242	0.1538172
246	0x3e68c4f1	0.22731377
247	0x3d000963	0.031258952
248	0x3e07e487	0.1327077
249	0x3d0b34bc	0.03398584
250	0x3dc59fcb	0.09649619
251	0x3c18a3d4	0.009316403
252	0xbd77a634	-0.060461238
253	0xbdca86ec	-0.098890156
254	0x3e4f7a7d	0.2026157
255	0x3e0b2722	0.13589147
